ppo_training_results/policy_net.pth (torch, 359597 bytes, 8 tensors)

fc1.weight f4 [128, 180]
0	0xbd99200e	-0.07476817
1	0xbd6d6908	-0.057961494
2	0x3d9e12c5	0.07718424
3	0x3cb25c47	0.021772517
4	0xbd86da0e	-0.065845594
5	0xbd814b2e	-0.063131675
6	0x3ca4fef1	0.020141097
7	0x3d51f8c3	0.05126263
8	0x3d5e81f2	0.054323144
9	0x3d310266	0.043215178
10	0x3c385863	0.011251542
11	0xbc6296e8	-0.013829924
12	0x3d7bc13f	0.06146359
13	0x3c1c98db	0.009557928
14	0xbc865af1	-0.016400786
15	0x3dad3f05	0.08459286
16	0x3d95ee50	0.07320845
17	0xbbd93432	-0.0066285366
18	0xbd01abfa	-0.03165815
19	0xbcee79a6	-0.02911074
20	0x3d9ba1d6	0.07599227
21	0xbd57bd33	-0.05267067
22	0x3cc713ff	0.024301527
23	0x3d333ada	0.043757297
24	0xbd6f379d	-0.058402646
25	0xbd7678bc	-0.060173735
26	0x3d48981d	0.04897319
27	0x3d0cd149	0.034379277
28	0xbcedd9a8	-0.02903445
29	0xbbde1b5d	-0.0067781643
30	0xbd315461	-0.04329336
31	0x3d4aafd2	0.04948408
32	0xbc762ee6	-0.01502583
33	0xbc03c209	-0.008041867
34	0x3da9ffe3	0.0830076
35	0x3d922b31	0.07137144
36	0x3ba2835b	0.0049595064
37	0xbce98614	-0.028506316
38	0xbce78b91	-0.028264793
39	0x3c521465	0.012822245
40	0xbdc5592b	-0.09636148
41	0xbce9697c	-0.028492682
42	0xbe2574ce	-0.16157839
43	0x3da242f1	0.07922924
44	0xbd737f15	-0.059447367
45	0x3d53d48a	0.051716365
46	0x3dad9d04	0.08477214
47	0xbdd00a28	-0.10158187
48	0xbdb7da6e	-0.08977209
49	0x3b8f23ca	0.00436828
50	0x3d588bff	0.052867886
51	0x3b3422e8	0.0027486626
52	0x3db5d60a	0.08878715
53	0x3d29511e	0.041337125
54	0xbd82e308	-0.06390959
55	0xbb8debbc	-0.0043310802
56	0xbd94b2f1	-0.07260693
57	0x3d4bc437	0.049747672
58	0xbd16e77c	-0.036841854
59	0xbd57b006	-0.052658103
60	0x3db59e0c	0.08868036
61	0x3cc8c23c	0.02450668
62	0x3da832a5	0.08212785
63	0xbdb384b4	-0.087655455
64	0x3dbf51e5	0.09341792
65	0xbd908349	-0.07056291
66	0xbcd0c094	-0.025482453
67	0x3b69c204	0.003566862
68	0xbd8a4453	-0.06751313
69	0xbcca295f	-0.02467793
70	0x3db5bceb	0.08873924
71	0xbda5bc1c	-0.0809252
72	0x3c8577c0	0.016292453
73	0x3c4544e5	0.0120403515
74	0xbe0f96b3	-0.14022331
75	0xbe03ea16	-0.12882265
76	0xbdf580ae	-0.11987434
77	0xbbd81464	-0.0065942276
78	0x3b88d0ce	0.004175282
79	0xbd2363e8	-0.0398902
80	0xbc3a1c2e	-0.011359258
81	0xbdb37bf7	-0.08763879
82	0x3db9f02d	0.09079013
83	0xbd778aa1	-0.06043494
84	0x3d146612	0.036230154
85	0xbd84c2c3	-0.0648246
86	0xbc710074	-0.014709581
87	0x3caf9820	0.021434844
88	0x3cf0f084	0.029411562
89	0x3d01c676	0.031683408
90	0xbc8b512f	-0.017006485
91	0xbc03ce95	-0.008044858
92	0x3de3ba55	0.111195244
93	0x3dcdec46	0.10054831
94	0x3c879c98	0.016554162
95	0x3d473ec9	0.04864386
96	0xbd483c38	-0.048885554
97	0x3d2b725c	0.04185711
98	0x3cc06e10	0.023489982
99	0xbc5591bd	-0.013035235
100	0x3e05d8ac	0.13070935
101	0xbd8fe17c	-0.070254296
102	0x3d1c38aa	0.038139977
103	0x3d28b561	0.0411886
104	0x3d0c5239	0.0342581
105	0x3d2ca70f	0.042151507
106	0x38175529	3.6080517e-05
107	0xbd88bf25	-0.06677083
108	0x3d12816c	0.035767958
109	0xbd8819a2	-0.06645514
110	0x3da56178	0.08075231
111	0x3cd8b55b	0.026453665
112	0x3c172ecd	0.009227467
113	0xbb4a1a02	-0.0030838256
114	0xbd8f8144	-0.07007077
115	0xbd7dd37e	-0.061969273
116	0xbd60298d	-0.054727126
117	0xbdca412c	-0.09875712
118	0x3ca575fd	0.020197863
119	0x3cf0b3df	0.029382644
120	0xbc06645d	-0.008202639
121	0xbceed011	-0.029151948
122	0xbdb5843a	-0.08863111
123	0xbc0face6	-0.00876925
124	0xbb976e21	-0.0046212827
125	0xbd8e5824	-0.06950405
126	0x3b9fb379	0.0048736897
127	0x3d2be939	0.041970465
128	0x3da5fde5	0.08105067
129	0x3d377ee0	0.04479873
130	0x3da82ad5	0.082112946
131	0xbd3f175d	-0.04665314
132	0xbd472d59	-0.04862723
133	0xbdabaff5	-0.083831705
134	0xbd5c01ba	-0.053712584
135	0xbd649193	-0.055802893
136	0x3d83a00c	0.06427011
137	0xbd6554ee	-0.0559892
138	0x3d24ff18	0.04028234
139	0xbd0f8268	-0.035036474
140	0xbdd02065	-0.10162429
141	0xbc5f9c45	-0.013648097
142	0x3d541ae8	0.051783472
143	0x3d652f2d	0.055953193
144	0x3d45bf06	0.048277877
145	0xbcef9b8d	-0.029248977
146	0x3c22beb5	0.009933163
147	0xbddeb6f8	-0.10874742
148	0x3d78fc4f	0.060787495
149	0x3d414ff7	0.0471954
150	0x3d7f28ed	0.06229489
151	0xbd9c0370	-0.07617843
152	0x3e145772	0.14486483
153	0x3cffd989	0.031231659
154	0x3c8932e7	0.016747905
155	0xbd83b906	-0.06431775
156	0x3d3a274d	0.045447636
157	0xbdb081df	-0.08618521
158	0x3e019c63	0.12657313
159	0x3dfd6c0a	0.123741224
160	0xbd74a1e7	-0.059724715
161	0x3d9c9d33	0.07647171
162	0x3cdf9df8	0.027297005
163	0xbdb645da	-0.08900042
164	0x3d1c7ec2	0.038206823
165	0xbd2a4056	-0.04156526
166	0x3d770e13	0.060316157
167	0x3d32cb34	0.04365082
168	0x3ba6884e	0.0050821668
169	0xbbeb0651	-0.007172384
170	0x3d96f40b	0.07370766
171	0x3c8361c6	0.016037833
172	0xbd6dbb0c	-0.05803971
173	0xbcb1e442	-0.021715287
174	0x3d239033	0.03993244
175	0x3ba79b06	0.005114916
176	0x3d445501	0.04793263
177	0xbb92352a	-0.004461904
178	0xbc8c4d59	-0.017126726
179	0xbb65c7d7	-0.003506174
180	0x3dbbf3d2	0.091773644
181	0xbd1630e0	-0.036667705
182	0xbc346285	-0.011009817
183	0xbd791b97	-0.060817327
184	0xbd9d4c62	-0.076805845
185	0xbca6b363	-0.02034921
186	0x3d211411	0.039325777
187	0x3ccd35ff	0.025050161
188	0x3dda7067	0.1066597
189	0xbd8f3d03	-0.06994059
190	0xbcc7688f	-0.02434185
191	0xbdc7ad2c	-0.09749827
192	0xbd909eef	-0.07061564
193	0xbd852daf	-0.06502854
194	0x3d025d54	0.031827286
195	0xbcb3c19c	-0.021942906
196	0xbde78cdf	-0.11306166
197	0xbcfa3b06	-0.030545723
198	0xbd1122b4	-0.035433486
199	0x3d8e9da4	0.06963661
200	0x3d7deafe	0.061991684
201	0x3caa0030	0.020752043
202	0xbdade430	-0.08490789
203	0xbe05e342	-0.13074973
204	0x3ceb87d7	0.028751297
205	0xbd685496	-0.056721292
206	0xbcbd3a50	-0.023099095
207	0xbd119181	-0.035539154
208	0x3d7867cc	0.060645863
209	0x3b0a1140	0.002106741
210	0x3c78a9da	0.0151772145
211	0x3d13e8f8	0.03611085
212	0xbd1771bb	-0.036973696
213	0x3da71389	0.08158023
214	0xbd6b11d6	-0.057390057
215	0x3d810784	0.063002616
216	0x3d9ff27d	0.07809923
217	0xbca67e41	-0.020323874
218	0xbe2d7bb4	-0.1694172
219	0xbd288bab	-0.041148823
220	0x3d9df628	0.07712966
221	0xbc9b9167	-0.018990232
222	0x3de06008	0.109558165
223	0x3cb1f519	0.021723317
224	0xbd17791e	-0.03698074
225	0xbdcfb004	-0.10140994
226	0x3c0fe959	0.008783662
227	0x3c97155e	0.018442806
228	0x3d4d581a	0.05013285
229	0x3ddef92f	0.10887372
230	0xbd8cf529	-0.06882698
231	0xbdf0be01	-0.1175499
232	0xbdb6a278	-0.08917707
233	0xbdd0c027	-0.101929
234	0xbd1e4426	-0.03863921
235	0xbd1d3d8e	-0.03838878
236	0xbdcddd1d	-0.1005194
237	0x3da9fbb3	0.08299961
238	0xbd9fa1c9	-0.0779453
239	0xbe042767	-0.12905656
240	0xbd47eacb	-0.0488079
241	0xbd42142b	-0.047382515
242	0xbd1c4383	-0.03815032
243	0x3d284ef3	0.041090917
244	0x3d57dd78	0.052701443
245	0x3d51e99d	0.05124818
246	0xbd8b7856	-0.06810062
247	0xbdcede1f	-0.1010096
248	0x3c8d48e7	0.017246677
249	0x3ca22c8d	0.019796634
250	0x3d1fa861	0.038978938
251	0x3cf02b04	0.029317386
252	0xbd3c93d1	-0.046039406
253	0x3b47a8af	0.0030465533
254	0xbd41db03	-0.047328006
255	0xbc995ed3	-0.018721974

fc1.bias f4 [128]
0	0x3c40363b	0.01173168
1	0xbd47ad0f	-0.048749026
2	0xbd726706	-0.059180282
3	0xbca963b1	-0.02067742
4	0x3cf060ab	0.02934297
5	0x3d32ca78	0.04365012
6	0xbd8420fe	-0.06451605
7	0xbd8c6b78	-0.068564355
8	0x3b4cf5cd	0.0031274438
9	0xbd889651	-0.066692956
10	0x3cb0951d	0.021555478
11	0xbda39916	-0.07988183
12	0xbbc1f958	-0.0059196167
13	0xbd706bcf	-0.058696564
14	0x3d12f5da	0.035878994
15	0x3cefc6e9	0.029269652
16	0x3c52810c	0.01284815
17	0xbc2cb066	-0.010540104
18	0xbd3bfcfa	-0.045895554
19	0xbd785ea5	-0.060637135
20	0x3ce6a2cc	0.0281538
21	0x3d2c581a	0.042076208
22	0x3c817296	0.01580171
23	0xbd6d6d1c	-0.057965383
24	0xbda06014	-0.078308254
25	0x3d5fc45b	0.05463062
26	0xbcf8d623	-0.030375546
27	0x3c0b5367	0.008503771
28	0xbd02f03d	-0.03196739
29	0xbdc04355	-0.093878426
30	0xbd09f05c	-0.03367649
31	0x3b0367fc	0.0020050993
32	0x3ce0c141	0.0274359
33	0xbdb38fb2	-0.08767642
34	0xbb9d6c16	-0.0048041446
35	0xbdb3ee3d	-0.08785675
36	0x3d14c624	0.036321774
37	0x3bf9729d	0.00761254
38	0x3d1c772c	0.03819959
39	0xbd8283d1	-0.06372798
40	0xbd371f84	-0.04470779
41	0xbd4a88bb	-0.049446803
42	0xbd835c9b	-0.064141475
43	0xbdb6080b	-0.08888253
44	0xbccd730c	-0.025079273
45	0xbad3b80d	-0.0016152874
46	0x3c2d0c83	0.010562065
47	0xbd3de9a5	-0.0463654
48	0x3d4dba3e	0.050226443
49	0x3d655d1f	0.05599701
50	0x3c4b6dda	0.012416327
51	0xbccd1221	-0.025033059
52	0x3c806b07	0.015676035
53	0x3b838fbb	0.0040149367
54	0x3c68f191	0.01421775
55	0x3d787391	0.060657088
56	0xbb410aa4	-0.0029455805
57	0xbc855951	-0.016277941
58	0x3d842d85	0.06453995
59	0x3c6b868b	0.014375339
60	0xbc57d2d1	-0.013172821
61	0x3d614fe4	0.05500783
62	0x3db79587	0.08964067
63	0xbcc7a961	-0.024372758
64	0xbb8573d7	-0.004072647
65	0x3cc9d250	0.024636418
66	0xbc5e0158	-0.013550125
67	0xbcae119f	-0.021248637
68	0xbd35510e	-0.044266753
69	0x3c59f7c1	0.013303698
70	0x3d9ece54	0.07754198
71	0xbc5f85a7	-0.013642705
72	0x3bd47095	0.0064831474
73	0x3bdbb718	0.006705176
74	0x3d7abfec	0.061218187
75	0xbd908ac4	-0.070577174
76	0x3d8ec639	0.06971402
77	0xbbcb3577	-0.006201442
78	0xbd0743fe	-0.033023827
79	0x3c6721a3	0.014107141
80	0x3d7e8710	0.062140524
81	0xbd7deeac	-0.061995193
82	0x3d2ff5b0	0.042958915
83	0x3d51c2f9	0.05121133
84	0xbbd014f6	-0.006350155
85	0xbcf59e6d	-0.02998277
86	0xbc856d4e	-0.016287472
87	0xbd64c4de	-0.05585181
88	0xbd71406b	-0.058899324
89	0xbd5c53b7	-0.053790774
90	0xbd69870f	-0.057013568
91	0xbd8399b0	-0.06425798
92	0xbccd1968	-0.025036529
93	0xbd6067d9	-0.054786537
94	0xbd4d77d4	-0.050163105
95	0xbc63453f	-0.01387149
96	0x3bdea9e8	0.0067951567
97	0xbcf04afc	-0.02933263
98	0xbcd5df12	-0.026107345
99	0xbd54e2a7	-0.051973965
100	0xbceb048c	-0.028688692
101	0xbc2d6a46	-0.01058442
102	0x3c10e765	0.008844231
103	0xbb44977e	-0.0029997523
104	0x3cd1ba31	0.025601478
105	0x3d8885e7	0.06666165
106	0x3c2692d6	0.010166844
107	0xbd6d3966	-0.057916068
108	0xbda692cf	-0.0813347
109	0x3cb7a9d6	0.022419851
110	0xbd7fa0d0	-0.062409222
111	0xbd4249ef	-0.04743379
112	0xbd1de769	-0.038550768
113	0xbbd8e28c	-0.0066188034
114	0xbc2e4545	-0.010636632
115	0x3c67aac9	0.014139839
116	0x3cec7aa1	0.028867068
117	0xbdbe4237	-0.09289973
118	0x3b661c68	0.0035112146
119	0xbd5b32c4	-0.05351521
120	0xbcc7bde0	-0.024382532
121	0xbb8dc006	-0.0043258695
122	0x3be23145	0.006902846
123	0xbd10e142	-0.035371073
124	0x3d9ac092	0.07556261
125	0x3be1dd60	0.006892845
126	0xbb880cf6	-0.0041519357
127	0x3d79eb6a	0.061015524

fc2.weight f4 [128, 128]
0	0x3d6b1cf3	0.057400655
1	0x3dc70974	0.097186
2	0x3ce1ace8	0.027548268
3	0xbdc73523	-0.09726932
4	0xbd8e5599	-0.0694992
5	0xbd023530	-0.031789005
6	0xbd7c2a4d	-0.06156378
7	0xbdc4ed49	-0.09615571
8	0xbd4dd066	-0.050247572
9	0xbb553872	-0.0032534865
10	0x3daf7054	0.08566347
11	0xbabd62a4	-0.0014448953
12	0x3d83f7e0	0.06443763
13	0xbd06d955	-0.032922108
14	0xbccfb183	-0.025353199
15	0xbd3dd915	-0.046349604
16	0xbd9440fa	-0.07238956
17	0x3d994294	0.07483402
18	0x3dcc9558	0.099894226
19	0xbba85d2a	-0.005138059
20	0x3daed420	0.085365534
21	0xbde9a65d	-0.114086844
22	0x3e04b6e5	0.12960394
23	0x3d73b13e	0.059495203
24	0x3ca1dec5	0.019759545
25	0x3de898e3	0.11357286
26	0x3cbd75a9	0.023127394
27	0xbd42221f	-0.04739582
28	0x3d464dc2	0.048414
29	0x3cfb60cc	0.030685805
30	0x3dce523c	0.10074279
31	0x3d4f2435	0.05057164
32	0xbcef20cf	-0.029190449
33	0xbdf91148	-0.12161499
34	0x3db4795b	0.08812209
35	0xbd6ceb02	-0.05784131
36	0xbd8fa2d4	-0.07013479
37	0xbda7493f	-0.081682675
38	0x3d51e13f	0.051240202
39	0x3da0f1c8	0.07858616
40	0x3d9f00b4	0.07763806
41	0xbcfd179b	-0.030895045
42	0xbcb06cbc	-0.021536224
43	0x3c469c58	0.012122236
44	0xbd0e1bcc	-0.034694478
45	0x3bb77459	0.0055985865
46	0xbe0aa4a1	-0.13539363
47	0xbd0cd6b1	-0.034384433
48	0xb9e03ef0	-0.00042771501
49	0xba88ab44	-0.0010427018
50	0xbd338cdd	-0.04383551
51	0xbdccbe10	-0.09997189
52	0xbd39358a	-0.045217074
53	0xba6012b6	-0.000854771
54	0x3c3dbd1b	0.011580731
55	0x3c75c9a2	0.015001686
56	0x3dfdb570	0.12388122
57	0xbd86346c	-0.065529674
58	0x3d68e792	0.056861468
59	0x3cadbd10	0.021208316
60	0x3df97b41	0.12181712
61	0xbd82a036	-0.06378214
62	0xbcb899b0	-0.022534221
63	0xbd12c5d8	-0.03583321
64	0xbe00c408	-0.1257478
65	0x3d295a3a	0.041345812
66	0x3d93d9ba	0.072192624
67	0xbdfee7dc	-0.124465674
68	0xbd007929	-0.031365547
69	0xbd305a15	-0.04305466
70	0xbd9bb279	-0.076024
71	0xbd5f8944	-0.054574266
72	0xbcfdf807	-0.031002058
73	0xbddecc27	-0.10878783
74	0x3d18d00c	0.037307784
75	0x3d1312c3	0.035906564
76	0x3c34c6d7	0.011033735
77	0xbd3d7377	-0.046252694
78	0xbdc7233c	-0.09723517
79	0x3da134ca	0.07871397
80	0xbc641b39	-0.013922506
81	0xbd91bec4	-0.07116464
82	0x3dd9edbe	0.10641049
83	0xbdacc00c	-0.084350675
84	0x3ca47076	0.020073157
85	0xbd872d5c	-0.066004485
86	0x3daeba04	0.085315734
87	0xbd173abd	-0.03692125
88	0xbda294b4	-0.07938519
89	0x3d94b9f2	0.07262029
90	0xbdac85d6	-0.08423965
91	0xbda2775c	-0.07932922
92	0x3cb72198	0.022354886
93	0xbdc39a9d	-0.095509745
94	0x3dad0aad	0.08449302
95	0xbd12a6ba	-0.035803534
96	0x3c9e0788	0.0192907
97	0x3e0f115a	0.13971463
98	0x3c8530f4	0.016258694
99	0xbdc9aef2	-0.09847821
100	0x3d3058e2	0.043053515
101	0x3d667a30	0.05626887
102	0x3cbe1a34	0.023205854
103	0x3bc66aa9	0.0060551954
104	0x3df73662	0.120709196
105	0x3d7a02e5	0.061037917
106	0x3ce15d90	0.027510434
107	0xbbd8d8af	-0.0066176276
108	0x3c528194	0.012848277
109	0x3d038a8c	0.03211455
110	0xbd07c492	-0.03314645
111	0x3d86bcc3	0.06578972
112	0x3d8e6194	0.06952205
113	0xbaed57d4	-0.001810784
114	0xbbb97af5	-0.0056604096
115	0x3d9ce2c4	0.076604396
116	0xbd35a6bb	-0.04434846
117	0xbdc2c820	-0.09510827
118	0x3d95ba7d	0.073109604
119	0xbdf1c1a0	-0.11804509
120	0xbd86768c	-0.0656558
121	0xbe039331	-0.12849118
122	0xbdb0cd33	-0.08632889
123	0x3c9740ce	0.018463518
124	0xbd28dff4	-0.041229203
125	0x3d8cf88a	0.068833426
126	0x3d5c6c3a	0.05381415
127	0x3d62f19e	0.055406205
128	0xbdd5550d	-0.10416613
129	0x3d5e6f8a	0.05430559
130	0x3d3d6b16	0.046244703
131	0xbd627d59	-0.055295322
132	0xbd8da2a5	-0.069157876
133	0xbd73c845	-0.059517164
134	0x3d61d853	0.055137943
135	0xbcac62f4	-0.021043278
136	0xba891d91	-0.0010461082
137	0xbe0b6122	-0.13611272
138	0xbd9831f2	-0.07431401
139	0xbdd26322	-0.10272814
140	0x3d0250f1	0.031815473
141	0xbd184ecc	-0.03718452
142	0xbd73fa07	-0.059564617
143	0x3d591d95	0.053006727
144	0x3da69168	0.08133203
145	0xbc18c8dd	-0.009325233
146	0xbd7d8492	-0.061894007
147	0xbc732142	-0.014839472
148	0x3d9736c4	0.073834926
149	0x3d834975	0.06410495
150	0xbd86d372	-0.06583299
151	0xbd82028f	-0.06348144
152	0x3cfced2f	0.030874817
153	0xbd37ed29	-0.044903908
154	0x3e02ed8c	0.1278593
155	0x3d6d544e	0.057941727
156	0xbd186a9d	-0.03721105
157	0xbd16b2a1	-0.036791448
158	0x3c898921	0.016789021
159	0x3d746862	0.05966986
160	0xbe07beb8	-0.13256347
161	0x3d43f088	0.04783681
162	0xbdf65bc1	-0.120292194
163	0x3dbb8927	0.09157019
164	0xbd6e5e97	-0.058195677
165	0xbdc1dee7	-0.094663434
166	0x3ce315b7	0.027720315
167	0xbd3fa8ce	-0.046791844
168	0xbdc9b043	-0.098480724
169	0x3d8d02c5	0.06885294
170	0xbd161acc	-0.03664665
171	0x3dec284d	0.11531124
172	0x3d1204cb	0.035649102
173	0xbd8e3223	-0.069431566
174	0xbd8f1c70	-0.06987846
175	0x3c8e3131	0.01735744
176	0x3df31a47	0.118702464
177	0xbd1ef5f2	-0.03880877
178	0x3dbf2272	0.09332742
179	0xbd2f5bff	-0.042812344
180	0x3dcb0a8a	0.099141195
181	0x3d8a42da	0.06751032
182	0x3d9d857f	0.07691478
183	0xbd486c7a	-0.048931576
184	0xbd0128d0	-0.031533062
185	0x3e00fa9d	0.12595601
186	0x3dac1b24	0.08403614
187	0x3d4fb16f	0.050706323
188	0xbde354ea	-0.111001804
189	0xbd8a0ef4	-0.06741133
190	0xbd046231	-0.032320205
191	0x3d9c57bf	0.07633924
192	0xbd3484d6	-0.044071995
193	0x3d4f69d3	0.05063803
194	0xbe03c303	-0.1286736
195	0x3cc3d461	0.023904981
196	0xbd48820e	-0.048952155
197	0x3cad897e	0.021183725
198	0x3c9b9533	0.018992042
199	0x3c5a4319	0.013321661
200	0xbcecbbce	-0.028898146
201	0x3dba5b92	0.09099497
202	0xbca9cd25	-0.020727703
203	0xbd91829d	-0.07104991
204	0x3dcc6b69	0.09981424
205	0xbc8768c7	-0.016529454
206	0xbc323b57	-0.0108784055
207	0xbe0d59a2	-0.13803723
208	0xbbcb23f1	-0.006199353
209	0xbde666d4	-0.11250082
210	0x3c802988	0.015644804
211	0x3da17965	0.07884482
212	0xbca7f221	-0.020501198
213	0x3d6240f3	0.05523772
214	0x3d1b72c5	0.03795125
215	0xbd1c6f70	-0.038192213
216	0xbc700580	-0.014649749
217	0xbd31e1dd	-0.04342829
218	0xbdcd7f34	-0.10034028
219	0xbbe61ab9	-0.0070222286
220	0xbc42f0ca	-0.011898229
221	0xbd069645	-0.032858152
222	0x3d9e885d	0.07740853
223	0xbb041165	-0.002015197
224	0xbc4f8ad4	-0.012667377
225	0xbca97508	-0.020685688
226	0x3d3be855	0.045875866
227	0x3db540d1	0.088502534
228	0x3c9e5b68	0.019330695
229	0xbd0ea27d	-0.03482293
230	0xbd9832c8	-0.07431561
231	0xbd704713	-0.05866153
232	0xbcf7b972	-0.030239794
233	0x3ce8b62f	0.028407184
234	0xbd071718	-0.03298101
235	0x3d6f8587	0.05847695
236	0x3bcd41dc	0.0062639546
237	0xbd0288c2	-0.031868704
238	0xbdbf125c	-0.09329674
239	0x3d42adfe	0.047529213
240	0xbd486f36	-0.048934184
241	0x3c391a99	0.011297845
242	0xbc116a78	-0.008875482
243	0x3da66509	0.0812474
244	0x3c45851d	0.012055662
245	0x3c06cac1	0.008227051
246	0xbd803869	-0.062607594
247	0xbd0d4899	-0.034493063
248	0xbce258c1	-0.027630212
249	0x3db69e21	0.089168794
250	0xbdac6d39	-0.0841927
251	0x3d1c740c	0.03819661
252	0x3e13e651	0.14443327
253	0x3cc35741	0.023845317
254	0x3d9a1790	0.075240254
255	0x3d5838bc	0.05278848

fc2.bias f4 [128]
0	0x3bb5b8f5	0.0055457302
1	0x3c065e70	0.008201227
2	0x3d82342c	0.06357607
3	0x3ca9902a	0.020698626
4	0x3d9e41d0	0.077273965
5	0x3bcb4f6b	0.0062045357
6	0xba838fe5	-0.0010037391
7	0xbd62dac8	-0.055384427
8	0xbd8c2268	-0.068425
9	0x3d90efa5	0.070769586
10	0xbd2b49ee	-0.04181855
11	0x3db8c7a3	0.09022453
12	0xbdc4fcec	-0.096185535
13	0x3d9176a8	0.0710271
14	0xbd9bd8a6	-0.07609682
15	0x3d10b9c4	0.03533341
16	0x3c59db54	0.013296921
17	0x3cb25b93	0.021772182
18	0xbc48b384	-0.012249831
19	0x3cf77239	0.030205833
20	0xbd1e1b53	-0.038600277
21	0xbd68f9e4	-0.05687894
22	0x3d4b3e34	0.04961987
23	0xbbd1a344	-0.0063976366
24	0x3cc90258	0.02453725
25	0x3d633cbf	0.055477854
26	0xbd4cda82	-0.050013073
27	0xbd57a13f	-0.05264401
28	0xba6ea99e	-0.00091042544
29	0x3c1a9e39	0.009437137
30	0xbcde2354	-0.027116455
31	0x3cc1bada	0.023648668
32	0x3db6ed07	0.08931928
33	0x3dbe221b	0.09283849
34	0x3dbdb646	0.092632815
35	0x3cc38288	0.023865953
36	0x3da53da3	0.08068397
37	0xbd83dbbf	-0.064383976
38	0xbd99c975	-0.07509128
39	0xbd372c94	-0.044720247
40	0xbd4ee30e	-0.050509505
41	0x3d715d36	0.058926784
42	0xbd4b42fc	-0.04962443
43	0x3d2402e3	0.040041815
44	0x3d8b16af	0.06791436
45	0xbcb15427	-0.021646572
46	0xbd1f7cd2	-0.038937397
47	0x3d900830	0.07032812
48	0x3d168f69	0.03675786
49	0xbd90ac94	-0.07064167
50	0x3cd77dd8	0.026305124
51	0x3c03a213	0.008034247
52	0xbbc02d13	-0.0058647483
53	0x3d65dd7b	0.056119423
54	0x3d201bde	0.039089076
55	0xbda41e10	-0.080135465
56	0x3d21440b	0.03937153
57	0xbc0eaa0b	-0.008707534
58	0xbd546901	-0.051857952
59	0xbd435c0c	-0.047695205
60	0xbcf53e62	-0.029936973
61	0x3bd0ac37	0.006368186
62	0xbd82c95f	-0.06386065
63	0xbbb2f0b4	-0.005460823
64	0x3dc26ebe	0.09493779
65	0xbd7f952e	-0.06239813
66	0x3d9f1808	0.077682555
67	0xbd146b08	-0.036234885
68	0x3d82c2ba	0.063847974
69	0xbbafc05b	-0.0053635067
70	0xbda5781e	-0.08079551
71	0xbc2d5f33	-0.010581779
72	0x3c9c2272	0.019059394
73	0xbd262a71	-0.04056782
74	0xbcf416a3	-0.02979595
75	0x3dd5fd2b	0.104486786
76	0x3d55c46f	0.052189287
77	0xbd8c6112	-0.06854452
78	0xbdae2e1e	-0.0850489
79	0xbd8c81ee	-0.068607196
80	0xbc9350d3	-0.017982876
81	0xbce29deb	-0.027663192
82	0x3d9480ff	0.072511666
83	0xbd895594	-0.06705776
84	0xbccb9cd2	-0.024855051
85	0x3d13b403	0.036060344
86	0x3da23c9c	0.079217166
87	0x3d73cb2b	0.059519928
88	0xbd3fcd75	-0.0468268
89	0x3d87ea99	0.06636543
90	0x3d779f71	0.06045479
91	0x3d865631	0.065594085
92	0xbd68e841	-0.05686212
93	0xbddc3824	-0.107528955
94	0x3c7297d7	0.014806709
95	0x3d46a880	0.048500538
96	0x3b0b1574	0.0021222504
97	0xbd8b2b7c	-0.06795403
98	0x3ccb6d68	0.024832442
99	0xbd3f8b06	-0.046763442
100	0x3db62ec9	0.08895642
101	0x3d626708	0.05527404
102	0xbbe4c2fa	-0.006981251
103	0xbd593983	-0.053033363
104	0x3d13355d	0.035939563
105	0xbd6f687f	-0.058449265
106	0x3d367c8d	0.044552375
107	0x3d7479cd	0.05968647
108	0x3d08b7f2	0.03337855
109	0x3d3c178d	0.045920897
110	0x3d4e8eac	0.05042903
111	0xbd416d0d	-0.04722314
112	0xbc1048bc	-0.008806404
113	0x3c7ad6fa	0.0153100435
114	0x3d6a9ec4	0.057280317
115	0xbdb502cc	-0.08838424
116	0x3b4c39df	0.0031162424
117	0xbdaffdeb	-0.08593353
118	0xbbfdaae3	-0.0077413185
119	0x3d08f9a8	0.033441216
120	0x3c8655d1	0.016398342
121	0x3c701b7d	0.014654991
122	0xbd921093	-0.071320675
123	0x3d33ce2c	0.043897793
124	0xbd25b66b	-0.04045717
125	0xbdb27861	-0.08714367
126	0xbe024f6a	-0.12725607
127	0x3d75595b	0.05989967

fc3.weight f4 [128, 128]
0	0xbdabfba4	-0.08397606
1	0x3da43333	0.08017578
2	0x3defc520	0.117075205
3	0x3d2cc24d	0.042177487
4	0x3d8d961d	0.069133975
5	0xb955f046	-0.00020402772
6	0x3d1d85ba	0.03845761
7	0x3c323beb	0.010878543
8	0x3dbdd14e	0.09268437
9	0xbd5dcb19	-0.054148767
10	0x3dca3601	0.09873582
11	0xbdc11e04	-0.09429553
12	0xbc1c0870	-0.009523496
13	0xbddbc0d0	-0.107301354
14	0x3d202ada	0.039103366
15	0xbc32376f	-0.010877474
16	0x3d9e7c2a	0.07738526
17	0xbdd8c739	-0.10584874
18	0x3cc33f05	0.023833761
19	0x3d168d63	0.03675593
20	0xbddaa141	-0.10675288
21	0x3cadf276	0.021233778
22	0x3df0df65	0.11761359
23	0x3cce5c9c	0.025190644
24	0x3c2018c6	0.009771531
25	0x3e1f980f	0.1558535
26	0x3b836379	0.004009661
27	0xbc2d0675	-0.0105606215
28	0xbd5453d8	-0.051837772
29	0xbdb047ce	-0.08607446
30	0x3cf254f1	0.029581519
31	0x3c71aa05	0.0147500085
32	0x3dd93044	0.10604909
33	0xbdb94410	-0.09046185
34	0x3dcb3db6	0.0992388
35	0xbd7af507	-0.061268833
36	0x3d73d155	0.059525806
37	0x3d9baec9	0.07601697
38	0xbd587dd6	-0.05285438
39	0xbd33ec4a	-0.043926515
40	0x3c8ea281	0.017411472
41	0xbd645d96	-0.055753313
42	0xbdc4807b	-0.09594818
43	0x3d860716	0.0654432
44	0x3dc275ad	0.09495101
45	0x39ab4250	0.00032665068
46	0xbda29207	-0.07938009
47	0xbceaa645	-0.028643737
48	0xbdc290b6	-0.09500258
49	0xbd383167	-0.04496899
50	0xbd80f634	-0.062969595
51	0xbd8434bc	-0.06455371
52	0xbc6ef6be	-0.014585195
53	0xbdb00c2f	-0.08596074
54	0x3b167734	0.0022959234
55	0xbdb5dc8b	-0.08879956
56	0x3d1f9000	0.03895569
57	0x3d50ad2f	0.05094641
58	0x3e1eaca4	0.15495545
59	0xbcda3f23	-0.026641434
60	0xbd2eac11	-0.042644564
61	0xbdc003d2	-0.09375729
62	0x3da66d5a	0.08126326
63	0x3c54bb88	0.012984164
64	0xbdd2e5d4	-0.102977425
65	0xbc0293f8	-0.007969849
66	0x3cb2a077	0.021805031
67	0xbdb68fa9	-0.0891412
68	0xbdcb5db5	-0.099299826
69	0xbdc89f54	-0.097960144
70	0xbd367814	-0.04454811
71	0x3e03d107	0.12872706
72	0x3d46f9ab	0.048577946
73	0xbd175c7b	-0.03695343
74	0x3e081ef6	0.1329306
75	0xbcf6f9ef	-0.030148474
76	0xbc98d05a	-0.018654037
77	0x3d1fa09c	0.03897153
78	0x3ca7e76f	0.020496098
79	0x3d2085ae	0.039189987
80	0x3dcdce5a	0.10049124
81	0x3b4d3fc3	0.0031318523
82	0xbbb9b323	-0.0056671067
83	0xbd38c0ad	-0.045105625
84	0x3c43a402	0.011940958
85	0xbd561e47	-0.05227497
86	0xbd28945b	-0.041157108
87	0xbd7bba04	-0.061456695
88	0xbd73b07a	-0.059494473
89	0xbe0c1ab3	-0.1368206
90	0x3d588437	0.052860465
91	0xbd9112e4	-0.07083681
92	0xbd8ba374	-0.068182856
93	0x3d81d976	0.063403055
94	0x3d8f0ccd	0.069848634
95	0x3cdec7e7	0.02719493
96	0xbb587591	-0.003302906
97	0x3dd76105	0.10516552
98	0x3c80c6a4	0.01571972
99	0xbdcb5640	-0.0992856
100	0xbd394cef	-0.045239385
101	0xbd4ac2ee	-0.049502306
102	0xbd1fdb81	-0.039027695
103	0xbd0faaaa	-0.035074867
104	0x3d55d4ae	0.05220478
105	0x3c951abb	0.018201223
106	0xbd89eb9b	-0.06734391
107	0xbce4eb1d	-0.027944142
108	0x3d99d19f	0.07510685
109	0x3c7bfaa5	0.0153795825
110	0x3c517448	0.012784071
111	0x3dc1ca5b	0.09462424
112	0xbcc4a6f9	-0.0240054
113	0xbe35f908	-0.17770779
114	0xbd26feb6	-0.040770255
115	0x3d9c5ad7	0.07634514
116	0x3d8315d0	0.06400645
117	0x3cd0e466	0.025499534
118	0x3de13bfd	0.1099777
119	0x3d034f39	0.032057974
120	0xbdd03673	-0.10166635
121	0x3d51be8b	0.051207107
122	0xbc6e7599	-0.014554405
123	0xbc90faf6	-0.017697793
124	0x3d5e9a3c	0.054346308
125	0x3e16ced0	0.1472733
126	0xbdaa4c83	-0.08315375
127	0xbd9fb280	-0.07797718
128	0x3dd32e5a	0.10311575
129	0x3db4a69e	0.08820842
130	0xbccd5723	-0.025065964
131	0x3d0e4a8c	0.034739062
132	0x3d8cba64	0.06871489
133	0x3d3fe647	0.04685047
134	0xbdda4a73	-0.10658731
135	0x3af67fd0	0.0018806402
136	0xbdd4d467	-0.10392075
137	0x3e048abd	0.1294355
138	0x3d635b7d	0.055507172
139	0x3e09812a	0.13428178
140	0xbdc2fa03	-0.09520342
141	0x3dd1df67	0.10247689
142	0x3d391cef	0.04519361
143	0x3da41975	0.08012668
144	0x3ce01092	0.027351651
145	0x3d414660	0.047186255
146	0xbd30751d	-0.043080438
147	0xbd69f39d	-0.057117093
148	0x3b93a1c3	0.0045053675
149	0x3d870853	0.065933846
150	0x3ce2d939	0.02769147
151	0xbdb2bc62	-0.087273374
152	0xbe01fb5d	-0.12693544
153	0x3cb0df9d	0.021591002
154	0x3ba0ed99	0.0049111363
155	0x3e04a007	0.1295167
156	0x3e043099	0.12909164
157	0x3d32c3b2	0.04364366
158	0x3d907b89	0.070548125
159	0x3d9faf29	0.07797081
160	0x3be2fd5d	0.006927176
161	0xbcdf8eb4	-0.027289726
162	0x3c5d4c7f	0.013507008
163	0x39d06da8	0.00039754552
164	0x3dd7f104	0.10544017
165	0xbd4bcfe4	-0.049758807
166	0x3cdd33d5	0.027002255
167	0x3d1789bf	0.0369966
168	0xbd928375	-0.0715398
169	0x3d8463f1	0.06464375
170	0x3da15976	0.078783914
171	0xbd73cc74	-0.059521154
172	0x3dcf0b34	0.10109559
173	0xbe1b3862	-0.15158227
174	0x3dbeacf4	0.09310332
175	0xbc8c8ae4	-0.017156072
176	0x3d914aac	0.07094321
177	0x3bb05617	0.0053813565
178	0x3d6a47f1	0.057197515
179	0x3dda6808	0.10664374
180	0xbd9b004c	-0.07568416
181	0xbcbef3d4	-0.023309626
182	0xbdc64882	-0.096817985
183	0xbc5f615c	-0.013634052
184	0x3db4a60d	0.08820734
185	0x3d3cf238	0.046129435
186	0xbda01259	-0.078159995
187	0x3df52f47	0.11971908
188	0xbd725bb3	-0.059169482
189	0xbdfcf2b3	-0.12350979
190	0xbdaf32e6	-0.0855463
191	0xbdb12a5e	-0.08650659
192	0x3d225b60	0.039637923
193	0x3ce2e09e	0.027694996
194	0x3db4fb7f	0.088370316
195	0x3d20b6c6	0.039236806
196	0x3dd79271	0.10525978
197	0xbafb6d85	-0.001918242
198	0x3ca8d4d2	0.020609293
199	0xbd3ffbb1	-0.04687089
200	0xbd8b257a	-0.067942575
201	0xbe2409f0	-0.16019416
202	0x3d3b0cee	0.045666628
203	0xbded67c8	-0.1159206
204	0x3d3a500b	0.04548649
205	0xbdcbbc3c	-0.09948012
206	0xbd2730fc	-0.0408182
207	0x3b93e5ba	0.0045134695
208	0xbd854c74	-0.06508723
209	0x3d0b6c02	0.03403855
210	0x3d1a36ac	0.037649795
211	0xbd8f930e	-0.0701047
212	0x3cc772b6	0.02434669
213	0x3e08f528	0.1337477
214	0xbc7c86de	-0.015413014
215	0xbe029884	-0.12753493
216	0x3cb36086	0.021896612
217	0xbd90f679	-0.07078261
218	0x3d098952	0.033578224
219	0x3d5c450c	0.053776786
220	0xbd342645	-0.04398181
221	0x3da7e3ef	0.08197772
222	0xbd401d41	-0.0469029
223	0xbbb79818	-0.005602848
224	0x3e111afe	0.14170453
225	0xbd7daaa5	-0.061930317
226	0x3d06b89a	0.032890894
227	0x3dcdabfe	0.100425705
228	0xbc80997e	-0.01569819
229	0x3dc384ed	0.09546838
230	0xbd1744ca	-0.036930837
231	0x3e00579e	0.12533423
232	0x3cf610c1	0.030037286
233	0x3e1d0345	0.15333278
234	0x3d146faa	0.036239304
235	0x3e0b8ba3	0.13627486
236	0xbc445e83	-0.011985424
237	0x3d75a3e9	0.05997077
238	0x3d4e2d90	0.05033642
239	0x3e06b745	0.1315585
240	0x3d26f62e	0.04076212
241	0x3cbe491d	0.023228223
242	0x3c898d73	0.016791081
243	0xbcc1a819	-0.023639726
244	0xbdd3a7d4	-0.10334745
245	0xbd745398	-0.059650034
246	0xbcc1d1ce	-0.023659613
247	0x3e2038ef	0.15646718
248	0x3cb5cbbe	0.022191878
249	0x3d1aa233	0.03775234
250	0xbd7725e4	-0.06033887
251	0x3d016906	0.0315943
252	0xbd147526	-0.036244534
253	0x3d349277	0.044084992
254	0x3d2ea294	0.042635515
255	0x3c54dc21	0.012991936

fc3.bias f4 [128]
0	0xbcf7465b	-0.030184915
1	0xbd4ab6fe	-0.04949092
2	0xbda9adc9	-0.082851
3	0xbd4c8778	-0.04993388
4	0x3d81fb37	0.063467436
5	0x3c3efe5a	0.011657322
6	0xbc8b1308	-0.016976848
7	0xbd273eef	-0.040831503
8	0x3bf5bac2	0.00749907
9	0x3d29e99d	0.041482557
10	0xbcafaaf4	-0.021443821
11	0xbd078adc	-0.03309141
12	0x3c97084e	0.018436577
13	0x3cc3fed5	0.023925224
14	0x3d6cfde6	0.057859324
15	0xbd9f479f	-0.077773325
16	0x3d0b6e89	0.03404096
17	0xbd9b3aba	-0.075795606
18	0xbd754444	-0.059879556
19	0x3c9d4bdc	0.019201212
20	0x3d2bb12f	0.041917022
21	0xbd75913c	-0.05995296
22	0x3b9b11eb	0.0047323606
23	0x3d099371	0.033587877
24	0x3d757beb	0.05993263
25	0x3d396773	0.045264672
26	0xbd368139	-0.04455683
27	0x3d725b0d	0.059168864
28	0x3d46d7a7	0.048545506
29	0x3d38384f	0.044975575
30	0xbde01e81	-0.10943318
31	0xbd2f7e97	-0.042845335
32	0xbddad180	-0.1068449
33	0x3d8a1177	0.067416124
34	0xbdefee87	-0.11715417
35	0x3cdfc59f	0.027315913
36	0x3b553fd0	0.0032539256
37	0xbc5cca22	-0.013475927
38	0xbdd40590	-0.103526235
39	0xbd99d0b1	-0.07510508
40	0xbd2cc1eb	-0.042177122
41	0xbd79428c	-0.06085448
42	0xbd56144d	-0.052265454
43	0xbdc164b0	-0.09443033
44	0xbb86f4b2	-0.0041185254
45	0x3c2bd4c3	0.010487738
46	0x3cad28c2	0.021137599
47	0xbbad2825	-0.0052843266
48	0x3d1899e2	0.03725613
49	0xbd952fe3	-0.07284524
50	0x3caef0bb	0.021355024
51	0x3d6beca4	0.057598725
52	0x3d54ed30	0.051984012
53	0x3d4a3c74	0.04937406
54	0x3d8cde21	0.06878305
55	0x3d93447d	0.071907975
56	0x3d5ff04b	0.05467252
57	0xbc874835	-0.016513923
58	0x3d1d843d	0.03845619
59	0x3d8b6d48	0.06807953
60	0xbc64c954	-0.013964016
61	0x3d444a5e	0.047922485
62	0xbda695ec	-0.08134064
63	0x3ba48a0a	0.0050213384
64	0xbd165efb	-0.036711674
65	0xbd94ad91	-0.07259668
66	0xbb9b6ec7	-0.0047434303
67	0xbd502190	-0.050813258
68	0x3c9ea4e3	0.019365733
69	0x3d902d82	0.0703993
70	0xbd4140b7	-0.047180858
71	0xbd9d5d10	-0.07683766
72	0xbd1f0ab0	-0.03882855
73	0xbccaea51	-0.024769934
74	0xbd3014b4	-0.042988494
75	0x3d899713	0.06718268
76	0x3d3c7fe9	0.046020422
77	0x3d205df1	0.03915209
78	0x3cae6ec7	0.021293057
79	0xb9f3f586	-0.000465315
80	0xbdd16549	-0.10224397
81	0x3d971499	0.073769756
82	0xbd41eced	-0.04734509
83	0x3c09281c	0.008371379
84	0xbc9afd2b	-0.018919548
85	0xbd482b48	-0.0488694
86	0xbdd52364	-0.10407141
87	0xbdbcd5d7	-0.09220474
88	0xbc3e0f8e	-0.011600388
89	0xbd387e22	-0.045042165
90	0xbaeacc72	-0.0017913713
91	0xbd463af6	-0.048396073
92	0x3b0c1609	0.0021375439
93	0xbd7aa067	-0.061188128
94	0x3d3769f9	0.044778798
95	0xbd4a1808	-0.049339324
96	0xbde63044	-0.11239675
97	0xbcc11b12	-0.023572478
98	0xbd24697d	-0.040139664
99	0x3b8d211a	0.0043069245
100	0x3c217c26	0.009856259
101	0xbbe0dbb0	-0.0068621263
102	0xbda3413a	-0.07971425
103	0xbca0b149	-0.019615786
104	0xbdb1e7a8	-0.08686763
105	0x3d51e8fb	0.051247578
106	0x3d88a54a	0.066721514
107	0xbb6802c4	-0.003540204
108	0x3d8eab87	0.0696631
109	0x3d8d1667	0.068890385
110	0xbd3ef521	-0.046620492
111	0xbc78bf03	-0.0151822595
112	0xbbe75360	-0.0070594996
113	0x3c86c4fa	0.016451348
114	0xbbdca1f0	-0.0067331716
115	0xbd7e07ab	-0.06201903
116	0xbde061f2	-0.109561816
117	0x3dd0c122	0.10193087
118	0x3d92c0df	0.071656935
119	0x3adc197e	0.0016792265
120	0x3c890e7c	0.01673054
121	0x3b12721b	0.0022345844
122	0x3d8274bb	0.06369921
123	0x3c678b15	0.014132281
124	0x3da4d945	0.080492534
125	0xbcd6c3e7	-0.02621646
126	0xbd1486b3	-0.03626127
127	0xbd62b1b7	-0.055345263

fc4.weight f4 [256, 128]
0	0x3e1cc2c9	0.1530868
1	0x3dd1ed7d	0.102503754
2	0x3ea84813	0.32867488
3	0x3e674b8b	0.22587411
4	0x3ddaf3d7	0.1069104
5	0x3e83d142	0.2574559
6	0x3e0ec7e3	0.13943438
7	0x3e180eb8	0.14849365
8	0x3d978a5f	0.07399439
9	0x3dd138a1	0.10215879
10	0x3e664152	0.22485855
11	0x3c12e3df	0.0089654615
12	0x3e70ae4a	0.23503986
13	0x3e09bae7	0.13450204
14	0x3dce6c61	0.100792654
15	0x3e4fc530	0.20290065
16	0x3dc84c7c	0.09780213
17	0x3e095657	0.13411842
18	0x3d7aef61	0.061263446
19	0x3d8cb19d	0.068698145
20	0x3e32f954	0.17477924
21	0x3e26812d	0.16260214
22	0x3da15ef7	0.07879441
23	0x3e5ddcf8	0.21666324
24	0x3e5ff400	0.21870422
25	0x3cfabc64	0.03060741
26	0x3e6ad719	0.22933616
27	0x3e2f7062	0.17132714
28	0x3ddf07eb	0.10890182
29	0x3e0587e5	0.13040121
30	0x3d5aa399	0.053378675
31	0x3e587a12	0.21140316
32	0x3e3c3c8e	0.18382475
33	0x3d17f048	0.037094384
34	0x3e58793f	0.21140002
35	0x3e0dd9ba	0.13852587
36	0x3ddf9f65	0.10919074
37	0x3e6a7219	0.22895087
38	0x3de09f0e	0.10967837
39	0x3e363b16	0.17795977
40	0x3e33abd0	0.1754601
41	0x3e025e5b	0.12731306
42	0x3e107654	0.14107639
43	0x3e2eed78	0.17082775
44	0x3dfda502	0.12384988
45	0x3e8abdc1	0.27097896
46	0x3dbabaef	0.09117686
47	0x3d3bfef3	0.045897435
48	0x3d2aa9ab	0.041665714
49	0x3da39f9c	0.079894274
50	0x3ebf7ede	0.3740148
51	0xbc8d5f40	-0.017257333
52	0x3d795f75	0.06088205
53	0x3e41a970	0.18912292
54	0x3d34790e	0.04406076
55	0x3e05dffb	0.13073723
56	0xbcf02e08	-0.029318824
57	0x3e8b94e2	0.27262026
58	0x3d978588	0.07398516
59	0x3e6f3ad5	0.23362286
60	0x3e3112cc	0.17292327
61	0x3d59c5f8	0.053167313
62	0x3d467b8f	0.04845768
63	0x3dd385d9	0.10328264
64	0x3e06a74d	0.13149758
65	0x3e51a127	0.20471631
66	0x3e23dc35	0.16001971
67	0x3e0a8dff	0.1353073
68	0x3e31e05a	0.1737074
69	0x3dfb53b8	0.122718275
70	0x3e3ab063	0.18231349
71	0x3e17e6cc	0.14834136
72	0x3e29c6fa	0.1657981
73	0x3ec58b81	0.38582996
74	0x3e5551e2	0.20832017
75	0x3e088b6e	0.13334438
76	0x3d30ab3c	0.04313205
77	0x3de1e4a3	0.11029937
78	0x3e7b9a48	0.24570572
79	0x3e2db006	0.16961679
80	0x3d24d07d	0.040237892
81	0x3e5cee36	0.21575245
82	0x3e540c8d	0.20707913
83	0x3d853f6b	0.06506237
84	0x3e8c5d09	0.2741473
85	0x3ea3c321	0.3198481
86	0x3e0fda11	0.1404803
87	0x3dfec61f	0.12440132
88	0x3e4ebc55	0.2018903
89	0x3e089cc5	0.13341053
90	0x3c3eaddc	0.011638131
91	0x3d67d0cc	0.05659561
92	0x3e047ce7	0.12938271
93	0x3e580548	0.21095765
94	0x3d46f37a	0.04857204
95	0x3eb5e4ca	0.35526115
96	0x3e2b716f	0.1674249
97	0x3e58adef	0.211601
98	0x3e8d286b	0.275699
99	0x3e811d40	0.25217628
100	0x3e6e72e2	0.23286012
101	0x3e0211cf	0.12702106
102	0x3d92b245	0.071629085
103	0x3e94b70f	0.29045913
104	0x3e2bbe7d	0.16771884
105	0x3da9970c	0.08280763
106	0x3e18e19d	0.14929815
107	0x3e2b6745	0.16738613
108	0x3e25da36	0.16196522
109	0x3e50c2ee	0.2038686
110	0x3ddef0f2	0.108858004
111	0x3e3c9da8	0.18419516
112	0x3da49042	0.080353275
113	0x3e264c62	0.16240075
114	0x3e830ae8	0.25594258
115	0x3df2bc17	0.118522815
116	0x3e9f9795	0.31170335
117	0x3e22b6cb	0.15890042
118	0x3e2133aa	0.15742365
119	0x3df6e9f4	0.12056342
120	0x3da0dfa0	0.07855153
121	0x3e75b2ac	0.23993939
122	0x3d36094f	0.04444247
123	0x3e2f28e4	0.17105442
124	0x3d8d1523	0.06888797
125	0x3def9aa2	0.11699416
126	0x3d634bfa	0.05549238
127	0x3d88fdc4	0.06689027
128	0x3d8b094f	0.06788885
129	0x3b456bcf	0.0030124073
130	0x3e2874bb	0.16450779
131	0x3dc2a254	0.09503618
132	0x3e2e55d7	0.17024933
133	0xba61c45e	-0.000861233
134	0x3db01859	0.08598394
135	0x3de2f330	0.110815406
136	0x3e145f42	0.14489463
137	0x3e07cac8	0.13260949
138	0x3e3b5a3a	0.18296137
139	0x3e79657e	0.24355122
140	0x3de206fb	0.11036488
141	0x3e7a8bdf	0.24467419
142	0x3e1806f0	0.14846396
143	0x3e165ada	0.14683095
144	0x3e580f43	0.21099572
145	0x3e7cb024	0.24676567
146	0x3cadcbb7	0.021215303
147	0x3e0baf4e	0.13641092
148	0x3e539ff4	0.20666486
149	0x3e188d80	0.14897728
150	0x3dcf9312	0.10135473
151	0x3e6118f8	0.21982181
152	0x3e52f122	0.20599797
153	0x3ce166b4	0.027514793
154	0x3e4c824b	0.19971578
155	0x3e71ab4e	0.23600504
156	0x3e29f515	0.16597398
157	0x3d800f1d	0.06252883
158	0x3d3a22ab	0.04544322
159	0x3e2c8d34	0.1685074
160	0x3e4fc11c	0.20288509
161	0x3e0b2e60	0.1359191
162	0x3d46861c	0.04846774
163	0x3dfdecef	0.12398707
164	0x3e4e25f3	0.20131664
165	0x3d95faf8	0.07323259
166	0x3ebdeae8	0.37093282
167	0x3e74650a	0.23866668
168	0x3dd62e1b	0.10458013
169	0x3e2e7891	0.1703818
170	0x3e951ce1	0.29123595
171	0x3e5623a3	0.20912032
172	0x3e13db3c	0.144391
173	0x3ddbcd07	0.10732465
174	0x3e2cf702	0.16891101
175	0x3db7df32	0.08978118
176	0x3d7ab95d	0.061211932
177	0x3c1feafa	0.009760613
178	0x3e6a043f	0.22853182
179	0x3e475ab6	0.19468197
180	0x3e328238	0.17432487
181	0x3e395abb	0.18101017
182	0x3de39c01	0.1111374
183	0x3e8d4e99	0.27599028
184	0x3d8c393c	0.06846854
185	0x3d937ed4	0.07201925
186	0x3e3a947d	0.18220706
187	0x3d4a25f8	0.049352616
188	0x3c722dde	0.014781443
189	0x3e00c2b8	0.1257428
190	0x3e6b4732	0.22976378
191	0x3dd9e632	0.106396094
192	0x3e10dda8	0.14147055
193	0x3e199601	0.14998628
194	0x3e1474ee	0.1449773
195	0x3e29d12b	0.16583697
196	0x3e3f8742	0.1870394
197	0x3e00d22d	0.12580176
198	0x3e8951d5	0.26820245
199	0x3e630b0e	0.22172186
200	0x3dfcdd62	0.12346913
201	0x3e0e5335	0.13898928
202	0x3e02fe06	0.12792215
203	0x3e1b4d4e	0.15166208
204	0x3d756190	0.059907496
205	0x3df80cd0	0.12111819
206	0x3e24277d	0.16030689
207	0x3d07bd54	0.03313954
208	0x3e17ff1d	0.14843412
209	0x3e50fe3d	0.20409484
210	0xbd1b9f8a	-0.037993945
211	0x39ccce50	0.00039063627
212	0x3dacfee7	0.08447056
213	0x3e67cf21	0.22637607
214	0x3db2d270	0.08731544
215	0xbd63b0bc	-0.05558847
216	0x3dd586fa	0.10426135
217	0x3e26d80f	0.16293357
218	0x3dd4d95a	0.10393019
219	0x3df98013	0.12182631
220	0x3e1e3862	0.15451196
221	0x3e37c796	0.1794723
222	0xbd355658	-0.044271797
223	0x3e0f1cd4	0.13975841
224	0x3e61ed18	0.220631
225	0x3e9ed347	0.31020567
226	0x3ddf0d2e	0.10891186
227	0x3e59821d	0.2124104
228	0x3e5ae0bd	0.21374793
229	0x3dca6a8e	0.09883605
230	0x3e3fd832	0.18734816
231	0x3e06aced	0.13151903
232	0x3e9c43b8	0.30520415
233	0x3d789c55	0.060695965
234	0x3d0f7735	0.035025794
235	0x3d89ccd4	0.06728521
236	0x3e4c0f9f	0.19927834
237	0x3d3ea97d	0.046548355
238	0x3df5af6d	0.119963504
239	0x3d41f76b	0.047355097
240	0x3df1bb75	0.11803333
241	0x3e4f7fb7	0.20263563
242	0x3d8eacf6	0.069665834
243	0x3e66320f	0.22480033
244	0x3e804417	0.25051948
245	0xbc041f4d	-0.008064103
246	0x3e1c1064	0.15240628
247	0x3d81980f	0.06327831
248	0x3dd4a304	0.10382655
249	0x3df570a4	0.11984375
250	0x3e22d5dc	0.15901893
251	0x3ddf8d00	0.109155655
252	0x3e08c4cf	0.13356327
253	0x3e10ed94	0.14153129
254	0x3e2c395a	0.16818753
255	0x3e283d0e	0.1642954

fc4.bias f4 [256]
0	0x3cf76661	0.030200185
1	0x3dae3d03	0.08507731
2	0x3da51c76	0.08062069
3	0x3d269fd7	0.04067978
4	0x3d09bc99	0.033627126
5	0x3c9d06ba	0.019168247
6	0x3cb99be6	0.022657346
7	0x3dd56810	0.10420239
8	0x3dade461	0.084908254
9	0x3d9d48dc	0.076799124
10	0x3d4fd45e	0.05073964
11	0x3ba55895	0.00504596
12	0x3d118c53	0.035534214
13	0xb964cd50	-0.0002182026
14	0x3cef7e28	0.02923496
15	0x3d9c338b	0.076270185
16	0x3d48c044	0.049011484
17	0x3da92bef	0.08260333
18	0x3d924582	0.07142164
19	0x3de88763	0.11353948
20	0x3dacd2da	0.08438654
21	0x3de0703a	0.109589055
22	0x3d9acd28	0.07558662
23	0x3d7470eb	0.059678
24	0xbbee1d21	-0.007266656
25	0x3d6c561a	0.0576993
26	0x3d735fbb	0.059417468
27	0x3d4c4b66	0.049876593
28	0x3d073a21	0.03301442
29	0xbc042af1	-0.008066879
30	0x3d61e909	0.05515388
31	0x3d9fc810	0.07801831
32	0xb85faea2	-5.3329983e-05
33	0x3d3ae051	0.04562408
34	0x3d1e8b10	0.03870684
35	0x3dbce540	0.092234135
36	0x3d55135d	0.05202042
37	0xbc59db02	-0.013296844
38	0x3dd2619f	0.10272526
39	0x3d89b56d	0.06724057
40	0x3d963271	0.0733384
41	0x3d9f6641	0.07783175
42	0x3d45d20a	0.048296012
43	0xbc0348a2	-0.0080129225
44	0x3da9656f	0.082713
45	0x3c0c413e	0.008560477
46	0x3d29c9a3	0.04145206
47	0x3dc3a612	0.0955316
48	0x3d94e830	0.07270849
49	0x3dc68807	0.09693914
50	0x3db481ba	0.08813806
51	0x3da432ef	0.08017527
52	0x3e15b435	0.14619525
53	0x3d016a66	0.03159561
54	0x3d0421bb	0.03225873
55	0x3d702943	0.0586331
56	0x3d88532b	0.06656488
57	0x3dc14a8f	0.09438049
58	0x3d7ffe6e	0.062498502
59	0x3de32099	0.11090202
60	0x3b91ae97	0.0044458616
61	0xbca2a637	-0.019854648
62	0x3d4345b9	0.047673915
63	0x3db44390	0.08801949
64	0x3dff4b07	0.12465482
65	0x3cb29850	0.021801144
66	0x3de87d7a	0.11352058
67	0x3dadda52	0.08488907
68	0x3da79abb	0.08183809
69	0x3da2125f	0.0791366
70	0x3c8ec358	0.017427132
71	0x3c1d48ee	0.009599907
72	0x3dd38ced	0.10329614
73	0xbb3fed50	-0.0029285736
74	0xbb1f592b	-0.0024314623
75	0x3dd38741	0.10328532
76	0x3da8257f	0.08210277
77	0x3da6e785	0.081496276
78	0x3d7730ea	0.060349382
79	0x3dc89e65	0.09795836
80	0x3de39694	0.11112705
81	0x3da875f7	0.08225625
82	0x3d10134a	0.035174645
83	0xbab6074f	-0.0013887676
84	0x3dfc5c69	0.12322313
85	0x3d7aed60	0.061261535
86	0x3c2ad448	0.010426588
87	0x3e083c77	0.13304316
88	0x3c54f206	0.012997156
89	0x3dfa21ac	0.12213454
90	0x3db0e257	0.08636921
91	0x3cb1b516	0.021692794
92	0x3cb91e83	0.022597557
93	0x3d83e3f7	0.06439965
94	0x3dbd406d	0.09240804
95	0x3d15dc11	0.036586825
96	0x3cd66e49	0.026175635
97	0x3d348367	0.044070628
98	0x3da04eb2	0.0782751
99	0x3da53733	0.08067169
100	0x3d0c4e03	0.034254085
101	0x3d1aa2a0	0.037752748
102	0x3d657799	0.05602226
103	0x3cd5e1cf	0.02610865
104	0x3e06b6b7	0.13155638
105	0xbcb38deb	-0.021918258
106	0x3d031caf	0.032009777
107	0x3de41ff7	0.11138909
108	0x3d67c06e	0.05658
109	0x3dfa16d9	0.12211389
110	0x3dcb19c2	0.09917022
111	0x3b13a500	0.0022528768
112	0x3d378860	0.04480779
113	0x3caf9098	0.021431252
114	0x3e05dc84	0.13072401
115	0x3dbc4096	0.09192006
116	0x3cbb1d9c	0.022841267
117	0x3d963836	0.0733494
118	0x3ddf5d04	0.10906413
119	0x3da9b983	0.08287337
120	0x3d128c2a	0.035778202
121	0x3d8ff058	0.07028264
122	0x3bec3133	0.0072080134
123	0x3ce970b4	0.028496124
124	0x3d34f7cd	0.044181634
125	0xbb59ca6c	-0.0033232225
126	0x3de35720	0.11100602
127	0x3dc2643f	0.09491777
128	0x3d67a735	0.056555945
129	0x3d22c43e	0.039737932
130	0x3d94c84c	0.07264766
131	0x3db84edb	0.089994155
132	0x3d3f7771	0.046744768
133	0x3d2b128d	0.04176574
134	0x3dbceff3	0.09225454
135	0x3d2b201c	0.04177867
136	0x3dcf73b3	0.1012949
137	0x3cc5fc16	0.024168056
138	0x3db9d8eb	0.09074577
139	0x3dc5b3cb	0.096534334
140	0x3c77736f	0.015103205
141	0x3d9d0c3a	0.07668348
142	0x3dcf3714	0.10117927
143	0x3d92c5ae	0.07166611
144	0x3d612ae1	0.054972533
145	0x3da6b6b8	0.081403196
146	0x3dbbecc7	0.09176021
147	0x3d3a7f6b	0.04553167
148	0xbd000c4e	-0.031261735
149	0x3dd47ab3	0.103749655
150	0x3d090437	0.033451285
151	0x3d77e9a0	0.060525537
152	0x3dd77e5d	0.10522149
153	0x3d946d70	0.07247436
154	0x3c0970ef	0.008388742
155	0x3cbc88ad	0.02301439
156	0x3de64ada	0.112447456
157	0x3d07ee7d	0.033186425
158	0xbac903a4	-0.0015336168
159	0x3d7b58a1	0.06136382
160	0x3dc9f022	0.09860255
161	0x3d26e398	0.040744394
162	0x3d8e5405	0.06949619
163	0x3d039da1	0.03213275
164	0x3ccb23ab	0.024797281
165	0x3d00819d	0.03137361
166	0x3da739c3	0.08165314
167	0x3e0227ac	0.12710446
168	0x3c2f8e8a	0.010715136
169	0x3c622bdf	0.013804405
170	0x3db3c3fb	0.08777615
171	0x3d2dcdaf	0.042432483
172	0x3d9d7310	0.07687962
173	0x3ddf2819	0.1089632
174	0x3baf3fd0	0.005348183
175	0x3d91ccb8	0.07119125
176	0x3dd3cf5b	0.10342284
177	0xb88bdddb	-6.66936e-05
178	0x3da0e04b	0.078552805
179	0x3d82212b	0.063539825
180	0x3dd10bf6	0.102073595
181	0xba26b564	-0.0006359427
182	0x3cf18b97	0.029485507
183	0x3cc8e4c1	0.02452314
184	0x3db0d85a	0.08635016
185	0x3c9c4e66	0.019080352
186	0x3db2c444	0.08728841
187	0xbc85e07a	-0.01634239
188	0x3d1bea18	0.038065046
189	0xbc28a00c	-0.010292064
190	0x3d747bad	0.05968826
191	0x3ac1dad2	0.0014789945
192	0x3cc98e50	0.024603993
193	0x3dc90b05	0.09816555
194	0x3dda1af4	0.10649672
195	0x3ce55137	0.027992828
196	0x3cd69199	0.026192473
197	0x3d820303	0.06348231
198	0x3dc69d6f	0.09697997
199	0x3c262e40	0.010142863
200	0x3d7086e3	0.058722388
201	0x3b481db4	0.0030535283
202	0x3db3a2a5	0.08771256
203	0x3db45c7a	0.08806701
204	0x3d6225e7	0.055211928
205	0x3b17d6c1	0.0023168775
206	0x3d88c83f	0.06678819
207	0x3bdbcd2b	0.0067078075
208	0x3d6b608e	0.05746513
209	0x3df8307a	0.12118621
210	0x3db3838a	0.087653235
211	0x3d5f4c39	0.05451605
212	0x3d53bd98	0.051694483
213	0x3ca1caf7	0.019750101
214	0x3dbc925f	0.092076056
215	0x3d1554ec	0.03645794
216	0x3d6b4f53	0.057448696
217	0x3c9a562e	0.018839922
218	0x3d9ae7ee	0.07563768
219	0x3dd732e8	0.105077565
220	0x3d09459f	0.03351366
221	0x3bfb3c72	0.0076671178
222	0xb938fadd	-0.00017641061
223	0x3da3c89c	0.079972476
224	0x3db6dc3c	0.08928725
225	0x3d616ba2	0.055034287
226	0x3db35f1a	0.087583736
227	0x3d578e84	0.052626148
228	0x3db3b551	0.08774818
229	0x3d0b7de2	0.034055598
230	0x3dcb9e6e	0.099423274
231	0x3d0f8ce9	0.03504649
232	0x3d9ce08a	0.07660015
233	0x3da15c56	0.0787894
234	0x3d07890a	0.033089675
235	0x3dddcbdb	0.10829898
236	0x3dc7e350	0.09760153
237	0x3d7e8692	0.062140055
238	0x3ce5ba03	0.028042799
239	0x3def0fce	0.116729364
240	0x3da235de	0.079204306
241	0x3d9f19a1	0.0776856
242	0x3d6d6b5d	0.057963718
243	0x3d916b04	0.0710049
244	0x3e19f8d3	0.15036325
245	0x3d84f43d	0.06491897
246	0x3e043647	0.1291133
247	0x3d9693db	0.0735242
248	0x3df12edf	0.11776518
249	0x3cd9dc4e	0.026594307
250	0x3d2ad3c9	0.04170588
251	0xbc8f130f	-0.017465143
252	0x3db5159e	0.08842014
253	0x3b608dac	0.003426413
254	0x3d720799	0.059089277
255	0x3c830cf0	0.01599738
