ppo_training_results/policy_Transformer_net1.pth (torch, 752459 bytes, 22 tensors)

transformer_blocks.0.attention.in_proj_weight f4 [12, 4]
0	0x3b5b4282	0.003345639
1	0x3ec85b42	0.39132124
2	0xbe61aa54	-0.22037631
3	0xbf03688a	-0.5133139
4	0x3f013a36	0.5047945
5	0x3c841d89	0.016127365
6	0x3eac4956	0.336497
7	0x3f14946d	0.5803898
8	0xbefaf06c	-0.49011552
9	0x3ece2813	0.4026495
10	0x3ee0b42c	0.4388746
11	0x3ee2c139	0.44288042
12	0xbf00e13f	-0.503437
13	0x3eb70333	0.35744628
14	0xbedb254f	-0.42801902
15	0xbef919e4	-0.48652565
16	0xbd82c50a	-0.063852385
17	0x3ee7fa58	0.45308185
18	0x3e822f10	0.2542653
19	0xbd6955d4	-0.056966618
20	0x3e3c3cbc	0.18382543
21	0xbeeb77b0	-0.45989752
22	0xbe814996	-0.25251454
23	0xbf014767	-0.50499576
24	0x3f074fc0	0.52856064
25	0x3f037549	0.5135084
26	0x3ed87e3a	0.42283803
27	0xbf0431e0	-0.51638603
28	0xbec5d15b	-0.38636288
29	0x3e928d9c	0.28623664
30	0x3ea33937	0.3187959
31	0x3ec551b1	0.38538888
32	0xbf0d0d23	-0.5509817
33	0x3f0e203f	0.55517954
34	0xbec18ed0	-0.3780427
35	0xbf18e5c5	-0.597256
36	0xbcf2c104	-0.029633053
37	0xbec22e78	-0.37926078
38	0x3e518157	0.20459495
39	0xbf16b3fc	-0.58868384
40	0xbf11ae35	-0.56906444
41	0x3f1a8a77	0.6036753
42	0x3d5b4d8c	0.05354075
43	0xbf0e3745	-0.55553085
44	0x3eb5fd03	0.35544595
45	0xbe4bf096	-0.19915995
46	0x3ef5416c	0.47901475
47	0xbebe3a37	-0.3715379

transformer_blocks.0.attention.in_proj_bias f4 [12]
0	0xbafbcfda	-0.0019211725
1	0x3ae6e0ce	0.0017614604
2	0x3996977e	0.000287231
3	0x3bf56506	0.0074888496
4	0xb771c525	-1.4410621e-05
5	0x37cf5f0f	2.4720588e-05
6	0xb5860ffd	-9.988431e-07
7	0xb665ba5c	-3.4232135e-06
8	0xbb44e6d0	-0.0030044802
9	0x3b3b1744	0.0028547803
10	0xbb73bd94	-0.0037191855
11	0x3bdc652e	0.0067259287

transformer_blocks.0.attention.out_proj.weight f4 [4, 4]
0	0xbd2ac507	-0.041691806
1	0xbe6635d1	-0.22481467
2	0x3ca3b055	0.019981543
3	0xbe279e0b	-0.16368882
4	0xbe6068fc	-0.21915048
5	0x3ebfd609	0.37467983
6	0x3c9003f6	0.017580014
7	0xbdb24deb	-0.08706268
8	0x3efe11f5	0.49623075
9	0x3ef8a56f	0.48563716
10	0xbe179455	-0.14802678
11	0xbd2018bf	-0.0390861
12	0xbea72ff7	-0.32653782
13	0x3e81734c	0.25283277
14	0x3ee1f51f	0.44132325
15	0xbee76e0e	-0.45201153

transformer_blocks.0.attention.out_proj.bias f4 [4]
0	0xbc0ec408	-0.00871373
1	0x3bc0821a	0.0058748843
2	0xbb4586a5	-0.003014007
3	0xbb9b64ea	-0.0047422545

transformer_blocks.0.feed_forward.0.weight f4 [128, 4]
0	0xbdae624b	-0.08514842
1	0xbdb08d3e	-0.0862069
2	0xbef65ee6	-0.48119277
3	0xbd9cd537	-0.07657855
4	0xbb36fa8f	-0.002792034
5	0x3e8fa534	0.28055727
6	0x3da8f1ce	0.082492456
7	0x3eb37afa	0.3505476
8	0xbe219c23	-0.15782218
9	0x3ea1c02b	0.31591925
10	0x3d1decae	0.038555793
11	0x3eaeda3a	0.3415087
12	0x3f012b5a	0.50456774
13	0x3e9b486a	0.30328685
14	0x3eaf0a57	0.34187576
15	0xbe555367	-0.20832597
16	0xbee70cf2	-0.45127064
17	0xbeaff074	-0.3436314
18	0x3e74c019	0.23901404
19	0xbec2e2c9	-0.38063648
20	0xbee83e49	-0.4536002
21	0x3ed75ed9	0.4206455
22	0x3e5c3d4d	0.2150776
23	0x3eba48ff	0.36383817
24	0xbdac7938	-0.08421558
25	0xbe953222	-0.2913981
26	0xbdf37850	-0.11888182
27	0xbe66299c	-0.2247681
28	0x3df318e7	0.11869984
29	0xbe9920c2	-0.29907805
30	0x3ed6e333	0.41970214
31	0xbee2d7d5	-0.44305292
32	0x3db1257e	0.08649729
33	0xbed3c7ee	-0.41363472
34	0x3d6565ce	0.05600529
35	0xbec17886	-0.37787265
36	0xbe475a2c	-0.19467992
37	0x3e9e1bb4	0.3088051
38	0xbed8261b	-0.42216572
39	0x3ec38710	0.38188982
40	0xbda3b2ee	-0.079931125
41	0x3ee5d433	0.44888458
42	0x3e36a02c	0.17834538
43	0x3ec4ee56	0.38463086
44	0x3ddad8f1	0.106859095
45	0x3db7ae9e	0.089688525
46	0x3e83dc99	0.2575424
47	0xbd99d3ce	-0.07511102
48	0xbd64249f	-0.055698987
49	0x3d328fd3	0.043594193
50	0xbece6962	-0.40314776
51	0xbe822d5b	-0.25425228
52	0x3eeeb89e	0.46625227
53	0xbedd93db	-0.43276867
54	0xbdea120d	-0.11429224
55	0xbed33a55	-0.4125544
56	0x3e94b507	0.29044363
57	0x3ea84e91	0.3287244
58	0xbe5e8bcf	-0.2173302
59	0xbe193479	-0.14961423
60	0xbe9f5c67	-0.31125185
61	0xbe3d2cc6	-0.18474111
62	0x3d9cbd4b	0.07653292
63	0x3d59aed8	0.05314526
64	0xbd9b1fde	-0.075744376
65	0xbec74d19	-0.38926008
66	0xbeeb26d0	-0.4592805
67	0x3edc103d	0.4298114
68	0x3ed95bcb	0.42452845
69	0xbebf500b	-0.37365755
70	0xbe899721	-0.26873115
71	0xbda37ce0	-0.079828024
72	0x3eeda43e	0.4641437
73	0x3ef75198	0.4830444
74	0x3cb8865a	0.022525001
75	0x3ed974d4	0.42471945
76	0xbd68d026	-0.05683913
77	0x3b3514ed	0.002763088
78	0x3e5d4914	0.21609908
79	0x3e2dc492	0.16969517
80	0x3e78b4ac	0.24287671
81	0x3ebb636f	0.365993
82	0xbedf42e4	-0.4360572
83	0x3e97a6e6	0.2961952
84	0xbe481f29	-0.19543137
85	0x3e434c1c	0.19072002
86	0xbea09d0a	-0.3136981
87	0x3de182d2	0.1101128
88	0xbe7e637e	-0.24842641
89	0xbe808d50	-0.25107813
90	0xbdaf5c74	-0.08562556
91	0x3d9859cf	0.07439005
92	0xbe75cbb2	-0.24003485
93	0xbd91633b	-0.07099005
94	0xbddb1782	-0.10697843
95	0x3e1505e4	0.14553028
96	0x3ebec5b2	0.37260205
97	0xbee96ff7	-0.45593235
98	0xbe952bfb	-0.29135117
99	0x3cab4477	0.02090667
100	0x3ec272ca	0.37978202
101	0xbea8f624	-0.3300029
102	0x3da3dee3	0.08001497
103	0xbdee62bf	-0.11639928
104	0xbecb0241	-0.39650157
105	0x3e69da7e	0.22837254
106	0xbdb37e67	-0.08764344
107	0xbe71ba62	-0.23606256
108	0xbe952757	-0.29131576
109	0x3ea07ce7	0.31345293
110	0x3ea8e634	0.3298813
111	0x3e14618b	0.14490335
112	0x3ea5af58	0.3236034
113	0x3eb0c781	0.3452721
114	0x3ed858ff	0.422554
115	0x3ede239a	0.43386537
116	0xbec0f5f5	-0.3768765
117	0xbe97291d	-0.29523554
118	0x3eedabb9	0.46420076
119	0x3eb096ec	0.34490144
120	0x3da00099	0.07812614
121	0xbd65b4a8	-0.05608049
122	0xbd94d787	-0.07267671
123	0x3e927fe0	0.28613186
124	0x3ed31fd8	0.41235232
125	0xbee9669b	-0.45586094
126	0xbcb71b38	-0.022351846
127	0xbc95ebee	-0.018300977
128	0xbd8b7bc3	-0.06810715
129	0xbed33c79	-0.41257074
130	0x3db47074	0.08810511
131	0xbe743626	-0.23848781
132	0xbed158ef	-0.40888163
133	0x3da5475d	0.08070252
134	0xbca0775b	-0.019588163
135	0xbe421119	-0.18951835
136	0xbeeac6be	-0.45854753
137	0xbebb4115	-0.3657309
138	0xbd556666	-0.052099608
139	0x3e92bde0	0.28660488
140	0xbebfd557	-0.37467453
141	0xbee776ec	-0.45207918
142	0xbecb3da7	-0.39695475
143	0xbe719aab	-0.23594157
144	0xbdb13bc5	-0.08653978
145	0x3ec58827	0.38580438
146	0xbe803abd	-0.25044814
147	0xbe15b74c	-0.14620703
148	0xbca95615	-0.02067093
149	0x3ec31e19	0.381089
150	0x3ee3f856	0.44525403
151	0x3ec69887	0.38788244
152	0xbd4ce5ae	-0.050023727
153	0x3e9812bd	0.29701796
154	0x3e8ccf48	0.27501893
155	0xbe9eeffb	-0.31042466
156	0x3e00c0cb	0.12573545
157	0xbeb505f8	-0.35356116
158	0xbed93733	-0.42424926
159	0x3eb3d125	0.35120502
160	0x3e1b3a0d	0.15158863
161	0xbef317c0	-0.47479057
162	0x3ed088a6	0.40729254
163	0xbd9004c8	-0.07032162
164	0x3ec52c66	0.38510436
165	0x3e8f9635	0.28044286
166	0xbdc77392	-0.0973884
167	0x3e716911	0.23575236
168	0x3d9641bc	0.073367566
169	0xbcfc075d	-0.03076523
170	0x3e04c512	0.12965801
171	0xbe9b2656	-0.30302685
172	0x3e98a139	0.29810503
173	0x3efd0a19	0.49421766
174	0xbe198c12	-0.14994839
175	0x3ef8a88a	0.48566085
176	0x3e8103bc	0.25198162
177	0x3e9dd657	0.3082759
178	0x3cef1dcb	0.029189011
179	0xbefb855e	-0.4912519
180	0x3e0c57cc	0.13705367
181	0x3ea54b35	0.3228394
182	0x3d4ef5eb	0.050527494
183	0xbc8af16b	-0.01696082
184	0x3ea75d1f	0.32688233
185	0xbe6ecf25	-0.23321207
186	0xbea744ec	-0.3266977
187	0xbd970eec	-0.07375893
188	0x3eb94619	0.36186293
189	0x3e63092b	0.22171466
190	0xbd7d5ffe	-0.061859123
191	0x3cd909c2	0.02649391
192	0x3bdac5fb	0.006676433
193	0x3defd165	0.11709861
194	0x3e8cebb1	0.27523568
195	0xbeaf418f	-0.34229705
196	0x3ea2808a	0.31738693
197	0x3e4c38ac	0.19943494
198	0x3d8993bf	0.067176335
199	0x3d07746e	0.03307002
200	0xbebd34fd	-0.3695449
201	0xbee8eb58	-0.45492053
202	0x3eff8110	0.49903154
203	0xbd56aaa8	-0.052408844
204	0x3ec353d5	0.38149896
205	0x3caa5425	0.020792076
206	0x3de20c60	0.110375166
207	0x3df716db	0.12064906
208	0x3e176ea3	0.14788298
209	0xbec9a5ba	-0.39384252
210	0xbe902014	-0.28149474
211	0xbee34bc7	-0.4439375
212	0x3de492a9	0.11160786
213	0xbe866471	-0.26248506
214	0x3de52d85	0.11190323
215	0xbd5a3188	-0.053269893
216	0x3ea6cda8	0.32578778
217	0x3e4bca82	0.1990147
218	0xbe99c5d0	-0.3003373
219	0xbe5c62b7	-0.21522032
220	0x3ef4a04d	0.4777855
221	0x3e8a95f1	0.2706752
222	0x3ed30e3d	0.412218
223	0x3d950e10	0.07278073
224	0xbe62664d	-0.22109337
225	0x3ecfdc54	0.40597785
226	0xbd9c6a8b	-0.07637509
227	0x3de8d39f	0.113684885
228	0x3ec12c4f	0.37729117
229	0xbe6f5ae7	-0.2337452
230	0x3eab80f2	0.33496815
231	0xbe939308	-0.28823113
232	0xbd6fc49c	-0.05853711
233	0xbe47c0e0	-0.1950717
234	0x3ecbc1a9	0.39796188
235	0x3e93e5aa	0.28886157
236	0xbe64fea4	-0.22362763
237	0x3ed6974e	0.4191231
238	0x3ee68458	0.45022845
239	0x3ec18102	0.37793738
240	0x3e1eac06	0.15495309
241	0x3edce089	0.43140057
242	0x3e075d34	0.13219148
243	0xbeedadb3	-0.46421584
244	0xbd4d8515	-0.050175745
245	0x3e931fc9	0.28735188
246	0xbd97f0dc	-0.07418987
247	0x3eb39f4f	0.3508248
248	0x3e694f35	0.22784121
249	0xbee3cb8f	-0.4449124
250	0xbde2d2cf	-0.11075365
251	0x3c8dc34e	0.017305043
252	0x3e7d408f	0.24731658
253	0x3ebd9f32	0.3703552
254	0xbeebc1ed	-0.4604639
255	0x3e0b57ed	0.1360776

transformer_blocks.0.feed_forward.0.bias f4 [128]
0	0xbc0739c3	-0.008253518
1	0x3ef08721	0.46978095
2	0xbeaf527e	-0.34242624
3	0xbe1c5def	-0.15270208
4	0x3ec2451b	0.37943348
5	0xbe90f24b	-0.28309855
6	0xbebd543c	-0.36978328
7	0xbc3f5490	-0.011677876
8	0x3dc110a0	0.09426999
9	0x3e09051e	0.13380858
10	0x3e86221a	0.26197892
11	0xbdc15356	-0.09439723
12	0x3eae4230	0.34034872
13	0xbeca6768	-0.39532018
14	0x3e64e226	0.22351894
15	0xbe89ece5	-0.2693855
16	0xbed585fa	-0.41703779
17	0xbefb27c8	-0.49053788
18	0x3e9e5fca	0.30932456
19	0x3ef4663b	0.47734246
20	0xbed44155	-0.41456094
21	0xbdfcf799	-0.12351913
22	0xbbb35c5b	-0.005473656
23	0xbed1be4e	-0.40965503
24	0x3ee28972	0.44245487
25	0x3e882df6	0.26597565
26	0xbe868d0c	-0.26279485
27	0x3cbcc5ff	0.02304363
28	0xbd3c0e9d	-0.045912374
29	0x3eab7c66	0.33493346
30	0xbeaf92c2	-0.34291655
31	0xbeb0338f	-0.34414336
32	0x3e7dec4e	0.24797174
33	0x3ddd58d9	0.10807962
34	0xbd85486f	-0.06507956
35	0x3e0d4f36	0.13799748
36	0xbeaa6024	-0.33276474
37	0x3eed353f	0.46329686
38	0xbef53c16	-0.47897404
39	0x3e906361	0.2820082
40	0xbe517c82	-0.20457652
41	0x3eb1bf91	0.34716466
42	0xbe30e4b5	-0.17274745
43	0xbcc127a7	-0.023578478
44	0x3e38cdf8	0.18047321
45	0xbe2ed164	-0.17072064
46	0x3d9bf16d	0.07614408
47	0x3e8fbd9e	0.28074354
48	0xbe8d7527	-0.27628443
49	0x3da24c5d	0.079247214
50	0x3cfcc30c	0.030854724
51	0x3e6e54f9	0.23274602
52	0xbed6e029	-0.41967896
53	0x3eeeb11d	0.46619502
54	0xbedbd93b	-0.4293917
55	0xbebefe15	-0.37303224
56	0x3ea51253	0.32240543
57	0x3e9edcfc	0.31027973
58	0xbd9ce315	-0.076605
59	0xbde81a05	-0.11333088
60	0x3ed3c3b7	0.41360256
61	0x3b26f077	0.0025472918
62	0xbe5e5c79	-0.21714963
63	0x3ddc9338	0.10770267
64	0xbea7c9a9	-0.32771042
65	0x3eb8d91a	0.36103135
66	0xbe92c509	-0.2866595
67	0xbe8fb9c6	-0.2807142
68	0xbe0e6e20	-0.13909197
69	0xbe9de67f	-0.30839917
70	0x3e866462	0.2624846
71	0xbd51ea7e	-0.05124902
72	0xbe6e4c4a	-0.2327129
73	0xbeaf760e	-0.34269756
74	0xbed09651	-0.40739682
75	0x3e836fe0	0.2567129
76	0xbef64340	-0.48098183
77	0x3ef99a7c	0.48750675
78	0xbd983397	-0.07431715
79	0x3dffb607	0.12485891
80	0xbe412b08	-0.18864071
81	0x3e5ac78b	0.21365182
82	0x3e2f43d8	0.17115724
83	0x3ed142d4	0.40871298
84	0xbec59fa0	-0.38598347
85	0xbebb44e7	-0.36576006
86	0xbed29582	-0.4112969
87	0x3b6c2011	0.0036029855
88	0xbd327ad8	-0.043574184
89	0x3ec8df2e	0.39232773
90	0x3ec12c42	0.3772908
91	0x3efd720b	0.4950107
92	0x3e71eb08	0.23624814
93	0x3e21d61f	0.15804337
94	0xbdb7ad95	-0.08968655
95	0xbe814e11	-0.25254872
96	0xbc886410	-0.016649276
97	0x3e2b4770	0.1672647
98	0x3ef76340	0.4831791
99	0x3e0b2ab3	0.13590507
100	0x3e85f4d9	0.26163366
101	0xbe8a5531	-0.2701812
102	0xbea16559	-0.31522635
103	0xbe830756	-0.25591534
104	0xbef162a2	-0.47145563
105	0x3d07903e	0.033096544
106	0x3eb8d58b	0.3610042
107	0x3e5f4042	0.21801856
108	0x3e7b5837	0.2454537
109	0x3e264116	0.16235766
110	0xbe9d7fb8	-0.30761504
111	0x3eb32578	0.34989524
112	0xbef7db42	-0.48409468
113	0x3eebd7c2	0.46063048
114	0xbecc42ed	-0.3989481
115	0x3de14071	0.10998619
116	0xbe92bba5	-0.28658786
117	0xbe27e80e	-0.16397116
118	0xbedab4f1	-0.42716172
119	0x3edf213d	0.43580046
120	0x3e9d4bb7	0.30721828
121	0xbebaa2e1	-0.36452392
122	0x3e34b091	0.1764548
123	0xbed7994c	-0.42109144
124	0xbe96baee	-0.2943949
125	0xbec63776	-0.38714188
126	0x3c58cb6e	0.013232095
127	0xbd776896	-0.060402475

transformer_blocks.0.feed_forward.2.weight f4 [4, 128]
0	0xbcd19154	-0.025581993
1	0x3d1ff441	0.039051298
2	0x3aa2aa5b	0.0012410389
3	0x3a993b3e	0.0011690629
4	0xbdb17dcf	-0.08666574
5	0x3cc75e95	0.024337092
6	0x3d8f8cf9	0.0700931
7	0x3d84dbe1	0.06487251
8	0x3c4eaa83	0.012613895
9	0xbbb9f89b	-0.005675388
10	0x3d70503d	0.05867027
11	0x3b84461e	0.004036679
12	0x3c3d76ed	0.011563999
13	0xbd54367b	-0.05180977
14	0xbca29799	-0.019847678
15	0xbd78caa3	-0.060740124
16	0xba8639f1	-0.0010240657
17	0xbd90fa31	-0.0707897
18	0x3b2a339e	0.0025970708
19	0xbd9abd47	-0.07555633
20	0xbac96b33	-0.0015367031
21	0x3da1fe38	0.079098165
22	0xbd8ca518	-0.06867427
23	0xbd732028	-0.05935684
24	0x3cfc79a3	0.03081972
25	0xbd663901	-0.056206707
26	0xbd115819	-0.035484407
27	0xbd7e884a	-0.062141694
28	0x3d5001ef	0.050783094
29	0xb9f05224	-0.00045837567
30	0x3d0ac337	0.033877578
31	0xbd0d69fa	-0.034524895
32	0xbd72a12d	-0.05923574
33	0x3c4bdf40	0.012443364
34	0x3da76515	0.08173577
35	0xbd1d74f7	-0.038441624
36	0x3c607e9a	0.013702059
37	0xbceef6bb	-0.029170385
38	0xbd4e0092	-0.050293513
39	0xbcd2e3c9	-0.025743382
40	0xbcc9abbc	-0.024618022
41	0xbd05a885	-0.032631416
42	0xbc6a0bc1	-0.014285029
43	0x3dc081da	0.09399767
44	0x3d16bd0a	0.036801375
45	0x3d504d1e	0.050854795
46	0xbd8683a9	-0.06568081
47	0x3dc17e28	0.094478905
48	0xbc0dfbb3	-0.008665967
49	0x3dc22aa2	0.09480788
50	0xbd277604	-0.040884033
51	0x3d350a94	0.04419954
52	0x3c4ad1bc	0.012379106
53	0xbd526ce0	-0.051373363
54	0xbd399a46	-0.045313142
55	0xbceb990b	-0.0287595
56	0x3d6c76fa	0.057730652
57	0xbd938b39	-0.07204289
58	0x3d0a4004	0.033752456
59	0xbb5af455	-0.0033409793
60	0xbcbbd880	-0.022930384
61	0x3d2c0e20	0.04200566
62	0x3db63e4f	0.08898603
63	0x3c043041	0.008068145
64	0xbb80a00e	-0.00392533
65	0x3c463640	0.012097895
66	0xbd9283f5	-0.07154075
67	0xbd1994b6	-0.037495337
68	0xbc87a0b9	-0.01655613
69	0x3d0d08c5	0.03443219
70	0x3dc0b7db	0.09410068
71	0x3d95733e	0.07297371
72	0x3b26f160	0.002547346
73	0xbd947962	-0.072497144
74	0xbdac6a0f	-0.084186666
75	0x3dc8943d	0.09793899
76	0xbc86c78f	-0.016452579
77	0x3caf6eed	0.021415198
78	0x3db9b830	0.09068334
79	0xbd392432	-0.045200534
80	0x3d1939b9	0.037408564
81	0x3ca4248c	0.020036958
82	0x3d82a043	0.06378224
83	0xbd98bde8	-0.07458097
84	0x39644c00	0.00021772087
85	0x3d5657ea	0.052329935
86	0x3d9b68fe	0.07588385
87	0x3d9ea334	0.07745972
88	0x3d26ba9e	0.040705316
89	0x3cfa16fc	0.030528538
90	0x3da234d9	0.07920236
91	0xbcdd9d0b	-0.027052423
92	0xbd32bc39	-0.043636534
93	0xbd4dd348	-0.05025032
94	0x3c84c896	0.016208928
95	0xbdc177a9	-0.094466515
96	0xbd15ad85	-0.036542434
97	0x3d9d1675	0.07670299
98	0xbd72c225	-0.059267182
99	0x3cd7cf1d	0.026343876
100	0x3d3cded9	0.04611096
101	0xbd09fb9c	-0.03368722
102	0x3cdcaea3	0.026938742
103	0xbcaf3226	-0.021386217
104	0xbc307548	-0.0107701495
105	0x3d66fd5a	0.05639396
106	0x3d316588	0.04330972
107	0x3d8b29b5	0.06795064
108	0xbc53a64e	-0.012918068
109	0xbd770d2f	-0.060315307
110	0x3d1e9ac3	0.03872181
111	0x3da945cf	0.08265268
112	0xbda7c0e4	-0.08191088
113	0xbc8d86e1	-0.01727623
114	0x3cc03a3b	0.023465266
115	0x3d86559c	0.065592974
116	0xbd1d7f3a	-0.03845141
117	0x3d6c8284	0.057741657
118	0xbd0449c8	-0.032296926
119	0xbc65a4db	-0.014016355
120	0xbd1a0ca6	-0.03760972
121	0x3da81979	0.082079835
122	0x3d8799da	0.06621142
123	0xbbc56a61	-0.0060246442
124	0x3d13da63	0.03609694
125	0x3d119bb1	0.03554887
126	0xbd904539	-0.07044453
127	0xbd4e6999	-0.050393675
128	0xbd6a8b23	-0.057261597
129	0xbd4cd02c	-0.050003216
130	0x3d79d5c6	0.060994886
131	0x3dbf7d70	0.09350097
132	0x3dc0c737	0.09412997
133	0xbdaf980b	-0.08573922
134	0xbd773800	-0.06035614
135	0x3d8ac2ad	0.06775413
136	0x3dafc13c	0.085817784
137	0xbda14dc4	-0.07876161
138	0xbd81e035	-0.06341592
139	0x3d83f5b8	0.064433515
140	0xbdc85614	-0.09782043
141	0xbd8628ee	-0.065507755
142	0xbc5bf9f2	-0.013426291
143	0x3d08faef	0.033442434
144	0xbd602e34	-0.054731563
145	0xbda80945	-0.08204893
146	0x3bb2f367	0.0054611447
147	0xba494747	-0.00076781627
148	0xbc66fbc6	-0.014098113
149	0x3d928b7b	0.0715551
150	0xbcbc90c2	-0.023018245
151	0x3b87ddd1	0.0041463156
152	0x3d660ff1	0.056167547
153	0xbdb16661	-0.08662105
154	0xbc45f5fa	-0.012082571
155	0x3da9f97f	0.08299541
156	0xbc8e9b5c	-0.017408065
157	0x3d9eac6c	0.077477306
158	0x3d9e9c29	0.07744629
159	0xbcb2c985	-0.021824608
160	0xba69a16d	-0.0008912299
161	0x3a9cc734	0.0011961223
162	0xbcacaa24	-0.021077223
163	0xbd77dba7	-0.06051221
164	0xbd868d16	-0.06569879
165	0xbcef3905	-0.029201994
166	0x3dac6171	0.08417023
167	0x3cce8e5a	0.025214363
168	0x3d65269a	0.055945016
169	0x3d23294a	0.0398343
170	0xbb299b97	-0.0025880092
171	0xbce036f3	-0.027369952
172	0x3c49d2e4	0.012318347
173	0x3d872b4d	0.06600056
174	0x3b11218f	0.0022145247
175	0xbd2f5a1e	-0.04281055
176	0xbd6989db	-0.057016235
177	0xbda1b717	-0.0789625
178	0x3d55c1e7	0.052186873
179	0x3d8089f5	0.06276313
180	0x3dbdceb5	0.09267942
181	0xbd33a88f	-0.043861922
182	0xb8c7ab86	-9.521008e-05
183	0x3d4e5953	0.050378155
184	0x3d08a1a6	0.033357285
185	0x3d231a98	0.039820284
186	0x3d4eb96e	0.05046981
187	0x3ae8aa4d	0.0017750949
188	0x3d855b72	0.065115824
189	0x3d84964c	0.06473979
190	0x3d444027	0.047912743
191	0x3c659e29	0.014014759
192	0x3d2bd2cf	0.04194909
193	0x3d65d608	0.05611232
194	0x3d710eff	0.058852192
195	0xbd55dc58	-0.05221209
196	0xbd0afd43	-0.033932935
197	0xbdb45d25	-0.088068284
198	0x3bbdf464	0.005796956
199	0x3d18dead	0.037321735
200	0xbd9aee0b	-0.07564934
201	0x3d350786	0.044196628
202	0x3db99dae	0.09063278
203	0x3cf4a89d	0.029865557
204	0xbccd95b3	-0.025095796
205	0x3d047cfd	0.03234576
206	0xbdc2a3b1	-0.09503878
207	0xbd75cd7b	-0.060010415
208	0xbba07c5d	-0.0048976378
209	0x3cbb045b	0.022829225
210	0xbd25cfdf	-0.040481444
211	0xbdaaadfa	-0.08333965
212	0x3c2bbb28	0.010481633
213	0x3c9c9d49	0.019117968
214	0xbd72ee77	-0.05930945
215	0xbdb14808	-0.08656317
216	0x3d2e346e	0.04253047
217	0xbd21d8c3	-0.03951336
218	0xbdb03042	-0.086029544
219	0xbdb98a05	-0.09059528
220	0xbd425529	-0.047444496
221	0x3dc5d79b	0.09660264
222	0xbc7175a1	-0.014737518
223	0xbd6960d1	-0.056977097
224	0x3bc0f5db	0.0058886833
225	0x3d2d1ee1	0.042265777
226	0x3d5b44a0	0.053532243
227	0x3d44f3b5	0.04808398
228	0xbd63d6c4	-0.05562474
229	0xbd962586	-0.07331376
230	0x3dcb8c2b	0.09938844
231	0x3cdbcf74	0.02683232
232	0xbca1dd34	-0.019758798
233	0xbd2f7d7f	-0.04284429
234	0x3d36d746	0.044638894
235	0x3d8c5307	0.06851774
236	0xbd02f2ce	-0.031969838
237	0x3d3e82a9	0.046511326
238	0x3d88dbb3	0.06682529
239	0x3c245702	0.01003051
240	0x3dd784f4	0.10523406
241	0x3d064a38	0.032785624
242	0xbdbc9a8e	-0.092091665
243	0xbc9f85cc	-0.019472979
244	0xbd8825a3	-0.06647804
245	0x3cd09c9c	0.025465302
246	0xbd3d37aa	-0.046195664
247	0xbd8202c6	-0.06348185
248	0xbcacd5fb	-0.021098128
249	0x3d581e28	0.052763134
250	0xbc640b8e	-0.0139187705
251	0xbd96b475	-0.07358638
252	0xbd366e0a	-0.044538535
253	0xbd8801a7	-0.0664094
254	0x3da7e0dc	0.081971854
255	0x3d054130	0.03253287

transformer_blocks.0.feed_forward.2.bias f4 [4]
0	0x3bbdc0ef	0.0057908217
1	0xbd885fcb	-0.06658896
2	0xbd9d0b31	-0.0766815
3	0x3cd496cb	0.02595081

transformer_blocks.0.norm1.weight f4 [4]
0	0x3f817f0e	1.0116899
1	0x3f809794	1.0046258
2	0x3f7aa524	0.97908235
3	0x3f805fac	1.0029197

transformer_blocks.0.norm1.bias f4 [4]
0	0x3c0f8919	0.008760714
1	0xbc4625e2	-0.012093993
2	0x3c3c4edd	0.011493412
3	0xbc18be6f	-0.009322747

transformer_blocks.0.norm2.weight f4 [4]
0	0x3f788d80	0.9709091
1	0x3f7b6c62	0.98212254
2	0x3f76908d	0.96314317
3	0x3f782a0d	0.96939164

transformer_blocks.0.norm2.bias f4 [4]
0	0xbbd2df81	-0.006435335
1	0x3ae8b997	0.0017755505
2	0x3cba39d0	0.022732645
3	0xbcb5f100	-0.022209644

fc1.weight f4 [128, 360]
0	0xbd569c1f	-0.052394982
1	0xbcf3b46f	-0.029749123
2	0xbb251890	-0.0025191642
3	0xbc1b94db	-0.009495939
4	0x3cb6483d	0.022251243
5	0xbce6ec8e	-0.02818897
6	0xbc801d9e	-0.015639123
7	0x3c8b14f2	0.016977761
8	0x3c9f8b34	0.019475557
9	0x3d33f2bd	0.043932665
10	0x3cd11aec	0.025525533
11	0x3cc5fc64	0.0241682
12	0xbb33214e	-0.0027333084
13	0xbd182169	-0.037141237
14	0xbd3a1c19	-0.045436952
15	0x3ada956f	0.0016676615
16	0x3d11130b	0.03541855
17	0xbd668dfa	-0.056287743
18	0xbcce2729	-0.025165157
19	0x3c6029bf	0.013681828
20	0x3cfaa6c0	0.03059709
21	0xbb155331	-0.0022785182
22	0x3c3968ed	0.01131652
23	0x3cce969a	0.025218297
24	0x3d426bbd	0.04746603
25	0x3ce44f68	0.027869895
26	0xb96c498a	-0.0002253411
27	0xbcc0465f	-0.023471056
28	0x3d57e48a	0.052708186
29	0x3ca8206a	0.020523269
30	0x3cca062b	0.024661144
31	0xbb0d391d	-0.0021548935
32	0x3ca4fd2d	0.020140255
33	0x3b49f9b9	0.0030819012
34	0x3d34d3a6	0.044147156
35	0x3ce528d7	0.027973576
36	0xbc3137bd	-0.010816512
37	0xbd2c6019	-0.042083833
38	0xbd26dc2f	-0.040737327
39	0xbc8f7429	-0.017511444
40	0xbd6bc5b0	-0.057561576
41	0xbcf57f18	-0.02996783
42	0x3d32b3cf	0.04362851
43	0xbd73a9a2	-0.059487946
44	0xbd556f7e	-0.05210828
45	0x3ca9c8a8	0.020725563
46	0xbcad1e9c	-0.02113276
47	0x3c899c6a	0.016798217
48	0xbc0dfc90	-0.008666173
49	0x3d608e5c	0.054823264
50	0x3cbde94d	0.023182536
51	0xbd1d5bd8	-0.038417667
52	0xbbd4c691	-0.0064933975
53	0x3d98bfe8	0.07458478
54	0xbbb913c3	-0.0056481077
55	0x3cd25a6b	0.02567788
56	0xbb04e71b	-0.002027935
57	0x3ccb55bd	0.024821157
58	0x3cbc8620	0.023013175
59	0x3d0f44ad	0.034977604
60	0xbcc56bb3	-0.024099207
61	0xbd63efaf	-0.055648502
62	0x3cadf70e	0.021235969
63	0x3cf139d2	0.029446516
64	0x3cd11463	0.025522416
65	0x3d1407e9	0.036140356
66	0x3d31945b	0.043354373
67	0xbd838493	-0.06421771
68	0xbd1564ce	-0.036473088
69	0x3cd80f97	0.026374621
70	0xbbf7ee5d	-0.007566257
71	0x3cad7732	0.021175
72	0xbd241deb	-0.040067594
73	0x3b8c4852	0.004281082
74	0xbd1a8303	-0.0377226
75	0xbca61636	-0.020274263
76	0x3d3fc6a1	0.046820287
77	0xbbc78790	-0.0060891584
78	0x3bbe5a1b	0.0058090813
79	0xbd1514c8	-0.03639677
80	0x3d110e19	0.035413835
81	0x39586f3b	0.00020640802
82	0x3d154464	0.036442176
83	0x3d2884c3	0.041142236
84	0xbca5a45a	-0.02021997
85	0xbd3ea1c8	-0.046541005
86	0x3c983128	0.018578127
87	0x3d6061e3	0.054780852
88	0xba2ca7d7	-0.00065862894
89	0xbc4c09bf	-0.0124534955
90	0xbd4a6a41	-0.049417738
91	0x3d43ae68	0.04777375
92	0xbd240f38	-0.040053576
93	0xbba28843	-0.0049600913
94	0xbd610d78	-0.054944485
95	0x3be2fb5e	0.006926938
96	0xbd152911	-0.036416117
97	0x3cd71bb4	0.026258327
98	0x3d1bf69e	0.03807699
99	0xbbd7c263	-0.006584452
100	0xbd0f62f2	-0.03500647
101	0x3b8e1100	0.0043355227
102	0xbc905ff7	-0.017623885
103	0x3c16a584	0.009194735
104	0x3ceeb080	0.029136896
105	0x3cee8736	0.029117208
106	0x3d20af66	0.039229773
107	0x3c90fd60	0.017698944
108	0x3d607c1d	0.054805864
109	0xbbbff034	-0.005857492
110	0x3cced3b5	0.025247434
111	0xbc13307b	-0.008983727
112	0x3d46d6d5	0.048544724
113	0xb9a327f4	-0.0003111955
114	0xbc8b548f	-0.017008094
115	0x3d0a3036	0.033737384
116	0xbcdbab06	-0.026814949
117	0x3d482639	0.048864577
118	0x3d41748d	0.047230292
119	0xbb604748	-0.0034222174
120	0xbcef2e8f	-0.029197006
121	0xbc644e04	-0.013934616
122	0x3ce009a9	0.027348356
123	0xbd09d1a5	-0.0336472
124	0x3c97b465	0.018518636
125	0xbc83ebe6	-0.016103696
126	0x3cf65d10	0.030073673
127	0x3ba515dc	0.005038006
128	0xbd019c09	-0.031642947
129	0xbcbb1470	-0.022836894
130	0xbcc24ce3	-0.023718303
131	0x3c868b7f	0.016423939
132	0x3cfb9643	0.030711299
133	0x3d1f747e	0.038929455
134	0xbd56b615	-0.05241974
135	0xbd3893b6	-0.045062743
136	0x3d7972e9	0.060900602
137	0xbd4773a6	-0.048694275
138	0xbbec8725	-0.007218259
139	0x3d279198	0.040910333
140	0xbcfcec71	-0.030874463
141	0x3cad3736	0.02114449
142	0x3d62d34a	0.055377282
143	0xbd49f23f	-0.04930329
144	0x3ac36cdc	0.0014909762
145	0x3b439319	0.0029842316
146	0x3c9a6c5a	0.018850494
147	0xbcca8808	-0.024723068
148	0x3d085cf5	0.033291776
149	0xbc98e000	-0.018661499
150	0xbd66102c	-0.056167766
151	0xbcbe3c8c	-0.02322223
152	0x3bb71116	0.0055867536
153	0x3d5b2583	0.05350257
154	0xbaa68f0c	-0.0012707426
155	0x3d206bde	0.03916537
156	0xbcef88ff	-0.02924013
157	0x3d09498c	0.033517405
158	0xbd3698a2	-0.044579156
159	0xbcc8a6a1	-0.024493517
160	0x3cfb061b	0.03064256
161	0xbd325cee	-0.043545656
162	0x3c054af5	0.008135547
163	0xbcbc3523	-0.022974556
164	0xbb5cca7c	-0.0033690026
165	0xbd253959	-0.040337894
166	0x3c0d5d89	0.008628258
167	0xbd2a2285	-0.041536827
168	0xbc8166aa	-0.015796024
169	0x3d10c848	0.035347253
170	0x3c913d74	0.017729498
171	0xbd00fdb7	-0.03149196
172	0xbd6c5370	-0.05769676
173	0x3c8b8dbc	0.017035358
174	0x3d08e310	0.03341967
175	0x3d188bac	0.037242576
176	0xbd3af8a1	-0.045647267
177	0xbc7e39b6	-0.015516689
178	0xbc0ea4c8	-0.008706279
179	0x3d1ec915	0.038765986
180	0xba67fa15	-0.0008849216
181	0x3b7be251	0.0038434456
182	0xbd511ba8	-0.051051766
183	0x3cc7c54f	0.024386076
184	0x3b7d7059	0.00386717
185	0xbbc3d1d5	-0.0059759417
186	0xbd4473fa	-0.047962166
187	0x3d6592aa	0.056048073
188	0x3d31e393	0.043429922
189	0xbc4f0149	-0.012634584
190	0xbd594f6c	-0.05305426
191	0xba1698d0	-0.0005744817
192	0x3d05295c	0.032510146
193	0xbd3a04da	-0.045414783
194	0xbcd8195e	-0.026379284
195	0x3b4438b1	0.0029941017
196	0xbcab20df	-0.020889698
197	0xbc87dd3f	-0.01658499
198	0xbc892355	-0.01674048
199	0xbd286dae	-0.041120224
200	0x3d5cacbe	0.053875677
201	0x3cdbd045	0.02683271
202	0x3d0c3237	0.034227576
203	0x3c277bd7	0.010222397
204	0x3b047027	0.002020845
205	0x3d3aa74a	0.045569696
206	0xbd30b6a9	-0.04314295
207	0x3cac8b06	0.021062385
208	0x3baaf4ec	0.0052171852
209	0xbd0a611b	-0.033784013
210	0xbcc1e13b	-0.023666969
211	0x3c578ced	0.013156158
212	0x3d3665a7	0.044530537
213	0x3cd024d2	0.025408182
214	0x3cfa7c49	0.030576842
215	0xbd0b4d36	-0.03400918
216	0x3d4268ed	0.047463346
217	0xbd0d4a25	-0.034494538
218	0xbca4eda3	-0.020132845
219	0xbcde1c18	-0.027113006
220	0xbcebd7b2	-0.028789375
221	0x3bc399be	0.005969255
222	0xbd0080cd	-0.031372834
223	0x3d05abc7	0.032634523
224	0x3bb92ee5	0.005651342
225	0xbce78d85	-0.028265724
226	0xbcde1eab	-0.027114233
227	0x3d627c86	0.055294536
228	0x3d8af735	0.06785432
229	0x3d1b7938	0.0379574
230	0xbd82c29f	-0.06384777
231	0xbd74413f	-0.059632536
232	0x3d20bd9e	0.039243333
233	0x3d630dad	0.055432964
234	0x3b5b8680	0.0033496916
235	0xbd50e5da	-0.051000454
236	0xbc348a86	-0.011019355
237	0x3c258c17	0.010104201
238	0xbc151777	-0.009099833
239	0xbcd763a8	-0.026292637
240	0x3b366bf2	0.0027835337
241	0xbb3f9aaa	-0.0029236474
242	0x3d371a70	0.044702947
243	0x3cfa75fb	0.030573836
244	0xbc962ea1	-0.018332781
245	0xbd58ad20	-0.05289948
246	0x3b61aed8	0.003443649
247	0xbc2c7fc5	-0.0105285095
248	0x3b861645	0.00409201
249	0x3cf64ea7	0.030066801
250	0x3cd74091	0.026275905
251	0x3c90b185	0.017662773
252	0x3d2205b8	0.039556235
253	0x3d260596	0.04053267
254	0xbd5c91d2	-0.053850003
255	0x3d3a1e1e	0.04543888

fc1.bias f4 [128]
0	0xbd417292	-0.047228403
1	0x3d088ccf	0.03333741
2	0x3c9f0004	0.019409187
3	0x3aa62787	0.0012676575
4	0x3c6a531b	0.01430204
5	0x3c78d311	0.015187041
6	0x3d238755	0.039923985
7	0x3d33b321	0.043872003
8	0x3c2a9a73	0.0104128
9	0xbd40af2a	-0.04704205
10	0xbca11847	-0.019664897
11	0x3c87361c	0.016505294
12	0x3b6d29a2	0.0036188145
13	0x3d655e4c	0.05599813
14	0xbd455ce9	-0.04818431
15	0xbced95bd	-0.029002065
16	0x3b2b144e	0.0026104632
17	0xbd3d755a	-0.046254493
18	0x3d0c8097	0.03430232
19	0xbbb676cc	-0.005568361
20	0x3ca8e763	0.020618146
21	0xbb751bf0	-0.0037400685
22	0xbca06403	-0.01957894
23	0xbd1dfead	-0.038572956
24	0x3c168b92	0.00918855
25	0x3d13d758	0.03609404
26	0xbc1e18b0	-0.009649441
27	0xbb236de8	-0.0024937335
28	0xbb90ba31	-0.004416727
29	0x3c006d13	0.007838505
30	0x3d27101b	0.040786844
31	0x3d5a5625	0.05330481
32	0xbc70bd48	-0.014693566
33	0xba0b621a	-0.00053170475
34	0xbced4221	-0.028962197
35	0x3d289c0e	0.04116445
36	0xbd180bea	-0.037120737
37	0xbd2d17de	-0.04225909
38	0x3d3e6398	0.0464817
39	0x3d4637ae	0.048392944
40	0xbc7b0e2c	-0.015323203
41	0xbd1aac4c	-0.03776197
42	0x3cd7f7a7	0.026363207
43	0x3cbe3298	0.023217484
44	0xbd1682ee	-0.036745958
45	0xbbf0651a	-0.007336271
46	0x3c2db7a0	0.010602862
47	0xbc0232c2	-0.007946672
48	0xbca2f163	-0.019890493
49	0x3c960d7b	0.018316975
50	0xbca4b066	-0.020103645
51	0x3caabd58	0.02084224
52	0xbb7c0639	-0.0038455857
53	0xbd3f0ed2	-0.046644993
54	0xbd2ea65b	-0.042639118
55	0xbccdc52c	-0.025118433
56	0xbd58f2e5	-0.052966017
57	0xbb819dab	-0.003955563
58	0x3c46d438	0.012135558
59	0xbc0cdf2b	-0.008598129
60	0xbd14e0a9	-0.036347065
61	0xbd2e61c8	-0.04257372
62	0x3cd84e38	0.026404485
63	0x3c8dd5f8	0.017313942
64	0xbd39b2b0	-0.045336425
65	0xbd0a3f7f	-0.03375196
66	0x3a104490	0.00055033807
67	0xbc2bd7de	-0.0104884785
68	0x3bad868d	0.0052955807
69	0xbcb31f49	-0.021865504
70	0x3c745283	0.01491225
71	0xbc6aa2d8	-0.014321052
72	0xbc58c1c4	-0.013229791
73	0xbca7bfc2	-0.02047718
74	0xbd21f41d	-0.039539445
75	0xbb268c27	-0.0025413127
76	0xbd817010	-0.06320202
77	0xbd12fd62	-0.035886176
78	0xbd14657d	-0.0362296
79	0x3d04ccf8	0.032422036
80	0xbc51bfe2	-0.012802096
81	0xbc9bb0a0	-0.01900512
82	0xbd65afb1	-0.056075756
83	0x3d221f5a	0.03958068
84	0x3c465207	0.012104518
85	0xbd0f1ddd	-0.03494059
86	0x3d44b97b	0.04802845
87	0x3a83b4b5	0.0010048362
88	0xbca0c3ab	-0.019624552
89	0x3d5777aa	0.052604355
90	0xbc5f04c9	-0.013611981
91	0x3c0343c9	0.008011767
92	0x3d2399d4	0.039941624
93	0xba4878b8	-0.0007647383
94	0xbd11c0f7	-0.035584416
95	0x3d30c493	0.043156218
96	0x3d2090fa	0.03920076
97	0xbb5c12b6	-0.0033580489
98	0xb9f7be3c	-0.00047253247
99	0xbaca06bb	-0.0015413383
100	0xbcb25e8b	-0.021773597
101	0x3c8ca456	0.017168205
102	0x3b5ac474	0.0033381255
103	0xbbfd7e5c	-0.0077360105
104	0xbd149f40	-0.036284685
105	0x3be50f63	0.0069903596
106	0xbd685b16	-0.05672749
107	0x3d293f5b	0.041320186
108	0x3cf2e53c	0.029650323
109	0xbd5cc2af	-0.053896602
110	0x3c1e283c	0.009653147
111	0x3b1a88c0	0.0023580045
112	0xbc43fb0d	-0.011961711
113	0x3d317f42	0.043334253
114	0x3c3e7816	0.01162531
115	0xbd8f503e	-0.06997727
116	0x3d36e5ba	0.044652678
117	0xbcaaf4df	-0.020868717
118	0x3c22eb90	0.009943858
119	0x3d298aa8	0.041392
120	0x3b80eee2	0.003934727
121	0x3cd74373	0.02627728
122	0x3d345c77	0.044033494
123	0x3a06b431	0.0005138545
124	0xbd245122	-0.040116437
125	0x3d049995	0.03237303
126	0x3d0ffa66	0.035150908
127	0x3bef5d23	0.007304804

fc2.weight f4 [128, 128]
0	0xbd9e62db	-0.07733699
1	0x3d9ece40	0.07754183
2	0x3cd4893b	0.025944343
3	0x3db5d7ed	0.08879075
4	0x3d8a8c39	0.067650266
5	0xbd9510f0	-0.07278621
6	0xbc14f929	-0.009092608
7	0xbd01a363	-0.03164996
8	0xbd832636	-0.064037725
9	0xbdb2509e	-0.08706783
10	0x3d89f9fd	0.067371346
11	0x3d093757	0.03350004
12	0xbd2e3401	-0.042530064
13	0x3d98f4bc	0.074685544
14	0xbc6489db	-0.013948883
15	0x3d8d5f47	0.06902938
16	0x3cbca12a	0.023026068
17	0x3d7b0906	0.061287902
18	0xbda8d68b	-0.08244046
19	0x3d139481	0.036030296
20	0x3bb2c232	0.005455279
21	0x3d6a5d70	0.057218015
22	0xbd841652	-0.0644957
23	0xbd24f993	-0.040277075
24	0xbc7ad19c	-0.015308764
25	0x3d4a902d	0.049453903
26	0x3d3d14d3	0.046162438
27	0xbdb3ec5c	-0.08785316
28	0xbce2b65a	-0.027674843
29	0x3d3eac68	0.04655114
30	0xbca370ac	-0.019951187
31	0xbd32f4d6	-0.043690525
32	0xbd29060c	-0.041265532
33	0x3d096df7	0.033552136
34	0xbcf08414	-0.029359855
35	0x3cce20b3	0.025162077
36	0xbd0410d8	-0.032242626
37	0x3d950375	0.0727605
38	0x3c65d412	0.014027612
39	0xbce22154	-0.027603783
40	0xbd69868c	-0.05701308
41	0x3b462ba2	0.003023841
42	0x3d27bf17	0.04095372
43	0x3bcd77bd	0.0062703774
44	0x3d77683b	0.060402136
45	0x3d724b37	0.05915376
46	0xbc54753e	-0.012967406
47	0x3cd27b0e	0.025693443
48	0xbda55ace	-0.0807396
49	0xbcea454e	-0.0285975
50	0x3da2222b	0.07916673
51	0x3ccb7b38	0.024839029
52	0xbce97b43	-0.028501159
53	0xbdc01a9b	-0.093800746
54	0xbb1d3021	-0.0023984986
55	0x3d691f5a	0.056914665
56	0xbc101fd9	-0.008796656
57	0x3d10d2ef	0.035357412
58	0xbc4fea76	-0.012690177
59	0xbd002081	-0.031281
60	0xbd7c257f	-0.061559197
61	0x3b9ce21c	0.0047876965
62	0xbae08794	-0.0017130249
63	0x3cb1d6a0	0.021708786
64	0x3d955db6	0.072932646
65	0x3da9978b	0.08280858
66	0xbd91ff19	-0.07128734
67	0x3ceadead	0.028670633
68	0xbda142e1	-0.07874084
69	0xbd47d306	-0.048785232
70	0xbd8d621b	-0.06903478
71	0x3d97befa	0.07409473
72	0xbce47a51	-0.027890356
73	0xbd50f4cc	-0.051014706
74	0x3da437d4	0.08018461
75	0x3c440f1d	0.011966494
76	0x3d7c2412	0.061557837
77	0xbd8b91ab	-0.06814893
78	0xbc0975eb	-0.00838993
79	0xbd99f239	-0.075169034
80	0x3d8e1351	0.06937278
81	0xbcfb4775	-0.030673722
82	0x3cb02ebf	0.021506665
83	0x3d676127	0.056489136
84	0x3c690f52	0.014224844
85	0x3da826e0	0.0821054
86	0xbca9022e	-0.020630922
87	0x3b73fe1b	0.0037230316
88	0x3d4ec0ec	0.050476953
89	0xbd36ecfe	-0.044659607
90	0x3c1f922b	0.009739439
91	0xbc4ecd9c	-0.012622263
92	0x3c79af67	0.015239573
93	0xbcf8d229	-0.03037365
94	0x3d6113fc	0.0549507
95	0xbbe5df57	-0.0070151496
96	0x3d0ab4fb	0.033864003
97	0xbdb1a9bd	-0.08674953
98	0x3d810aaf	0.06300866
99	0x3d77f424	0.060535565
100	0x3d707109	0.05870155
101	0x3c0b2adf	0.008494108
102	0xbc80fade	-0.015744623
103	0xbd3ba1d3	-0.045808624
104	0x3da81b24	0.08208302
105	0x3da8b8b2	0.08238353
106	0xbd1f51d4	-0.038896397
107	0x3d8d39d6	0.06895797
108	0x3ce75c1f	0.028242169
109	0x3cd10f45	0.025519976
110	0x3da4a29b	0.08038827
111	0x3caaeae3	0.020863956
112	0x3be62bd9	0.00702427
113	0xbda7ac71	-0.081871875
114	0x3d88a266	0.066716
115	0x3d9ac797	0.075576
116	0xbd7b1085	-0.06129505
117	0xbdb48389	-0.08814151
118	0x3c865c9f	0.016401587
119	0x3d34113e	0.043961756
120	0xbc7100ad	-0.014709634
121	0xbdcae7ce	-0.099074945
122	0x3d03adfb	0.032148343
123	0xbd15d00f	-0.036575373
124	0xbdb2b534	-0.08725968
125	0xbd02f2e5	-0.031969924
126	0x3d5fd424	0.054645672
127	0xbbdb955e	-0.0067011556
128	0x3da78d00	0.081811905
129	0xbd5c8b31	-0.05384368
130	0xbdc4f7c8	-0.09617573
131	0x3daa80fa	0.083253816
132	0xbcc444e8	-0.023958638
133	0xbca62070	-0.02027914
134	0xbd37aa55	-0.044840176
135	0xbd9f2810	-0.07771313
136	0xbc415c45	-0.011801784
137	0x3c8e84a9	0.017397242
138	0x3d3121ee	0.04324525
139	0xbd0f010d	-0.03491311
140	0xbda24bce	-0.07924615
141	0x3cc5a3e1	0.024125995
142	0x3d543093	0.051804136
143	0x3d4097e0	0.04701984
144	0x3d35b813	0.044365
145	0xbca02eff	-0.01955366
146	0xbd8e7b20	-0.06957078
147	0x3cd3b771	0.025844308
148	0x3d25cfb3	0.04048128
149	0x3d5db6cf	0.054129418
150	0x3bba1731	0.005679034
151	0xbdb9fcfa	-0.090814546
152	0xbdacb4fd	-0.08432958
153	0x3aa32ef1	0.0012449903
154	0x3d85adaa	0.065272644
155	0xbd9b386d	-0.07579122
156	0xbd838c47	-0.0642324
157	0x3d8a7f72	0.067625895
158	0x3db28f4f	0.0871874
159	0xbd83212b	-0.06402811
160	0x3d694848	0.0569537
161	0xbd467357	-0.04844984
162	0xbdbc115c	-0.091829985
163	0x3b9ff7a1	0.0048818146
164	0xbd97d3a4	-0.07413414
165	0x3ce3b6c8	0.027797118
166	0xbd8edead	-0.06976066
167	0xbd848468	-0.06470567
168	0xbda14e37	-0.078762464
169	0x3d15bfeb	0.03655998
170	0x3b95a200	0.004566431
171	0xbbfc7dc3	-0.0077054217
172	0xbd12b35e	-0.03581559
173	0x3da1a484	0.07892707
174	0x3d86f43e	0.06589554
175	0xbc06a62a	-0.008218328
176	0x3d58f539	0.052968238
177	0x3c405950	0.011740044
178	0xbc1cf4c3	-0.00957984
179	0x3ce2dfa0	0.027694523
180	0xbd705174	-0.05867143
181	0xbcc5d5e4	-0.024149843
182	0x3cace175	0.0211036
183	0x3d3430e3	0.043991935
184	0x3cc6a8c1	0.02425039
185	0x3cfde9f5	0.030995348
186	0xbd68c881	-0.05683184
187	0x3bf53556	0.007483165
188	0xbdb6fdff	-0.08935165
189	0xbd552ce2	-0.052044757
190	0xbd2ac8f4	-0.04169555
191	0x3d43c970	0.047799528
192	0x3d036bc4	0.032085195
193	0xbd87d503	-0.06632426
194	0x3b5fd3c1	0.0034153315
195	0xbd14e656	-0.036352478
196	0xbd2a963d	-0.041647185
197	0xbcc3b32f	-0.023889152
198	0xbd3373f8	-0.04381177
199	0x3d1edecc	0.038786694
200	0x3d013671	0.03154606
201	0xbd033019	-0.03202829
202	0x3d1d6c48	0.038433343
203	0xbc8d0025	-0.017211983
204	0x3d2bf332	0.041979976
205	0x3cb73a03	0.02236653
206	0x3d8f8506	0.07007794
207	0xbdce2978	-0.10066503
208	0x3d81fe9a	0.063473895
209	0xbd54e3a6	-0.051974915
210	0x3d743c45	0.05962779
211	0x3be3460c	0.0069358405
212	0xbd14404a	-0.036194123
213	0xbd7c73ce	-0.061633877
214	0xbd922053	-0.071350716
215	0xbd0e77bb	-0.034782153
216	0xbd308321	-0.043093804
217	0xbd9a2d89	-0.075282164
218	0x3cd058f7	0.025433047
219	0xbc931b28	-0.017957285
220	0xbd8b8809	-0.06813056
221	0x3b9480ef	0.0045319716
222	0xbd905630	-0.07047689
223	0xbd83b731	-0.06431425
224	0x3c2f09a1	0.010683448
225	0x3c36b682	0.011151912
226	0xbdad48a2	-0.08461119
227	0x3d40a4d4	0.047032192
228	0x3d642317	0.055697527
229	0xbd017994	-0.031610087
230	0x39b1e0f0	0.00033927662
231	0xbcd56b8c	-0.026052259
232	0x3d814da0	0.06313634
233	0x3d86541f	0.065590136
234	0xbdbc003d	-0.09179733
235	0x3d1139a0	0.035455346
236	0x3d9a2db5	0.07528249
237	0x3d8c583d	0.068527676
238	0xbc1aaa07	-0.009439952
239	0xbd0111cf	-0.031511124
240	0xbc6fb4cf	-0.0146305105
241	0xbd819d7c	-0.06328866
242	0xbd186da2	-0.03721393
243	0x3d56d1a8	0.052446038
244	0xba9afbf8	-0.001182436
245	0x3ccdd5d4	0.025126375
246	0x3b9fe473	0.004879528
247	0x3bbef4f3	0.00582754
248	0x39265a22	0.00015864571
249	0xbd338cdb	-0.043835502
250	0xbd8af388	-0.06784731
251	0xbdc692f2	-0.09695996
252	0xbd76ab4d	-0.06022196
253	0xbd08da37	-0.03341123
254	0x3af41210	0.0018621106
255	0x3c2f65e4	0.010705445

fc2.bias f4 [128]
0	0x3d7d73e2	0.061878093
1	0xbc3540fb	-0.011062856
2	0xbd61e984	-0.05515434
3	0x3cb4c8a0	0.022068322
4	0x3c7afe55	0.015319427
5	0x3d8a846a	0.06763537
6	0x3cf96a71	0.030446263
7	0xbd77813f	-0.060425993
8	0xbd810226	-0.06299238
9	0xbcd6dad6	-0.026227396
10	0xbd18b1e1	-0.037279014
11	0xbd6b650b	-0.05746941
12	0x3ce6a270	0.028153628
13	0x3d9753be	0.073890194
14	0xbdbb78ca	-0.09153898
15	0xbd370cbe	-0.044689886
16	0x3d6c2fb7	0.057662692
17	0x3cb9cace	0.022679713
18	0x3c1365bd	0.008996424
19	0x3d6a2386	0.057162784
20	0x3d144a74	0.036203817
21	0x3cb8a576	0.022539835
22	0xbdb7fba4	-0.089835435
23	0xbd85e7ea	-0.06538375
24	0x3ccc73de	0.024957594
25	0x3d71384a	0.058891572
26	0x3d64d3dd	0.05586611
27	0xbda32eca	-0.07967909
28	0x3c9a84e9	0.018862205
29	0x3b9b012b	0.004730364
30	0xbd9d5142	-0.07681514
31	0x3d35665c	0.04428707
32	0xbb3c2fde	-0.0028715055
33	0x3dae3637	0.085064344
34	0xbd5793f6	-0.05263134
35	0x3d3b0ba7	0.04566541
36	0xbc4a2529	-0.012337961
37	0xbdacd202	-0.08438493
38	0x3dba9bd1	0.09111751
39	0x3cb7efb9	0.022453176
40	0x3c46e26d	0.012138945
41	0x3c43bd53	0.011946994
42	0x3d0481eb	0.032350462
43	0xbcc5da8f	-0.024152068
44	0xbc52461c	-0.012834098
45	0xbd8f7434	-0.07004586
46	0x3d9467c1	0.07246352
47	0x3cfe0443	0.031007892
48	0xbd4259f3	-0.047449064
49	0xbd9902c1	-0.074712284
50	0x3d0b335f	0.03398454
51	0x3d921f03	0.07134821
52	0xbd82bd97	-0.06383818
53	0x3d5c637d	0.053805817
54	0x3d1bf3d4	0.03807433
55	0xbc9c8235	-0.019105056
56	0x3d3bcc30	0.045849025
57	0x3a9e34d6	0.001207019
58	0xbd09b2a2	-0.033617623
59	0xbd2178ae	-0.03942173
60	0x3d9b6205	0.07587055
61	0x3d225069	0.039627466
62	0x3bbcbad9	0.0057595787
63	0xbd457d5e	-0.048215263
64	0xbcfee3ef	-0.031114547
65	0x3d184249	0.03717259
66	0x3d3ae3fa	0.04562757
67	0xbcd0f600	-0.025507927
68	0xbcc9e92d	-0.02464732
69	0xbcddc492	-0.027071271
70	0xbcee5762	-0.029094402
71	0xb8a5e205	-7.9099125e-05
72	0xbc4e853c	-0.012605008
73	0x3cfd3583	0.030909305
74	0x3d41bb80	0.047297955
75	0xbbde4435	-0.0067830333
76	0xbcfff0d3	-0.031242764
77	0x3d68d997	0.056848135
78	0x3d78ece4	0.06077279
79	0xbd855d02	-0.065118805
80	0x3d8461b8	0.06463951
81	0x3caa0587	0.020754589
82	0xbd71abf3	-0.059001874
83	0xbc9319ee	-0.0179567
84	0xbd160611	-0.03662688
85	0xbd820acc	-0.063497156
86	0x3ba2f2da	0.004972798
87	0xbd6075ee	-0.054799967
88	0xbd210287	-0.03930905
89	0xbcfa4765	-0.030551622
90	0x3d8361a1	0.064151056
91	0xbd97ab0a	-0.0740567
92	0x3d9af9e2	0.075671926
93	0xbcd9e46a	-0.026598174
94	0x3cf8d10f	0.030373124
95	0xbdb82d97	-0.089930706
96	0x3d7190cf	0.05897599
97	0xbb174f6d	-0.0023088113
98	0x3c3ada70	0.011404619
99	0xbd3ad992	-0.045617647
100	0x3d02fad0	0.031977475
101	0xbd507cb1	-0.050900165
102	0x3cd88e84	0.026435144
103	0xbd988fd6	-0.074493095
104	0xbd829630	-0.06376302
105	0x3d4ac461	0.049503688
106	0xbcbf5e14	-0.02336029
107	0xbcb3a5e6	-0.021929692
108	0x3ad77ae7	0.0016439826
109	0xbd4e071b	-0.050299745
110	0x3d71a496	0.058994852
111	0xbb2494be	-0.0025113071
112	0xbd6c8b22	-0.057749875
113	0xbdaf1de6	-0.085506245
114	0x3aea936e	0.0017896721
115	0x3c5860b2	0.013206648
116	0x3d45d964	0.048303023
117	0xbd890bc3	-0.066916965
118	0xbc6942c1	-0.014237107
119	0xbd7dedf1	-0.061994497
120	0x3d9fe377	0.07807057
121	0xbd20fd56	-0.0393041
122	0x3da8fcb2	0.08251323
123	0xbd6c1a72	-0.057642408
124	0x38a6a214	7.945686e-05
125	0x3d29ff15	0.04150303
126	0xbbe98e38	-0.0071275495
127	0x3d98fc22	0.074699655

fc3.weight f4 [128, 128]
0	0xbdac254f	-0.084055535
1	0x3dc021dc	0.09381458
2	0xbd2250fe	-0.03962802
3	0x3d12b6cb	0.035818856
4	0xbda83915	-0.082140125
5	0xbc869bca	-0.016431708
6	0xbd4d905a	-0.050186493
7	0xbdaa6ad0	-0.08321154
8	0xbd81b6d6	-0.06333701
9	0x3d1e2e26	0.03861823
10	0x3d6c2d93	0.05766065
11	0x3d2505f1	0.04028887
12	0x3d91299e	0.07088016
13	0x3c4989ad	0.012300891
14	0x3d3bed56	0.045880638
15	0xbd5045a1	-0.050847653
16	0x3cd6cabc	0.026219718
17	0x3d61f406	0.05516436
18	0x3daeecc1	0.08541251
19	0x3cb90a28	0.02258785
20	0xbd14ae98	-0.036299318
21	0xbc055a01	-0.008139134
22	0x3d932fa9	0.07186825
23	0xbd41c80e	-0.047309928
24	0x3cbd844c	0.023134373
25	0x3cbf0448	0.023317471
26	0x3d951d1c	0.07280943
27	0x3d9e21f6	0.07721321
28	0x3d293c80	0.041317463
29	0x3d5ed17c	0.054399
30	0xbc94e882	-0.018177275
31	0x3d9de523	0.0770972
32	0xbc614b69	-0.013750889
33	0x3d78352b	0.06059758
34	0x3cc713e5	0.024301479
35	0x3cd0e8d5	0.025501648
36	0xbd7d369a	-0.06181965
37	0x3d023810	0.031791747
38	0x3c460e30	0.0120883435
39	0xbd250f86	-0.040298007
40	0xbcbdea10	-0.023182899
41	0xbd93ac10	-0.07210553
42	0x3d2897cc	0.04116039
43	0xbd4c49cc	-0.049875066
44	0xbcf5ca46	-0.030003678
45	0x3c8ba382	0.01704574
46	0xbab18cfe	-0.0013546047
47	0xbd00803d	-0.031372298
48	0x3d76a4bd	0.0602157
49	0xbc0ce719	-0.00860002
50	0x3daaa95b	0.08333083
51	0xbd9cc3c8	-0.0765453
52	0x3d12fdbc	0.03588651
53	0x3cd2d9cb	0.025738617
54	0x3c431c92	0.011908667
55	0xbbcdad18	-0.006276738
56	0xbd9c6185	-0.07635788
57	0x3bb77ec2	0.0055998275
58	0x3d7313ec	0.05934517
59	0xbd802b38	-0.06258243
60	0xbd71b130	-0.05900687
61	0xbd9c1b43	-0.07622387
62	0xbd0c9654	-0.03432305
63	0x3d2477f0	0.040153444
64	0x3d14e819	0.036354158
65	0x3dadb70c	0.08482179
66	0xbdaebe23	-0.085323595
67	0xbd838eb1	-0.064237006
68	0xbd9ead46	-0.07747893
69	0x3c446546	0.011987036
70	0xbd3a0aa4	-0.045420304
71	0xbb7b4fdb	-0.0038347158
72	0xbc755884	-0.014974717
73	0xbd9d5bc5	-0.07683519
74	0xbda7b519	-0.081888385
75	0xbd407cce	-0.046994023
76	0xbd3dda4d	-0.046350766
77	0xbdae2165	-0.08502463
78	0xbcb3594b	-0.021893164
79	0x3c8982eb	0.01678606
80	0x3da04278	0.07825178
81	0xbd90c380	-0.07068539
82	0xbd76dcb0	-0.060269058
83	0xbc8a40ea	-0.016876657
84	0x3d91154f	0.070841424
85	0x3d26274e	0.040564828
86	0x3d5bf903	0.053704273
87	0xbd1a701d	-0.037704576
88	0xbc875d80	-0.016524076
89	0xbd5ff19f	-0.054673787
90	0x3d6e8b05	0.058238048
91	0x3d921767	0.0713337
92	0x3cdaafe1	0.026695194
93	0xbdbcc10c	-0.09216508
94	0x3d845536	0.06461565
95	0xbc9fe25b	-0.019517114
96	0xb888be90	-6.5204804e-05
97	0x3d1aa3e0	0.03775394
98	0x3d816bd5	0.063193955
99	0x3d75ae7d	0.059980858
100	0xbb1d0705	-0.0023960483
101	0x3d29bf37	0.041442122
102	0xbc7d46ef	-0.015458806
103	0xbc094411	-0.008378045
104	0x3d4b1d37	0.04958841
105	0xbdb2a591	-0.087229855
106	0x3ca5e728	0.020251825
107	0x3da0d5ac	0.07853255
108	0x3da00d33	0.078150176
109	0x3c322cc5	0.010874932
110	0x3d7a25d0	0.061071217
111	0xbd0d5aa9	-0.03451029
112	0xbc807fb1	-0.015685888
113	0xbc2cc186	-0.010544186
114	0xbd0629e8	-0.03275481
115	0xbdaa62ef	-0.08319651
116	0x3d2888f3	0.04114623
117	0x3d9f3109	0.077730246
118	0x3d3cafb0	0.046065986
119	0xbd9d0e98	-0.07668799
120	0xbd252cb3	-0.04032583
121	0xbc8bccd0	-0.017065436
122	0xbda90c82	-0.08254339
123	0x3c31acd6	0.01084443
124	0xbcfca79e	-0.030841645
125	0xbdb27876	-0.08714382
126	0xbc8d7f35	-0.017272571
127	0xbc4facb2	-0.012675451
128	0xbd7d2035	-0.061798293
129	0x3c29401c	0.010330226
130	0xbbee8e0f	-0.0072801183
131	0x3d5f0f61	0.054458026
132	0xbb7a60be	-0.0038204635
133	0x3c6d6b81	0.014490963
134	0x3d8f6d63	0.07003286
135	0x3cd7c246	0.026337754
136	0xbd254b88	-0.040355235
137	0x3d974b45	0.073874034
138	0xbda9000e	-0.082519636
139	0x3cad8e0d	0.0211859
140	0xbc95260a	-0.018206615
141	0xbd1906cc	-0.037359998
142	0x3ba2cf8f	0.0049685906
143	0xbd8fba36	-0.07017939
144	0xbd79ae73	-0.060957383
145	0x3d1c3ee8	0.03814593
146	0x3d442db4	0.04789515
147	0x3d601a6b	0.054712694
148	0xbd37ed96	-0.044904314
149	0x3d7981fb	0.060914975
150	0xbd54d8b8	-0.05196449
151	0xbd8666f6	-0.06562607
152	0xbc3e90d0	-0.011631206
153	0x3beb4642	0.0071800062
154	0xbda22684	-0.079175025
155	0x3d586656	0.05283197
156	0xbd93c935	-0.072161116
157	0xbccb6985	-0.02483059
158	0xbdb752e2	-0.089513555
159	0x3c8e089e	0.017338093
160	0xbdc0dd05	-0.09417156
161	0x3d95ff67	0.07324105
162	0x3da89d28	0.082331
163	0x3c884661	0.016635122
164	0x3d903b0e	0.07042514
165	0x3ce5959f	0.028025446
166	0xbd1df161	-0.038560275
167	0x3d6d213b	0.05789302
168	0xbdc52f94	-0.096282154
169	0xbc695d78	-0.014243476
170	0x3be335ab	0.006933888
171	0x3c688e72	0.014194118
172	0x3da46d21	0.08028627
173	0x3d0ab66c	0.033865377
174	0xbd9c0a89	-0.07619197
175	0xbd0a64d4	-0.033787563
176	0x3c89b490	0.016809732
177	0x3d1155a4	0.035482064
178	0x3d66a8f8	0.056313485
179	0xbcd34432	-0.025789354
180	0xbd42e28f	-0.047579344
181	0xbccb75ae	-0.024836387
182	0x3d892a54	0.066975266
183	0xbccc6df0	-0.024954766
184	0xbdbb58c8	-0.09147793
185	0xbd9fa773	-0.0779561
186	0xbd9e38d9	-0.077256866
187	0xbd68accf	-0.056805428
188	0xbcc4a6a7	-0.024005247
189	0xbce83aa0	-0.028348267
190	0x3d8dcf74	0.06924334
191	0x3c979283	0.01850248
192	0xbce3bf56	-0.027801197
193	0xbd556917	-0.052102175
194	0xbd80ce63	-0.06289365
195	0xbd3337d3	-0.04375441
196	0x3d85b0f3	0.06527891
197	0xbd3d872e	-0.046271496
198	0xbd0a548d	-0.03377204
199	0x3da9748a	0.08274181
200	0x3d1b4eab	0.03791682
201	0x3d3f89f1	0.04676241
202	0xbc6698f7	-0.014074556
203	0x3a9f90b8	0.0012173867
204	0xbcaa2627	-0.020770146
205	0x3be074aa	0.006849845
206	0xbd321925	-0.04348101
207	0x3ba57a7c	0.0050500017
208	0x3cee1484	0.029062517
209	0x3d70ab6c	0.05875723
210	0xbd278e21	-0.04090703
211	0xbca052d1	-0.01957074
212	0xbd4348b7	-0.04767677
213	0x3cb986c4	0.02264727
214	0xbd4aa280	-0.04947138
215	0xbd53c198	-0.051698297
216	0xbd986ceb	-0.074426495
217	0x3d1fe255	0.039034206
218	0xbd789a4c	-0.060694024
219	0xbd5b56fa	-0.053549744
220	0x3d36ba5f	0.04461133
221	0x3d30a9fa	0.043130852
222	0x3d98837a	0.07446952
223	0xbd09d5a4	-0.03365101
224	0xbdb3fb9e	-0.087882265
225	0x3d408bbc	0.04700826
226	0xbd186a09	-0.037210498
227	0xbdbf6209	-0.093448706
228	0xbd2ccc85	-0.042187233
229	0xbd2205b4	-0.03955622
230	0x3d7012c1	0.058611635
231	0x3d691b2c	0.05691068
232	0xbd65882e	-0.056038074
233	0xbd98ab42	-0.0745454
234	0xbd8bb544	-0.06821683
235	0x3d8f836d	0.07007489
236	0xbd56dac4	-0.052454725
237	0x3c8bdf51	0.017074259
238	0x3d0d7d02	0.034543045
239	0xbba50382	-0.0050358186
240	0x3d61f8d0	0.055168927
241	0x3cacc6aa	0.021090824
242	0xbd5a3327	-0.05327144
243	0xbd9ab675	-0.07554332
244	0x3d2f8dd7	0.04285988
245	0xbda22dd9	-0.07918901
246	0x3d8b5b63	0.0680454
247	0x3c5f927e	0.013645766
248	0x3d1d33e8	0.03837958
249	0x3d17a21d	0.037019838
250	0xbcd99731	-0.026561351
251	0xbdaf4a86	-0.08559136
252	0x3c2d42ba	0.010574991
253	0xbdac85fb	-0.08423992
254	0xbd13e23b	-0.036104422
255	0xbb2bff63	-0.0026244752

fc3.bias f4 [128]
0	0x3d41566b	0.047201555
1	0xbc9fde5f	-0.019515214
2	0x3d9eec4a	0.07759912
3	0xbda702ed	-0.08154855
4	0x3d94a6ec	0.072584
5	0x3bbd56df	0.005778178
6	0x3bd6b4f1	0.0065523316
7	0xbd7be6e0	-0.061499476
8	0x3c61b6f6	0.013776531
9	0x3d7cda48	0.061731607
10	0xbd1fbcc0	-0.038998365
11	0xbc9a61d2	-0.018845472
12	0xbd4c3868	-0.04985848
13	0x3bb0723d	0.005384712
14	0x3d038184	0.032105938
15	0xbd98e4d6	-0.07465522
16	0xbd80a7c6	-0.06282
17	0x3da69a79	0.08134932
18	0xbabee603	-0.0014564398
19	0xbdbc199a	-0.091845706
20	0xbd9fd24b	-0.07803782
21	0xbc28137a	-0.01025855
22	0xbd91bb18	-0.071157634
23	0xbdc9eea1	-0.09859968
24	0x3d7b7c4a	0.06139783
25	0xbd5ea94b	-0.05436067
26	0xbd84f962	-0.064928785
27	0xbc379429	-0.011204758
28	0xbd3acea8	-0.04560724
29	0xbceab9b4	-0.028653003
30	0xbd63624a	-0.055513658
31	0xbda24d4a	-0.07924898
32	0xbc6b71f8	-0.014370434
33	0xbce59700	-0.028026104
34	0x3c9cb1dc	0.019127779
35	0xbc29491e	-0.010332374
36	0xbd9f0a1d	-0.07765601
37	0xbd9b0cff	-0.07570838
38	0xbc741654	-0.014897902
39	0x3cd68a0b	0.02618887
40	0x3d6088fb	0.054818135
41	0xbd8ff9fd	-0.07030103
42	0x3d970b4f	0.07375204
43	0x3c3d1273	0.011540043
44	0xbd186e51	-0.03721458
45	0x3c9b323e	0.018944856
46	0xbd9ff45f	-0.07810282
47	0x3cf452ff	0.029824732
48	0xbbb0e6af	-0.0053985934
49	0x3ca8f3ee	0.020624127
50	0x3dc5b330	0.09653318
51	0x3d8bab7d	0.06819818
52	0x3d85ac4d	0.065270044
53	0xbcc65110	-0.024208575
54	0x3d74daf8	0.059779137
55	0x3d45c980	0.04828787
56	0xbcd13d51	-0.025541933
57	0x3c93d582	0.018046144
58	0x3d8eb68a	0.0696841
59	0xbca7058d	-0.020388389
60	0xbd8190ef	-0.06326472
61	0x3b4dc720	0.0031399205
62	0x3cf8f521	0.030390324
63	0x3d39bf82	0.04534865
64	0xbd182283	-0.037142288
65	0x3c8b8ea3	0.017035788
66	0xbd829a98	-0.06377143
67	0xbc6450e7	-0.013935304
68	0x3cd5db38	0.026105508
69	0x3d20e2ae	0.03927868
70	0xbc1f5683	-0.009725216
71	0xbdbf6cd2	-0.09346928
72	0x3a3a83f5	0.0007115
73	0x3d3da252	0.04629738
74	0xbd2030c7	-0.039109018
75	0xbd07fea3	-0.033201825
76	0x3ca9b85a	0.020717788
77	0x3d11f89b	0.03563748
78	0x3d9802b5	0.07422391
79	0x3d709e92	0.058744974
80	0xbd283ef5	-0.041075666
81	0x3c151e7b	0.009101505
82	0xbc71638e	-0.014733208
83	0xbd538698	-0.05164203
84	0xbd3e7051	-0.046493832
85	0xbcff9ede	-0.031203683
86	0x3d824ea8	0.06362659
87	0x3ba5fcab	0.0050655208
88	0xbbd859fc	-0.006602524
89	0xbb9a3328	-0.0047058053
90	0x3db9bd85	0.09069351
91	0xbd2caf15	-0.04215916
92	0x3c7f3446	0.015576428
93	0xbbebc5e9	-0.0071952236
94	0x3d77f8f9	0.060540173
95	0x3d98dc2c	0.074638695
96	0xbd52b009	-0.05143741
97	0x3ca60875	0.020267705
98	0x3d6e55cc	0.05818729
99	0x3d68718f	0.056748923
100	0xbd575e5e	-0.05258023
101	0xbdad59a0	-0.0846436
102	0xbd840b03	-0.06447413
103	0x3ced3df9	0.028960215
104	0x3d558311	0.052126948
105	0x3d5456e5	0.05184068
106	0x3c104a09	0.008806714
107	0xbd2615f3	-0.040548276
108	0x3c8a7832	0.016903017
109	0x3c2b68bb	0.010461981
110	0xbcc597ff	-0.024120329
111	0x3d0d65aa	0.034520783
112	0xbcc6809a	-0.024231244
113	0x3d8751ac	0.066073745
114	0x3d0716c9	0.032980714
115	0x3a8af6c0	0.0010602102
116	0xbd3b7256	-0.045763336
117	0x3d398607	0.045293834
118	0xbd6bcaab	-0.057566326
119	0x3d29d2ae	0.041460685
120	0xbd3a3d74	-0.045468763
121	0x3d8fb465	0.070168294
122	0x3d97e604	0.07416919
123	0xbd2c9d16	-0.042141996
124	0xbdc7163d	-0.097210385
125	0x3d96aca5	0.07357148
126	0x3da3735b	0.07980987
127	0xbd655542	-0.05598951
