ppo_training_results/policy_Transformer_net.pth (torch, 752459 bytes, 22 tensors)

transformer_blocks.0.attention.in_proj_weight f4 [12, 4]
000000 72 68 82 3e fd 6e 38 be 33 61 68 3e f3 74 97 bd
       0.2547031 -0.18011089 0.22693329 -0.07395353
000010 74 d2 41 3e c6 65 b0 3d aa a1 fd be a2 6e 91 bc
       0.18927938 0.08613162 -0.49537402 -0.01775295
000020 7a 65 c7 be b5 90 dc 3e 1f 1a 80 3e 9a 3f 6b 3e
       -0.38944608 0.43079153 0.2501993 0.22973481
000030 95 03 99 be a0 ec 31 3e bc 06 0c 3f 83 68 bd be
       -0.29885545 0.17375422 0.54697776 -0.369938
000040 0e 6c 85 3b ed 91 09 3f fc a2 6d be e1 4e 1c 3f
       0.004071719 0.5373829 -0.23206705 0.6105786
000050 75 84 b2 be b0 e4 e0 3e 15 cd 17 bf 70 d2 78 be
       -0.34866682 0.43924475 -0.59297305 -0.24299026
000060 bc 5f 4e bc 01 ec 74 be c6 ab a1 3e 4b f6 df 3e
       -0.012596067 -0.23918153 0.31576365 0.43742594
000070 0d c9 e9 3e 1a 45 10 be 02 2e 1e 3f aa 8b 9d 3d
       0.45661202 -0.1408886 0.6178895 0.076926544
000080 94 c3 0b 3f d7 7b 1c be 7c d9 a8 3e bd 87 e6 3e
       0.54595304 -0.15281616 0.32978427 0.45025435
000090 db 01 04 3f 95 10 07 3f ec 36 b7 bc cd f1 0e 3f
       0.5156533 0.5275968 -0.022365056 0.5583771
0000a0 92 10 3f be 07 ba 1c 3f 2e fe f2 be 87 c8 50 bd
       -0.18658665 0.61221355 -0.4745955 -0.050972488
0000b0 d5 ce 9b 3b f3 1a 17 bd 5c f4 c7 3e da 21 c2 3e
       0.004754881 -0.036890935 0.3905362 0.37916452

transformer_blocks.0.attention.in_proj_bias f4 [12]
000000 a2 24 14 bc 24 e9 fb bb 62 cb db bb e5 99 83 bb
       -0.009041937 -0.0076877046 -0.0067075947 -0.0040161484
000010 f0 6a b3 39 1c dd 15 b9 19 8e fb 39 5b df 01 3a
       0.00034221215 -0.00014292117 0.00047980322 0.0004954242
000020 96 49 d4 3b 6e 2e e0 bb 6f c7 85 3c 1d 49 91 3c
       0.0064784987 -0.0068414724 0.016330449 0.017735058

transformer_blocks.0.attention.out_proj.weight f4 [4, 4]
000000 f2 d1 98 be 12 a2 44 3e ef b8 dc be 61 ef d3 3d
       -0.29847676 0.1920245 -0.43109843 0.10348392
000010 ef 83 ce 3d f7 8a 9f be 39 5b df bb 29 85 44 3d
       0.10083758 -0.3116071 -0.0068162945 0.047978554
000020 83 63 15 be 2a 20 d8 3e e5 aa 30 be f1 06 b2 be
       -0.14588742 0.4221204 -0.17252691 -0.3477092
000030 4e b9 3f 3d 79 82 9a 3e 33 bc e9 3e 38 56 ae 3e
       0.04680758 0.30177668 0.45651397 0.34050155

transformer_blocks.0.attention.out_proj.bias f4 [4]
000000 6c 83 cb bb 66 05 72 3a bd be 30 bc 54 d0 58 3c
       -0.006210735 0.0009232372 -0.010787663 0.013233263

transformer_blocks.0.feed_forward.0.weight f4 [128, 4]
000000 66 8b fa be 54 c9 a2 3c 99 6a 02 3f 6d 8a b0 3e
       -0.48934478 0.019871391 0.50943905 0.3448061
000010 c6 64 77 be 43 42 8f be 68 51 83 3e e4 0f b2 be
       -0.24159536 -0.2798024 0.25648046 -0.3477775
000020 f4 f2 95 be 3f 5d d7 be 41 45 5c be 6f ad 52 3e
       -0.2928692 -0.4206333 -0.21510793 0.20573972
000030 bb fa 83 be 0e 50 ab 3d 66 20 dd 3e a6 4b 35 3e
       -0.2577723 0.083648786 0.4318878 0.17704639
000040 35 4c 54 3e 66 c8 f5 3e e3 1a 9b bd 32 1e d4 3e
       0.20732196 0.48004454 -0.075734876 0.41429287
000050 ea 67 a0 be e0 c5 80 3d 41 d9 d9 bd cb ab de be
       -0.3132928 0.06287742 -0.10637141 -0.43490443
000060 20 cf a5 be 79 fd 0b 3e be f7 dd bd a0 cf 39 3e
       -0.32384586 0.13670911 -0.10838269 0.18145609
000070 ce d7 25 be 2f 7c 82 be f9 71 ad 3e b2 b2 93 be
       -0.16195604 -0.2548537 0.33876017 -0.2884727
000080 a6 cb f1 bd dd b4 e6 be 61 81 73 3e 43 c1 97 be
       -0.11806421 -0.45059863 0.23779823 -0.29639634
000090 9f 14 a9 3e 06 a0 13 3e b5 e7 f7 be c2 2a 9f 3d
       0.33023545 0.14416513 -0.48418966 0.07771827
0000a0 78 fb cc 3c 47 ce ed 3c fa e3 df bd 60 c1 93 bd
       0.025022253 0.029029025 -0.10932155 -0.07214618
0000b0 4e 2f 9d 3e 17 de 32 3d 99 94 ba 3e 5b 84 d9 3e
       0.30700153 0.043668833 0.36441496 0.42483792
0000c0 f5 ff d3 be 86 05 e1 3e dc 51 c9 bd 69 60 83 3d
       -0.41406217 0.43949527 -0.098300666 0.06414873
0000d0 eb 98 e8 3e 09 ac c6 3d d3 eb d0 3b c7 ab 47 be
       0.45429167 0.09700782 0.0063757687 -0.19499122
0000e0 40 60 cc be cf 0c b9 3e 57 b7 2c 3e 2e 43 f4 3e
       -0.39917183 0.36142585 0.16866814 0.47707504
0000f0 c7 22 28 3e fc 57 a9 3e 55 6c ec 3d be 29 37 3e
       0.16419517 0.3307494 0.115441 0.17887017
000100 0e 3e c4 bc 5d c1 d1 bd 78 4c b6 3d c4 dc e6 3e
       -0.023955371 -0.10241959 0.08901304 0.45090306
000110 c1 81 da bd d9 fc 18 3e 4e 86 49 be 62 35 24 bc
       -0.1066928 0.14940204 -0.1968014 -0.010022493
000120 d5 c7 e7 3e fd ed 76 3e 96 b6 b4 3e 53 9c bb be
       0.45269647 0.24114223 0.35295552 -0.36642703
000130 4a d7 cf 3d 68 4f a1 3e 0e 22 ad 3e f2 93 d7 be
       0.10148485 0.31505895 0.33815044 -0.4210506
000140 ea 69 c3 be 02 94 63 bd 2f 2e 6f be c0 48 cb bd
       -0.38166744 -0.055561073 -0.23357461 -0.09925985
000150 a5 25 e1 be b1 3f d7 be 74 40 ce 3e 08 49 cb 3d
       -0.43974033 -0.4204078 0.4028355 0.09926039
000160 e1 f5 93 bd 02 4e d9 be b5 c9 ee 3e d8 6f f4 3e
       -0.07224632 -0.42442328 0.46638265 0.4774158
000170 88 32 80 3e e2 94 fc 3e d9 85 ce be ab 9e ab be
       0.25038552 0.4933234 -0.40336493 -0.33519492
000180 5f a8 b8 bd 74 c7 85 3e a4 ac f6 be 8c a8 c9 3d
       -0.09016489 0.26128733 -0.4817859 0.09846601
000190 37 fa 49 be 82 d0 01 3f e9 78 e9 3e d4 95 ed 3d
       -0.19724356 0.5070878 0.4560006 0.11600843
0001a0 d5 fb 63 bd bf 75 9c 3e 0b 3a 00 3d 55 c6 b3 be
       -0.055660088 0.30558583 0.031305354 -0.35112253
0001b0 53 eb b1 be ca 5d d9 3e 1f c0 c6 be 28 1e 03 bf
       -0.3474985 0.42454368 -0.38818452 -0.5121789
0001c0 a8 42 82 3e 49 28 bc be 70 8f df be 74 c2 78 3e
       0.2544148 -0.36749485 -0.43664122 0.24292928
0001d0 7c 72 75 3e c8 f2 09 3e 20 55 0c 3e 30 6f 83 3d
       0.23969454 0.1347152 0.13704348 0.06417692
0001e0 d5 f3 b4 be b1 44 da bd 67 ad 82 3e 01 ce f6 be
       -0.3534228 -0.10657633 0.2552292 -0.48204044
0001f0 15 9f 01 bf 08 bf 47 3e 20 19 b6 3d a7 5c 2f 3e
       -0.50633365 0.19506466 0.08891511 0.17125188
000200 e5 8d 7c 3e de 94 ec 3e eb 37 a8 3b 1f 60 c9 be
       0.24663503 0.46207327 0.005133619 -0.39331147
000210 dc 06 1c be 81 62 04 be 6c 89 5f 3e fd 41 80 3e
       -0.15236992 -0.12928201 0.21829766 0.25050345
000220 86 6d 0b 3e fb 59 98 3d 82 4f c5 3e 78 49 0f be
       0.13615999 0.074390374 0.38537222 -0.1399287
000230 30 ec d2 3e 31 7f d7 bd 68 e2 e4 3e 8e 39 79 3e
       0.41195822 -0.10522307 0.44703984 0.24338362
000240 85 3a 00 bf 08 9f 01 bf e5 5d f6 3e d0 12 c1 be
       -0.50089294 -0.5063329 0.4811851 -0.37709665
000250 78 35 f2 be 78 8c d1 be 66 7e d8 bc 63 33 81 3e
       -0.47306418 -0.40927482 -0.026427459 0.25234517
000260 f1 70 86 be 8a ba ed 3e 0d 07 c3 bd 70 93 b0 be
       -0.26258042 0.4643138 -0.09522829 -0.34487486
000270 50 ea db bd c3 b1 8a 3d 60 94 a7 be f4 67 c0 3e
       -0.10738051 0.067721866 -0.3273039 0.3757931
000280 6e df f2 be e5 68 64 3e 19 ac e1 be c6 e1 8f 3e
       -0.47436088 0.22305639 -0.44076613 0.2810194
000290 8f 6d c9 3e 49 c4 bd be 45 e8 a4 3e 69 96 56 bb
       0.393414 -0.37063816 0.32208458 -0.003274346
0002a0 01 63 92 3e 2f fc 8b be 58 ed 4f 3e 6e cd f4 bd
       0.2859116 -0.27340838 0.20305383 -0.11953245
0002b0 c5 d8 f5 be 5c 97 00 be c1 26 3f 3e d2 f7 db 3d
       -0.48016945 -0.12557739 0.18667127 0.10740627
0002c0 b0 dc 80 bd 87 fd ea 3e 92 e4 9f 3d b9 d7 8d 3e
       -0.06292093 0.4589655 0.07807268 0.27703646
0002d0 92 f9 48 3d 53 8f d7 be 58 27 8a 3e 62 74 86 3d
       0.049066134 -0.42101535 0.26983142 0.06565167
0002e0 7b bf b1 3d 19 14 8f bd 45 16 97 3e 0a bc f7 be
       0.086791 -0.06986255 0.29509178 -0.4838565
0002f0 f7 84 e1 3e ab 5b b6 3e df d1 9a 3e ad 31 03 bf
       0.44046757 0.35616812 0.30238244 -0.51247674
000300 b6 6a e1 be 94 0d 5e be fb 83 9e be 59 7c 6e 3e
       -0.44026726 -0.21684867 -0.30960068 0.23289622
000310 de 16 e3 3e da 33 03 bf 80 40 dd be 2e 4a ac 3e
       0.44353384 -0.51250994 -0.43213272 0.33650345
000320 7f 73 3d 3e c2 d0 24 3e e4 87 90 3d e0 c8 ef 3e
       0.1850109 0.1609526 0.07057169 0.46832943
000330 75 3c 96 be 12 20 b0 3d 48 87 be 3e 4c 91 a8 3e
       -0.29343 0.08599867 0.37212586 0.32923353
000340 f8 41 63 be 6d c3 14 3e 46 67 9e be 71 28 20 be
       -0.22193134 0.14527674 -0.30938166 -0.15640427
000350 f0 55 bf 3e 0b 6b b1 bd d2 55 99 3e f0 36 8a 3d
       0.37370253 -0.08662995 0.29948288 0.0674876
000360 e4 c5 8f be 08 b7 43 bd ab fa e7 be 2f b8 9a 3e
       -0.28080666 -0.047781974 -0.45308432 0.30218646
000370 f1 aa 51 be 86 c4 7d 3e f5 c7 94 3d 16 ef ce bb
       -0.20475365 0.24781999 0.07264701 -0.0063151224
000380 60 c1 af be bb 10 ee be d9 92 e1 be 45 99 a9 3e
       -0.3432722 -0.4649714 -0.44057348 0.33124748
000390 89 e1 05 3e 84 c0 9b be 79 87 38 be b8 2f e2 3e
       0.13074316 -0.30420315 -0.18020429 0.44177032
0003a0 db 38 d0 be c3 ff 89 3e e7 e8 bb be b9 36 3e be
       -0.40668377 0.26952943 -0.36701128 -0.18575563
0003b0 90 e5 19 3e 38 1d 76 3e e0 29 1b 3d 68 3c 87 3d
       0.15028977 0.24034584 0.037881732 0.066033185
0003c0 16 05 3d be b5 0c 88 3e 15 bf b6 be da 69 b2 3e
       -0.18458971 0.26572195 -0.3569266 0.34846383
0003d0 d8 59 2e be 2e d3 60 3e ed 18 31 3e 96 be 14 3e
       -0.1702646 0.21955559 0.17294665 0.14525828
0003e0 ab 59 40 be 63 fa e1 3d 60 c8 02 bd 35 7f 6d 3e
       -0.18784206 0.110340856 -0.031929374 0.23193057
0003f0 6e 85 a8 bd 4d 28 ef be b3 ee 11 bd 5e 03 60 be
       -0.08228575 -0.46710435 -0.035628032 -0.21876284

transformer_blocks.0.feed_forward.0.bias f4 [128]
000000 82 9b 87 be 64 2b 19 3e 6a db b8 be 85 19 77 be
       -0.2648583 0.14957958 -0.361049 -0.24130829
000010 5e 6c 8d 3e 6a be e8 3e 64 d7 b2 3e fa 52 5d 3e
       0.2762174 0.45457774 0.34929955 0.21613684
000020 ad 03 58 be df 05 68 be 09 7c 31 be 69 7b bd be
       -0.21095152 -0.2265849 -0.17332472 -0.37008217
000030 4b b7 90 bd b7 d6 57 3e 61 f4 ae bc 38 b6 3e be
       -0.0706621 0.21078001 -0.021356763 -0.18624198
000040 88 db 56 bd 83 eb ee be a5 80 4f be 5c c4 68 3d
       -0.052455455 -0.46664056 -0.20263918 0.056827888
000050 90 51 03 3f db b7 68 bd 5e 01 c9 3e 31 fd a9 be
       0.5129633 -0.056815963 0.39258856 -0.33200982
000060 12 5f be be 84 4c bf be 6f 25 b1 be 8a 7f 69 3c
       -0.37181908 -0.37363064 -0.34598872 0.014251599
000070 ab d6 08 be aa 84 bc be e5 72 d5 3e 21 89 de 3e
       -0.1336314 -0.36819965 0.4168922 0.43463996
000080 7f 98 c9 be d0 43 8e be 42 ce 53 3e 47 0a 2f bd
       -0.39374158 -0.27786112 0.2068415 -0.04273441
000090 46 74 de 3e ea 15 b7 be 46 e3 b4 be bc 82 f3 be
       0.43448085 -0.35758907 -0.35329646 -0.4756068
0000a0 ba a4 52 be 85 a4 37 3e 38 f0 2e be a0 da ec bd
       -0.2057065 0.17933853 -0.17083824 -0.11565137
0000b0 b7 15 6c be fd 63 93 bc 99 b8 5e bd 19 68 f1 be
       -0.23055159 -0.017992014 -0.054375265 -0.47149733
0000c0 74 f6 a4 3e 17 75 a8 be c7 71 45 be a2 fa 08 be
       0.3221928 -0.32901832 -0.19281684 -0.13376859
0000d0 f4 55 d6 bc 92 c3 b6 3d ee 0c bc 3e be c3 bc 3e
       -0.026164033 0.08924021 0.36728615 0.3686809
0000e0 8a 10 6a be 96 a2 7e be b4 e0 70 3e ac 1d f1 be
       -0.22857872 -0.24866709 0.23523217 -0.4709295
0000f0 a2 4d 0d be ff a6 25 3e 15 fb d6 3e b4 5e e7 be
       -0.13799146 0.16176985 0.41988435 -0.4518944
000100 41 90 ca be d9 ed f7 3e eb 2d 89 3e 36 ff e6 be
       -0.39563182 0.4842365 0.26792845 -0.45116585
000110 18 26 2c 3e d0 f8 7c be 9b 4c a5 bd 21 6b f8 be
       0.16811407 -0.2470429 -0.08071252 -0.48519233
000120 b9 26 8c be 46 80 64 3e a3 0e bd be 4d c2 b5 3e
       -0.27373293 0.22314557 -0.3692523 0.35499802
000130 65 d9 d1 3e 33 89 a9 3e 6a c0 4c 3e 89 46 9d bd
       0.4098617 0.33112487 0.19995275 -0.07679469
000140 f0 64 03 3f b0 82 f2 be 00 39 5e 3e a0 23 99 be
       0.51325893 -0.47365332 0.21701431 -0.29909992
000150 91 26 ed bb a3 ba 9a be 61 0a 93 3e 1b 5e 1d be
       -0.0072372635 -0.30220518 0.28718856 -0.1536793
000160 d0 94 f3 be c6 7a 9e bd 60 14 f6 be 75 6e c0 3e
       -0.47574472 -0.07738261 -0.4806242 0.37584272
000170 88 b3 f0 3e e5 b0 61 3e 92 fd df 3e c9 95 3f be
       0.4701197 0.22040136 0.43748146 -0.18709482
000180 22 e4 ea 3e bf 4c 35 3d 75 92 88 3e 8b 8a aa be
       0.45877177 0.044262644 0.26674238 -0.33308825
000190 6c 69 df be 07 3b ad 3e cc af 30 be cc 3e 3f bd
       -0.43635118 0.33834097 -0.17254561 -0.046690747
0001a0 3c 4d b8 bd 4b 27 e2 3d 24 7c c8 bd db 60 d9 be
       -0.08999106 0.11042651 -0.09789303 -0.42456707
0001b0 b5 36 93 3e 49 4d f2 3e d8 b6 77 be 6a b9 7d be
       0.28752676 0.4732459 -0.24190843 -0.24777761
0001c0 91 ab b6 3e 3f 91 8c be 9d 2f 4c be 6d f2 b8 be
       0.3567777 -0.27454564 -0.19940038 -0.36122456
0001d0 f8 d7 19 3e ea f8 f9 be bf 7a f1 be 66 0f 94 3e
       0.15023792 -0.4882272 -0.4716396 0.28917998
0001e0 79 f9 00 bf 4a 69 c0 bd 91 2b 65 bd 3f f4 52 be
       -0.50380665 -0.09395082 -0.05594975 -0.20600985
0001f0 a4 df 2b 3e 0a 0d 2d be 87 40 da 3d 7e 7e d6 3e
       0.16784531 -0.16899505 0.10656839 0.4189338

transformer_blocks.0.feed_forward.2.weight f4 [4, 128]
000000 ca a1 aa 3d b0 7d 99 bc ea 73 84 bd 56 76 29 3c
       0.0833164 -0.01873669 -0.06467421 0.010343155
000010 8e d2 83 3d 92 6d 91 bd ec 6f de 3c 01 15 4c 3c
       0.064366445 -0.07100977 0.027152978 0.01245618
000020 6f 5e 10 3c 90 1d 11 bd 3f 4c 88 3d 1f 45 7c ba
       0.008811577 -0.035428584 0.06655168 -0.0009623337
000030 74 57 8f 3d 09 3f 8f bc b0 a0 a7 3d fc 22 4b 3c
       0.06999102 -0.017486112 0.081849456 0.012398478
000040 16 38 46 3d 34 5b 8b 3c cc 84 c5 bc 8a 96 0e bd
       0.04839333 0.017011262 -0.024111174 -0.034811534
000050 6d 9c 18 bd 7c ce 01 bd 43 e0 6a bd f3 ec 72 bd
       -0.037258554 -0.03169106 -0.05734278 -0.059308004
000060 81 71 c2 bd 67 a6 04 3d 5b 28 7c 3d fc b8 2a bc
       -0.094943054 0.032385256 0.061561923 -0.01042008
000070 d8 7a b0 3d 6f 1b a5 bd 1d f1 ae bc 66 d6 a3 3d
       0.086171806 -0.08061873 -0.021355206 0.07999878
000080 55 e2 9b bd 14 0e b7 3d 24 49 af 3d b6 13 7c 3d
       -0.07611529 0.08938232 0.08558872 0.061542235
000090 76 8c 7f 3d f8 12 a1 bc e0 ff 4e bd e2 22 af bc
       0.062389813 -0.019662365 -0.05053699 -0.021378938
0000a0 b6 28 90 3d 26 49 1e 3d ce b2 bc 3d eb 59 b7 3d
       0.07039015 0.03864398 0.09213792 0.08952697
0000b0 02 7a 57 3c 5f 25 62 3d 03 fe 29 3d 7f b8 22 bc
       0.0131516475 0.05521142 0.04150201 -0.009931683
0000c0 c0 79 26 bd 56 fc 37 3d 8b 6e 95 bd f1 e6 85 bc
       -0.040643454 0.04491838 -0.07296475 -0.016345473
0000d0 00 21 4f 3c 9b 2a 4f 3d d4 97 ae 3d bf 0d bd bb
       0.012642145 0.05057774 0.08525053 -0.005769461
0000e0 fb 2a bb 3c ca 74 9e 3d 2c 17 5a 3d f4 e9 fb 3c
       0.022847643 0.077371195 0.053244755 0.030751206
0000f0 60 52 38 bd 57 6c ac bd 72 c6 11 3c 4c b2 29 3c
       -0.045000434 -0.08419102 0.008897411 0.010357451
000100 52 a7 58 3d 48 78 7d 3c 30 10 94 bd 62 8f b3 bc
       0.052893944 0.015470572 -0.0722965 -0.021918956
000110 d0 a6 37 bc ea d5 e9 bc 50 f3 5f 3d 9e 13 fb bb
       -0.011209205 -0.028544385 0.0546754 -0.0076622507
000120 d4 e9 e7 3c fb 1f 36 bd 26 41 aa bd a1 01 bc 3d
       0.02830974 -0.044464093 -0.08313207 0.09179998
000130 f9 51 5f 3d 78 55 25 bc 45 25 83 bb ba 36 ad bd
       0.054521535 -0.010091178 -0.0040022456 -0.08457704
000140 d7 fa 8b bc f0 30 9c 3c e5 74 80 bb 65 15 7a bc
       -0.017087383 0.019066304 -0.003920185 -0.01526389
000150 6a 2d 74 bd bc f1 34 3d 57 82 6c bc e3 d9 82 bd
       -0.059613623 0.04417585 -0.014435372 -0.06389215
000160 3c 54 df bc 67 ee af bd 64 99 92 3d 47 94 63 3d
       -0.027261846 -0.085903935 0.07158163 0.05556133
000170 b3 31 b6 bd bd 5e 98 bd 09 f6 3d bd 32 4a 04 3c
       -0.08896198 -0.07439945 -0.046377216 0.00807433
000180 7a e9 01 bd 9c 42 81 b9 68 56 13 bd 28 ed b4 bc
       -0.0317168 -0.00024654425 -0.035971075 -0.022085741
000190 d1 c3 24 bc d4 0f 46 3d cd 8b cb 3d 15 03 91 bd
       -0.010056452 0.04835494 0.09938774 -0.07080666
0001a0 d4 a1 c8 3c fd 74 8f 3d 75 5a d7 bc 96 5c d4 bb
       0.024491228 0.070047356 -0.02628825 -0.0064807637
0001b0 8b 82 1a bd 84 5c 92 bc 57 4d 73 3c d0 08 78 bd
       -0.03772215 -0.01786638 0.014849982 -0.06055528
0001c0 70 3d bc 3d 2e 8c 6d bd 96 cd 4b bd b4 af 29 bd
       0.09191406 -0.057995014 -0.04975661 -0.04142733
0001d0 a5 0a a8 bb e6 06 2f 3d 8c f7 86 bb 4d e3 0e bd
       -0.005128222 0.04273119 -0.0041188654 -0.03488474
0001e0 42 3a 4e 3d 3c 7b 5e 3d df 2a 62 3d d0 62 83 3c
       0.050348528 0.054316744 0.055216666 0.016038328
0001f0 56 59 8b bd c4 5b 1d bd b9 ea 95 3d ec e4 56 bc
       -0.06804149 -0.038417593 0.073201604 -0.013116103
000200 09 d0 43 3c ff 9e 23 3c de e2 c9 3d 35 1d 0f bd
       0.011951455 0.009986638 0.098577246 -0.034939963
000210 a4 52 80 3d ba fb c1 3c b6 51 ed b9 91 7f a5 3d
       0.062657624 0.023679603 -0.00045265042 0.08080972
000220 51 e1 9b 3d b1 0d 57 3d 7d 51 82 3d 17 89 07 3d
       0.07611335 0.05250329 0.06363199 0.033089723
000230 dc 1f a4 3c 1b 1f 6f 3c f6 d7 43 bd 50 f1 68 bd
       0.020034723 0.014594818 -0.04781338 -0.05687076
000240 53 4e c8 3c 09 81 f8 3b 1c 57 95 3c 81 b1 77 3a
       0.02445141 0.0075837416 0.018230014 0.00094487524
000250 8d 8d a5 bc 60 13 0c bc 57 0a 85 bc 09 db d9 3c
       -0.020209098 -0.008549541 -0.016240282 0.026593702
000260 37 e4 3e bd d9 15 9b 3d 7c d2 ab bd ff 93 a0 3d
       -0.04660436 0.075725265 -0.08389756 0.07840728
000270 60 b3 0b bd 7a 7b 6d 3d af f7 64 3d f8 27 d2 3c
       -0.034106612 0.057979085 0.055900272 0.025653824
000280 a3 95 bf 3c 52 ac 41 bd 9e cd 6d bd df d8 69 3c
       0.023386782 -0.047283478 -0.05805742 0.0142728975
000290 e6 80 ad 3d ff dc 94 bd d7 53 5d bd 0b 0e f9 3c
       0.08471851 -0.07268714 -0.054035034 0.030402204
0002a0 16 b2 a5 bd 47 dd d2 bb c3 29 0f 3d 54 a1 b3 3d
       -0.08090608 -0.0064350697 0.034951936 0.08771005
0002b0 8f 3f 47 bd b6 d1 43 3d 02 ec 4b bb 5f 13 08 bd
       -0.0486446 0.047807418 -0.0031116013 -0.0332216
0002c0 ba 7f 7f bb c8 e5 d6 3d f1 53 d0 3d c6 c6 8c ba
       -0.0038986043 0.10493046 0.101722606 -0.0010740391
0002d0 65 58 8a 3d 00 b0 48 3d fc d1 66 bd 84 ab bc 3d
       0.06755141 0.04899597 -0.0563526 0.092124015
0002e0 34 e4 ad bc 68 b8 e7 bc b2 84 b0 3d 34 e8 fb bc
       -0.02122698 -0.028286174 0.086190596 -0.030750372
0002f0 38 e7 83 bc fb 62 17 bd 98 df e0 bc 37 26 af 3d
       -0.016101465 -0.03695963 -0.027450368 0.08552211
000300 9c 27 11 3d 7b 94 77 bd 8f 3f a3 3d 9b 22 b5 3c
       0.035438165 -0.060444336 0.07971107 0.022111228
000310 70 8d db ba 40 fa ac 3c 95 03 81 bb 2e b5 10 bd
       -0.0016750526 0.021115422 -0.0039371946 -0.035329036
000320 98 41 c4 bb 8e a6 83 bc af 05 8e bd 1e d8 0c 3d
       -0.0059892647 -0.01607063 -0.06934678 0.034385793
000330 96 d1 51 3d 35 44 15 3d 7d 37 bf 3d 6f ee 8a bd
       0.051225267 0.036442 0.093367554 -0.06783759
000340 ed ea 1f bb ea c7 23 3b f7 b5 1d 3c 51 fd 29 bd
       -0.0024401501 0.0024990984 0.009625903 -0.041501347
000350 48 b3 a9 3d 27 50 80 bd bf b2 7e 3d 2d 34 89 bd
       0.08286148 -0.06265288 0.062182184 -0.06699405
000360 5c ef 88 3d b1 05 92 bd 6a 91 7d 3d 99 5b 7a bc
       0.06686279 -0.07129992 0.061906256 -0.015280628
000370 48 5b 9b bd e2 85 90 bd 7a 1a 59 3b 2d 7a 60 3c
       -0.0758577 -0.07056786 0.0033127354 0.013701004
000380 35 01 87 3d 24 bf 29 bd f5 d1 a9 3d aa 55 c7 3d
       0.06592027 -0.04144205 0.08291999 0.09733136
000390 37 7b ea bc dd 8d b9 bd 83 fd 59 bd 5a 68 81 3d
       -0.028623207 -0.090602614 -0.053220283 0.063187316
0003a0 7d b0 07 3d f2 ff 87 bd e5 46 f6 bc bf b0 ab bd
       0.033127297 -0.066406146 -0.030063102 -0.08383321
0003b0 a6 27 9f 3d b9 e2 43 bc 50 da ad 3d eb b3 1e bd
       0.07771234 -0.01195591 0.084889054 -0.038745802
0003c0 82 05 6f bd e1 57 ff 3c b3 aa a4 bc ff b5 6f 3c
       -0.058354862 0.031169834 -0.020100927 0.014630794
0003d0 d0 73 40 3c 2a 7f 8a bd c3 bb 15 3d 18 e6 4c bd
       0.011746362 -0.06762536 0.036556017 -0.050024122
0003e0 0d e1 9e bc d8 4b 90 3c ef 2a 91 bd bc 7b 70 bb
       -0.019394422 0.01761429 -0.07088267 -0.0036694845
0003f0 06 92 d6 3c 98 da aa 3d 9f 67 28 bd de 83 16 bd
       0.026192676 0.08342475 -0.041114446 -0.036746852

transformer_blocks.0.feed_forward.2.bias f4 [4]
000000 c9 f6 73 bd 1d 04 59 bd f6 41 e1 bd 35 f4 65 3d
       -0.059561525 -0.05298244 -0.10998909 0.056141097

transformer_blocks.0.norm1.weight f4 [4]
000000 2a e8 7f 3f 7b 57 80 3f d7 07 78 3f 3e 1f 81 3f
       0.9996363 1.0026697 0.9688696 1.0087659

transformer_blocks.0.norm1.bias f4 [4]
000000 d9 fc f4 3a ee 22 60 3c 4f 64 19 bd cd 97 be 3c
       0.0018691077 0.013680203 -0.037449177 0.023265744

transformer_blocks.0.norm2.weight f4 [4]
000000 52 db 80 3f ce 16 7a 3f 47 14 7e 3f e6 7a 7d 3f
       1.0066931 0.9769105 0.9924969 0.99015653

transformer_blocks.0.norm2.bias f4 [4]
000000 b9 1e 4e bc 4c d8 8f 3c 0e e2 e7 bc f0 c2 9a 3b
       -0.012580567 0.017559193 -0.028306033 0.0047229454

fc1.weight f4 [128, 360]
000000 0d 56 2d ba cb 39 03 3d e5 31 14 3d 4c a0 13 3d
       -0.0006612249 0.032037538 0.036180396 0.036041543
000010 8b ae 6d 3d 19 8e 9c 3c c3 db 84 bc d8 ee 07 3d
       0.058027785 0.019110726 -0.016218072 0.033186764
000020 ad f1 05 bd c5 f0 08 bd bf b8 1d 3d db 68 2b 3d
       -0.032701183 -0.03343274 0.038506266 0.041848045
000030 d5 38 f7 3c b9 90 96 3b e0 99 17 3d ab b7 d4 3c
       0.030178467 0.004594889 0.03701198 0.025966486
000040 df e0 54 3d db 22 fe bc 93 a3 ad bc d4 50 73 bd
       0.051972266 -0.03102248 -0.021196162 -0.059403256
000050 c9 2e 3b 3c 49 71 ec bc d6 6f cf bc ff 50 05 bd
       0.011424729 -0.028862612 -0.025321882 -0.032547947
000060 9d 60 02 bd fa 93 57 3b 48 5a 54 3c 13 53 18 3d
       -0.03183042 0.0032894597 0.012960978 0.0371886
000070 b1 6b 84 3c 79 8f 72 3b 10 e8 29 3d d5 2a 4f bc
       0.016164633 0.0037011786 0.041481078 -0.012644489
000080 75 49 37 3c dd b7 38 3d 29 e9 21 3d e2 85 47 bb
       0.011186947 0.04509722 0.039529 -0.003044479
000090 8a 7b 29 bc fc f6 c7 3b a1 df f6 3c e9 d0 b6 bc
       -0.010344395 0.006102441 0.030135931 -0.022316413
0000a0 b0 6e 43 3d d5 2d a7 bc 27 00 47 bc 34 fe 4f 3c
       0.04771298 -0.020407597 -0.012146032 0.012694884
0000b0 2a 1a 8e 3c c2 19 28 3d b9 89 58 3d 53 6b 0e bc
       0.01734646 0.04104019 0.052865718 -0.00869258
0000c0 a8 b1 c2 bc ae 77 6d 3c 16 39 09 bd 81 6e bc 3c
       -0.023766354 0.014493866 -0.033501707 0.023001911
0000d0 f3 33 02 3d b0 4d 22 bd 2e 23 cd bc 0c 38 84 bd
       0.031787824 -0.03962487 -0.025041189 -0.064560026
0000e0 cc 2b 37 3c 61 c2 0f 3d 34 34 af 3c 49 8e 0a 3d
       0.011179876 0.035097484 0.021387197 0.0338271
0000f0 cf 95 e3 3c ec 56 18 3d 23 f0 13 3d f2 b2 7a bd
       0.027781395 0.03719227 0.036117684 -0.06120581
000100 25 6f 7e bb 40 98 3b bc 77 29 08 3d b8 3b 2f bc
       -0.0038823572 -0.011449873 0.03324267 -0.01069539
000110 b1 d9 f4 bb bc 87 03 bc 1a 6a c5 3c 72 eb 9f ba
       -0.00747224 -0.008027967 0.024098445 -0.0012200905
000120 04 93 0d 3b bf 28 bd bc 7e f7 d4 3b be cd aa bc
       0.002160252 -0.023090718 0.00649923 -0.020850059
000130 5a 08 da bc b2 05 0d 3d e1 2b 91 3b c1 73 fa 3c
       -0.02661531 0.03442926 0.0044302796 0.030572774
000140 d8 ee 6d bc 23 35 13 bd c3 b3 48 3d cf f9 d7 3c
       -0.014522277 -0.035939347 0.04899956 0.026364235
000150 2a 46 5f 3c 48 f8 f6 bc 7e e9 23 bb 6c 4c 12 bd
       0.013627568 -0.030147687 -0.0025010998 -0.035717413
000160 4b ca 33 3d 61 e6 55 bd 0c 8e e3 bc 7e 75 33 bd
       0.043894093 -0.05222166 -0.027777694 -0.04381322
000170 60 32 15 bd 30 9f 8f ba dc f4 25 3c 90 29 50 bd
       -0.036424994 -0.0010957476 0.01012918 -0.050820887
000180 c3 a2 a7 3c b4 75 fa 3c d0 71 18 3c 5a 1f 5a bd
       0.020463353 0.030573703 0.009304479 -0.053252555
000190 8d 9f 20 3d f3 d2 b3 bc 7d 8e 35 bd a1 ad 09 bd
       0.03921466 -0.021951174 -0.04432534 -0.03361285
0001a0 5c a7 00 3d 60 d4 d0 bc 83 48 1d bd 12 47 00 bd
       0.031409606 -0.025491893 -0.03839923 -0.031317778
0001b0 ef f9 08 bd e0 6f ff 3b 68 92 7a bb f7 0e e7 bb
       -0.03344148 0.007795319 -0.0038234238 -0.0070513445
0001c0 ae 89 2f ba 90 d9 39 bd 9c 36 80 3d 95 c1 1f bb
       -0.0006696236 -0.0453735 0.06260416 -0.0024376858
0001d0 41 54 89 3c f4 86 8e 3a 2e a8 24 bd d3 ae b8 bc
       0.016763808 0.0010873959 -0.04019945 -0.0225443
0001e0 dd ca 66 3d 76 75 7b bd 3e 71 86 3b de cb 12 bd
       0.05634581 -0.061391316 0.004102855 -0.035838954
0001f0 a6 e7 97 bc c9 1b 34 bd e1 2b ad 3c b3 c2 98 bc
       -0.018543076 -0.04397181 0.021139087 -0.018647527
000200 f5 2a 57 3d 43 c0 03 bd 8f a0 41 3c 9c 3a e1 3b
       0.0525312 -0.032165777 0.011818065 0.006873442
000210 28 dd 94 bc da 7b a5 bc 93 aa 2a 3d 56 dc 2f 3d
       -0.018171862 -0.020200659 0.04166658 0.042934738
000220 35 a8 1d 3d e8 43 2e bd 2f 13 1a 3d 8d 64 49 bd
       0.038490493 -0.04254523 0.03761595 -0.04916816
000230 1d 07 0a 3d a5 43 36 3b 26 6f e0 ba 2a 43 6b bd
       0.03369819 0.0027811315 -0.0017122969 -0.0574371
000240 77 96 54 3d c7 0e e3 bc 1a 4b ee 3b 9e b1 16 bd
       0.051901307 -0.027717007 0.0072721364 -0.036790483
000250 b5 23 9e 3b 35 52 d7 bc 9d c7 27 3d 36 bf a0 ba
       0.004826034 -0.026284317 0.04096185 -0.0012264017
000260 67 73 a0 3c c3 48 13 3d c1 44 aa 3c 32 e0 25 3d
       0.019586278 0.035958063 0.020784738 0.040497012
000270 cd f1 ab b9 fa 14 0c 3d 5d ac ac bc 3f 3f ae bc
       -0.00032795817 0.034199692 -0.021078283 -0.021270392
000280 9f 2f 90 bc 46 c4 94 3c 76 81 e1 3c d2 e6 21 3d
       -0.017600833 0.018159997 0.027527552 0.039526768
000290 9f 1e 47 bc ab 7c 2c bd 83 4e 9b 3c a7 c5 54 bd
       -0.012153297 -0.04211108 0.018958336 -0.05194631
0002a0 57 7c 91 bc f8 41 82 3b df 5d c5 3c c3 41 1a bd
       -0.017759485 0.0039751492 0.024092613 -0.03766037
0002b0 06 18 05 bd 7c 64 00 3a a7 32 ea 3c 81 32 d3 bb
       -0.032493614 0.0004897786 0.028588606 -0.0064452295
0002c0 54 b0 4d 3c 0c 88 c6 3c b7 c2 69 3a be c3 3e 3d
       0.012554247 0.024234794 0.00089172594 0.046573393
0002d0 5a c3 da bc 2b 13 bb bb aa c3 27 bc 04 0c 95 bc
       -0.026704479 -0.005709072 -0.010239521 -0.018194206
0002e0 a3 70 c7 3c c4 95 3e bd 95 f5 a6 bc 64 e2 4a bd
       0.024345702 -0.046529546 -0.020380775 -0.04953231
0002f0 68 16 2f bd 23 7b fd bc be af 5a 3c ac 8a f1 bc
       -0.042745978 -0.030942505 0.013347564 -0.02948507
000300 59 24 69 3d 9b f4 0d 3d 86 a0 52 bc 6a b0 ac bc
       0.05691943 0.034657102 -0.012855655 -0.021080215
000310 0e 92 62 bb fb 11 14 3d 28 4c 96 bc 25 a3 86 bd
       -0.0034571919 0.03614996 -0.018346861 -0.06574086
000320 60 d6 37 bb 8e 43 c1 3c 98 fe 6f bc f7 03 36 bd
       -0.0028051361 0.023591783 -0.014648102 -0.044437375
000330 14 31 24 3d 69 46 01 3b 99 54 17 3d 66 6a 5a bd
       0.040085867 0.0019725806 0.036945913 -0.053324126
000340 ab e5 95 bc 02 2f b0 bc 9a ae 2f 3d 3d 87 16 bd
       -0.01829799 -0.02150679 0.042891122 -0.036750067
000350 56 8a cb bc 75 28 82 bc 56 39 3f bd 70 aa cc bc
       -0.024846237 -0.015888432 -0.04668554 -0.024983615
000360 87 63 36 bd 6f 18 41 3d 08 85 95 bc 09 4e fc bc
       -0.04452851 0.047142442 -0.01825191 -0.030798929
000370 c4 ea 13 3d 7b d1 54 3d f9 6a 3a bd 13 9c 3f bd
       0.03611256 0.05195759 -0.045512173 -0.046779703
000380 65 49 5a 3d d4 93 09 3c a1 bb 13 3c 96 f0 4c bd
       0.05329265 0.008397061 0.009016902 -0.050034128
000390 77 23 31 3d 65 e8 f7 bc d1 f7 2b bc d3 a1 0a 3d
       0.043246713 -0.030262182 -0.010496096 0.033845734
0003a0 30 b1 96 bb eb 2f 82 3c 14 8e 19 3d 29 33 c8 3b
       -0.004598759 0.01589199 0.037489012 0.0061096144
0003b0 0d a0 be bc 84 55 2f bd d2 a1 81 3c 69 1b df 3c
       -0.023269678 -0.042806163 0.015824232 0.02723475
0003c0 cf 66 63 3c f2 66 e2 bb ec 1d 85 bc a6 60 43 bd
       0.013879492 -0.0069092447 -0.01624962 -0.047699593
0003d0 7e 99 eb bc 28 7e ad 39 b0 3a 3b 3d 4b f1 4a bc
       -0.028759714 0.00033091125 0.045710266 -0.01238663
0003e0 25 1a 2a 3d 91 ff af bc 49 ec 23 3c 7c 0a df 3b
       0.04152884 -0.021484168 0.010005065 0.0068066698
0003f0 86 cc 1d 3d 8f 25 75 bd fc ad d6 3b 96 74 44 3d
       0.038525127 -0.05985027 0.0065515023 0.047962748

fc1.bias f4 [128]
000000 23 c5 ba bc bf 27 b1 3c b5 26 1d 3d 4a 75 36 3d
       -0.02279908 0.021625398 0.038366992 0.04454545
000010 6f 63 cb bb 7c 39 97 bc b7 5a 2a 3d b1 8e c8 3c
       -0.006206922 -0.018460028 0.04159042 0.024482103
000020 38 49 37 3c 41 0f 6a 3d 19 e4 16 bd 9e 4d b1 3b
       0.01118689 0.057143454 -0.036838625 0.005410864
000030 d5 d5 eb 3c aa b2 1e bd aa d0 35 3c 47 32 1c bd
       0.028788486 -0.038744606 0.011097113 -0.038133886
000040 05 4f 0f 3c 7f 34 08 bc 3c 8b 3a bc 58 4d 41 bd
       0.008746867 -0.008313297 -0.011385735 -0.0471929
000050 7f 8d 66 bd 1d ff 80 3d d4 03 81 3c 7b 28 fa ba
       -0.056287285 0.06298659 0.015748896 -0.001908555
000060 ed 39 fe bc 4a 3c 60 3c 3f b4 12 3d 0f 0a 73 bd
       -0.03103348 0.013686249 0.035816427 -0.059335764
000070 68 f4 3c 3d 19 a9 0e 3d 8c 92 fa bc 3c ec 0c 3d
       0.04613152 0.034829233 -0.030587457 0.03440498
000080 d3 d6 9c 3c a3 ad 1a 3c d8 71 6a bd 38 c2 fe bc
       0.019145405 0.009440812 -0.057237476 -0.03109847
000090 bd 56 16 bd fd 59 b4 bb af e7 9c 3c 5a 57 68 3c
       -0.036703814 -0.0055038915 0.019153444 0.0141809825
0000a0 4a 84 b1 bc 69 17 df 3c c9 10 11 bd 1b b6 5f bd
       -0.021669526 0.027232843 -0.0354164 -0.05461703
0000b0 5b 4f 0d 3d 12 34 9b 3d 5e bf 44 bc e5 a1 b4 3c
       0.034499507 0.07578291 -0.012008516 0.022049854
0000c0 d4 ee da bc 1f a5 b7 bc 63 1d c0 3c e4 23 1c bc
       -0.02672521 -0.022417603 0.023451513 -0.009530041
0000d0 d6 ff c0 bc dd 2c cd 3c f2 38 c7 bc c3 c1 d3 bc
       -0.023559492 0.025045807 -0.024319146 -0.025849229
0000e0 da a3 40 bd 01 31 38 bd f0 f0 99 bb 95 14 e0 3c
       -0.04703126 -0.04496861 -0.0046979114 0.027353564
0000f0 50 f1 64 bc 41 a6 0c 3c 6d 86 07 3d 6d 3a 2c 3b
       -0.013973549 0.00858456 0.033087183 0.0026279942
000100 53 56 d9 3b 98 2a ac 3c 0d d7 4b bd a1 2f 0f 3d
       0.006632605 0.021016404 -0.049765635 0.03495753
000110 86 f7 b5 3c 88 9f b5 bc 8a 7a 53 bc e0 88 95 3d
       0.022212755 -0.022170797 -0.012907634 0.073014975
000120 0c ec 74 bc 53 57 99 bc bf 5f 60 bd c6 f6 30 3d
       -0.014948856 -0.018718397 -0.05477881 0.04320409
000130 4d fa b8 bc 9a 53 01 3c 21 89 14 3d 87 0b 27 bd
       -0.02258029 0.007893467 0.03626359 -0.040782478
000140 a1 2a df bc a4 cf 0e bd 75 20 d4 3b 31 b0 81 bc
       -0.027242007 -0.03486599 0.0064735957 -0.015831085
000150 b9 1e 46 3d af 88 aa bc b1 ba 0f 3d 03 af 1b 3c
       0.048369143 -0.020817129 0.035090152 0.009502175
000160 1c 5f 29 bd 1f 7d 86 3d 85 58 91 3c 24 1b 09 bc
       -0.04135047 0.06566834 0.017742405 -0.008368287
000170 9b 77 22 bd db c8 e2 3c 82 50 39 bd 98 85 bb 3c
       -0.039664846 0.027683666 -0.045242794 0.02289085
000180 47 4a 06 3d 0f 8a e5 bc 39 a1 ac 3c 55 47 26 bd
       0.03278568 -0.028019933 0.02107297 -0.04059537
000190 20 cf 43 3d 9b 5c 6a bb 73 89 41 3d 07 dc cb bc
       0.04780495 -0.0035760764 0.047250222 -0.02488519
0001a0 e0 2f 43 3d 07 48 0e 3c af 5a 8b bd b8 82 92 bc
       0.04765308 0.008684165 -0.06804406 -0.017884597
0001b0 8e 84 8f 3b 8c a8 0a 3c a3 c3 f5 bc 7a 76 6f 3b
       0.0043798154 0.008463036 -0.030000513 0.0036539123
0001c0 56 c4 8f 3d 8b 8b f9 3c 36 e1 9b bb 5c 22 88 3c
       0.0701987 0.030462047 -0.004757072 0.016617946
0001d0 ec fd af bc d9 a5 3c bd 4c d0 cf 3b 5c 88 2e 3d
       -0.021483384 -0.046056602 0.0063419696 0.04261051
0001e0 25 31 7c 3c 39 ab eb bc da 15 8e 3c ba ef 35 3c
       0.015392576 -0.028768169 0.017344404 0.011104519
0001f0 27 55 80 ba 8f 91 9d 3c 48 5f 5c bb 3a af 94 bc
       -0.0009791002 0.019234447 -0.0033626128 -0.01814996

fc2.weight f4 [128, 128]
000000 48 7f 0f 3c eb d4 4a bc 29 79 51 bc b6 3d 55 3d
       0.008758374 -0.012379865 -0.0127852345 0.052060805
000010 fa f9 53 bd 0c 7f be 3d 37 96 b4 3c 51 8a 93 bd
       -0.051752068 0.09301576 0.022044284 -0.07204116
000020 31 21 8a 3c 49 8f 53 3d 6a a9 81 3d 04 a9 41 3b
       0.01686153 0.05165032 0.06331141 0.0029550204
000030 fb d8 a6 3d 10 26 5f 3d 56 f4 4e 3d f5 0b c2 3d
       0.081468545 0.05447966 0.050525986 0.09474937
000040 b9 83 25 3d d4 fd 4c bd 86 e0 f8 3c 2c 4f 6f 3b
       0.040408824 -0.050046757 0.030380499 0.0036515696
000050 ce fd 78 3d eb c8 00 3d d0 e3 8d bd 49 b9 29 3d
       0.060788922 0.03144161 -0.069282174 0.041436467
000060 5d 6e 01 3d 8d dd aa bc 16 a9 bf 3d ab c6 4d bb
       0.03159939 -0.020857597 0.093584225 -0.0031398933
000070 18 94 1c bd ae 4f 95 bc 65 d0 2c 3b 10 a1 da bc
       -0.03822717 -0.01822647 0.002636933 -0.026688129
000080 f0 96 88 bd fd c7 69 3d 34 1b 03 3d 44 48 a1 3d
       -0.06669414 0.05707549 0.032008365 0.07875112
000090 bd 97 e1 3c ed 0c fe bc 12 3e 18 3d 2f 90 8f bd
       0.027538175 -0.031012023 0.03716857 -0.07009923
0000a0 6a d4 2f bd 09 c8 83 bd 90 87 a4 3d 5b 00 ae 3d
       -0.042927183 -0.06434638 0.08033669 0.084961616
0000b0 76 a4 26 3d c8 5d 54 3c 60 75 80 3d 86 38 0a 39
       0.040684186 0.012961812 0.062723875 0.00013181762
0000c0 f8 9c de 3c 3d aa 2a 3d 4a 4d 7a bd 8e 31 28 bc
       0.027174458 0.041666258 -0.061108865 -0.010265721
0000d0 94 4f 8f bd eb f5 87 3c b2 fd 89 3c 80 48 69 3d
       -0.069976 0.016596755 0.016844604 0.056953907
0000e0 99 93 f4 bc d2 86 2c 3d 8d 51 82 3d b0 2a 18 3b
       -0.029855536 0.042120762 0.06363211 0.0023218803
0000f0 66 d8 1b bb 43 f8 2e bd cf 20 a3 3d e7 47 63 bd
       -0.0023780107 -0.04271723 0.07965242 -0.055488493
000100 cd fb 25 3b 90 36 70 bc 82 19 02 bd da af 1c 3d
       0.0025327087 -0.014661446 -0.031762607 0.038253643
000110 9b 0f a9 bd 02 91 91 bd bb 03 88 3d 74 8b 4c 3b
       -0.0825493 -0.07107736 0.066413365 0.003121105
000120 38 ba 89 3d 88 12 6a bd 17 37 4a bc 72 56 ee bc
       0.067249715 -0.05714658 -0.012342236 -0.029093955
000130 52 20 01 bd 8c a6 c4 3c f3 b8 1e ba 4a 1a 41 3c
       -0.031524964 0.024005197 -0.0006054781 0.011786053
000140 8b c4 a9 3d 42 17 ce bc 4b b6 be bc f5 c8 80 bd
       0.08289441 -0.025157575 -0.023280283 -0.062883295
000150 7b 72 4d 3d 61 04 6a 3d fe e3 b0 3d f2 9c a2 bb
       0.050158005 0.057133082 0.08637236 -0.004962557
000160 7e 0c af bd a1 d1 29 3d b8 25 0a bd 56 86 17 bd
       -0.085473046 0.041459683 -0.033727378 -0.036993347
000170 03 d4 04 3d 5e 7e 91 bd 60 e2 58 3c 77 e8 05 3d
       0.032428753 -0.07104181 0.013237566 0.0326924
000180 5e 26 c2 3c 8f dc 29 3d d6 44 7c bd 98 58 a3 bd
       0.023699936 0.041470107 -0.061589085 -0.07975882
000190 d4 eb a8 3d 07 80 ff bc 3a d1 9b 3b eb f5 9a 3d
       0.08248106 -0.031188978 0.0047551664 0.075664364
0001a0 88 0f b8 bc ed 8f 9d 3d ba 57 5b bd 36 59 6c 3d
       -0.022468343 0.07693467 -0.05355046 0.057702266
0001b0 d0 e4 b9 3d c5 90 9d 3d 7f be 06 bd e6 24 b2 3d
       0.09076846 0.07693628 -0.032896515 0.08698444
0001c0 6b 74 44 bd 1c 2f 74 3d 97 59 61 bc 05 8e 1e bc
       -0.047962587 0.05961524 -0.01375427 -0.009677415
0001d0 8e 38 ac bd 09 ec 91 bd ee 35 ae 3c 26 18 95 bb
       -0.084092245 -0.07125098 0.02126595 -0.004549998
0001e0 fc 07 83 bc b4 7a 1f 3c 5b 16 2d 3d 5b b0 3b bb
       -0.015995018 0.009733845 0.042257648 -0.0028639052
0001f0 d5 0a 5d bd a4 63 a0 bd d7 79 ba 3b b8 72 c0 3d
       -0.05396541 -0.07831505 0.005690794 0.09396881
000200 2a a8 9c b9 77 29 ea 3c b1 8b 23 3d 60 c9 a1 bd
       -0.0002987993 0.028584225 0.039928142 -0.07899737
000210 c3 53 de 3d a7 fc 60 bd 77 44 06 bc 77 3c 55 3d
       0.1085582 -0.054928448 -0.008195034 0.052059617
000220 2c 2f ad 3d 9f 29 a4 bc d9 6c 3a 3c c0 e4 c5 bb
       0.08456263 -0.020039378 0.01137849 -0.006039232
000230 e1 37 71 3d e3 0c a8 3c 2c 19 82 bd 05 94 ab bd
       0.05889118 0.020513957 -0.063524574 -0.08377842
000240 00 f0 81 bc fb cf 40 3d b8 e3 7c 3d 02 61 dc 3c
       -0.015861511 0.047073346 0.061740607 0.026901726
000250 2b 5d 57 3d c6 d3 7c 3d 5d 61 6e bd 05 83 8b bb
       0.052579086 0.0617254 -0.05819832 -0.004257562
000260 a3 c8 ba 3d 84 1c 1e 3c 1f 42 fc bc e0 00 9c bd
       0.091203 0.009650353 -0.030793248 -0.076173544
000270 6e e5 9c 3d ea 62 4e bd 8c 95 12 bd 56 d8 67 3d
       0.07660948 -0.0503873 -0.03578715 0.0566028
000280 60 22 1f bc 59 05 f8 bb 12 3c 4f bd 29 82 bf 3c
       -0.0097127855 -0.007568997 -0.050594397 0.023377495
000290 f2 9d a7 3b d8 87 1f bd ea 30 a3 ba 65 99 bf bd
       0.005115264 -0.03894791 -0.0012450491 -0.093554296
0002a0 8b c8 b5 bd c6 51 77 bd e0 e5 c4 bd 98 ca bc bd
       -0.08876141 -0.06038072 -0.09614158 -0.09218329
0002b0 67 71 73 bd c6 3c 75 bd cb d7 dc 3b 24 c8 a9 3b
       -0.05943432 -0.05987241 0.0067395917 0.0051813293
0002c0 20 25 38 3b db b0 04 bc 07 bf 82 bd 26 a0 9b 3b
       0.00280983 -0.008098806 -0.06384092 0.004749316
0002d0 0c 75 f6 39 b7 8e 43 3d ec cc 75 bd 0b a0 61 3d
       0.00047007983 0.047743525 -0.06000988 0.05508427
0002e0 4e 9f 38 3d b7 1b e8 3c ec 9a 3a bd e2 fc 9d 3d
       0.0450738 0.028333528 -0.0455579 0.07714249
0002f0 8c 8e 29 bc 84 02 e9 3c fa 9d 82 3d b3 ce a3 ba
       -0.010348927 0.028443582 0.06377788 -0.0012497514
000300 66 94 9e 3d 17 f0 3d bb 5a 90 5f 3d d2 33 5c bd
       0.077431485 -0.0028982216 0.054581024 -0.053760357
000310 e6 a1 31 3d e2 8c 84 bd 3e cd 52 bd 2b 02 b8 3d
       0.04336729 -0.06472184 -0.051465265 0.089847885
000320 d5 43 14 3d 03 a2 0d bd 7f ae 3c 3d 17 65 af 3c
       0.036197502 -0.034578335 0.04606485 0.021410508
000330 21 13 9a 3d e9 f6 2b 3d 6b ff 1e bd cb a1 c0 3c
       0.0752318 0.04198352 -0.038817804 0.023514649
000340 e9 df 23 bc fd ab ab 3c 59 29 f5 bd e1 1b 3f 3d
       -0.010002115 0.020956034 -0.11970777 0.046657447
000350 17 f2 22 bb a8 ab 30 bd 96 87 5c bd a4 df 9d bc
       -0.0024863535 -0.043132454 -0.053840242 -0.01927168
000360 99 a8 bb bd 76 a8 08 bd d5 1b 8d bd 30 90 30 bd
       -0.09163017 -0.033363782 -0.06890074 -0.043106258
000370 c7 2e 13 3d 93 eb 97 bd 1a ba c2 3d ce e7 08 bd
       0.035933282 -0.07417979 0.09508152 -0.03342419
000380 b9 3e 89 3d b1 b6 4b bd 69 54 43 3d aa 55 cb bd
       0.067014165 -0.049734775 0.04768792 -0.099284485
000390 75 e8 af bb 8d 7a 53 bd a3 3c 30 bc d1 7d e8 3c
       -0.005368287 -0.051630545 -0.010756644 0.028380306
0003a0 b8 dd 05 3b 2f bc 14 3d 84 9e 8e 3d a3 37 e4 bc
       0.0020426344 0.03631228 0.06963828 -0.02785856
0003b0 ef 68 5d 3d d5 00 92 bd 98 e4 32 3d af e2 9f bd
       0.05405515 -0.07129065 0.043675035 -0.07806908
0003c0 0c d7 8d 3d 25 5d 8d bc f9 db 0d 3d 5f 38 44 3d
       0.069257826 -0.017256329 0.03463361 0.047905322
0003d0 6d dd d1 bd 27 18 ae bd e3 bd 8f bd 64 ba 89 3c
       -0.10247312 -0.085007004 -0.0701864 0.01681251
0003e0 58 29 52 3d b4 33 60 bc ab 36 37 bd 20 e5 84 3d
       0.05130896 -0.013684202 -0.04472987 0.064890146
0003f0 1e 9b 27 bd 1c 37 61 3d 11 04 b3 bd b3 6e 18 3c
       -0.040919416 0.054984197 -0.0874101 0.0093037365

fc2.bias f4 [128]
000000 09 e7 cd 3d 73 30 47 bd 9e 6e 83 3d a4 72 60 3d
       0.10053832 -0.04863019 0.06417583 0.05479683
000010 cf 98 b1 bc 34 13 06 3d 00 a5 55 3d 9b b4 89 bd
       -0.02167931 0.032733157 0.05215931 -0.06723901
000020 52 00 55 bd b8 c7 c6 3d 96 97 8d 3d da 1a d0 bd
       -0.05200226 0.09706062 0.06913678 -0.101613715
000030 34 ea de 3b ea ae 92 3d 5f 1c 2f 3c e1 6c 25 bc
       0.0068028215 0.071622685 0.010687917 -0.01009676
000040 a3 21 e0 3c 0b 64 84 3d 5c 9f 52 3d 26 61 79 3d
       0.02735979 0.06464394 0.05142151 0.060883664
000050 eb 49 b6 bc cc d1 91 3d bf 97 93 3a 57 4f b4 3d
       -0.022252044 0.07120094 0.0011260434 0.088041954
000060 44 52 aa bd de f4 2b 3d 82 4d 24 3d 37 da 5e 3d
       -0.08316472 0.04198157 0.04011298 0.054407325
000070 ad 62 bd bc 4a 63 22 3d 88 51 83 bc 83 6a 8b bd
       -0.023118341 0.03964547 -0.016030088 -0.06807425
000080 3a c0 b9 3c ac cb 44 3d 8d df c5 3c a5 7a 39 bd
       0.022674669 0.0480458 0.024154449 -0.04528298
000090 8c 92 b2 3d f5 cc c3 3a d2 84 c9 bc 04 16 86 ba
       0.08719358 0.0014938401 -0.024599466 -0.001022995
0000a0 83 ca 9f 3c 52 94 36 bd ee cf 8b 3d e9 c7 11 3d
       0.019505745 -0.044575043 0.06826769 0.03559104
0000b0 2e d2 28 bd 10 c1 8e 3d d3 a9 ac 3d 14 e3 75 3d
       -0.041216068 0.069704175 0.08430829 0.06003101
0000c0 d9 36 75 3c 7a c0 0a 3d d0 31 b1 bd 8e 4e 7b bd
       0.01496669 0.033874966 -0.08652079 -0.061354212
0000d0 ed d3 bc bb 2f 78 39 39 b4 6f 9b 3d 80 e7 6a bd
       -0.005762568 0.00017687747 0.07589665 -0.05734968
0000e0 cb d7 bc 3c 1b 40 48 3d 52 5f 71 bc 38 5d b2 3c
       0.023052117 0.04888926 -0.014732199 0.021772966
0000f0 03 c3 b1 3c 34 72 02 3d 20 54 89 bd ff c0 ad 3c
       0.021699434 0.031847194 -0.06705499 0.021210192
000100 3b 62 58 bd 8b 02 9e 3d 6b b3 8e bd 9c cb 8d bd
       -0.052828055 0.07715329 -0.06967815 -0.06923601
000110 8a ec c4 3c bc 96 66 3c 2f 8e c1 3d ea 40 3d bc
       0.024038572 0.014074024 0.094509475 -0.011551121
000120 d2 92 96 3d 8e 58 ea 3c d9 6c 0d bd c0 2e 8d bd
       0.073522225 0.02860668 -0.034527633 -0.068936825
000130 e0 a1 ec 3c 2f 80 eb 3c 21 5b a4 bd 9f 2f 00 3d
       0.028885782 0.028747646 -0.08025194 0.031295415
000140 d3 b7 9d bc 8d e7 5a 3b 74 b1 16 bc e0 e2 0d 3d
       -0.019252693 0.0033402175 -0.009197582 0.034640193
000150 1f a5 a6 3d c9 77 b2 bc a6 b8 57 3d e1 a0 85 bd
       0.08136963 -0.021785634 0.05266633 -0.06524826
000160 2a c5 c7 3d cc 1f f3 bc 79 53 d6 3c 2a 57 63 3d
       0.09754403 -0.029678248 0.02616285 0.055503048
000170 04 ef a1 bd aa bc f1 bb 83 dd b4 3d de f4 f9 3c
       -0.07906917 -0.007377227 0.088313125 0.03051227
000180 5b c7 fd bc 9b dd d1 bd 9b bd e7 3c 19 0f d9 3d
       -0.03097885 -0.10247346 0.028288653 0.10598583
000190 52 9e ad bd ab 61 70 bd 11 21 41 3d 81 97 6e bb
       -0.08477463 -0.058686893 0.047150675 -0.0036406221
0001a0 f6 e8 8e bc 95 96 a6 bd 71 1c 4b bd 71 f4 3e 3b
       -0.017445069 -0.0813419 -0.04958767 0.0029137398
0001b0 a2 92 82 bc bc d3 86 bd e2 77 38 3d d9 6e c5 bc
       -0.01593906 -0.06583354 0.045036204 -0.024100708
0001c0 57 03 6a bd 0e 65 b1 bc 9a 4a 16 ba 4a ca 35 3d
       -0.05713209 -0.021654632 -0.00057331624 0.04438237
0001d0 77 63 31 bc 6b 6d 77 3d 10 7f 7b 3d a9 a4 bf bc
       -0.010826937 0.060407083 0.061400473 -0.023393946
0001e0 93 0e 64 bd de 3f ad 3d e9 f1 af bc 39 57 b0 3d
       -0.05567796 0.08459447 -0.021477656 0.086103864
0001f0 b7 b8 c2 3c 47 d6 e2 3d 49 82 8f bd 44 b3 8c 3d
       0.02376972 0.110760264 -0.07007272 0.0687013

fc3.weight f4 [128, 128]
000000 f1 76 72 3d 91 f9 66 3d d0 cb 60 bd e5 15 a2 bc
       0.059195463 0.05639035 -0.05488187 -0.01978583
000010 a1 f6 08 bd 5f b5 67 3c 36 f4 99 bd 75 ae a9 bc
       -0.03343833 0.014142363 -0.07517283 -0.02071307
000020 e8 c8 a1 3b d9 cc 46 3c 04 6f 9d bd 42 e3 a1 3d
       0.00493728 0.0121338 -0.0768719 0.07904674
000030 98 ab ab bd 43 94 51 bd 79 59 b5 3d fe d3 90 3d
       -0.08382338 -0.051166784 0.08854956 0.07071684
000040 5b e2 ac bd 75 3d 99 bb 2b 16 04 3c a6 ea bb 3d
       -0.084416114 -0.0046765157 0.008061926 0.09175615
000050 ed 26 ac 3c bd a4 a8 bd b3 f3 4b 3d 34 1a 7d 3d
       0.021014655 -0.08234546 0.049792957 0.061792567
000060 e9 3c 7d bd f5 a1 96 bc 77 de 59 3d a3 c0 a7 3d
       -0.061825667 -0.018387774 0.053190675 0.081910394
000070 6d a1 35 bd fe 4a 16 3d 85 39 c3 3c e9 1a 56 bc
       -0.0443434 0.036692612 0.023831138 -0.013067939
000080 69 fd 73 bd 49 74 8d 3d a4 d1 20 3d 24 d7 9c bb
       -0.059567843 0.06906945 0.03926243 -0.004786389
000090 2f 1a a9 bd c1 74 c2 bd d5 d1 82 bd 7d 22 dd 3c
       -0.08256947 -0.09494925 -0.063876785 0.026993984
0000a0 b1 a8 22 bc ff f0 59 bd 43 2c c3 bc 6d 09 14 bd
       -0.0099279145 -0.053208347 -0.023824817 -0.0361418
0000b0 c3 28 32 bd c5 e7 67 bb 88 95 c9 3c d4 27 39 3c
       -0.043495905 -0.0035385948 0.024607435 0.011301
0000c0 2c 89 5f bd 10 8a 13 3c 0f 7f 3c 3d a2 83 18 3c
       -0.054574177 0.009005085 0.04601961 0.009308727
0000d0 f2 73 24 3d 09 c3 d0 3c be 51 0a 3d 2d ed 2e 3d
       0.040149637 0.025483625 0.03376936 0.042706657
0000e0 0a 8c 23 bd c4 98 05 bd b6 38 37 bd 15 8c a3 bd
       -0.039928474 -0.03261639 -0.04473182 -0.07985703
0000f0 00 84 9f bd 78 6b 20 39 2c c3 8c bd bd 15 ca 3a
       -0.07788849 0.00015298824 -0.068731636 0.0015417855
000100 d8 0d 9d bd 36 0a 74 bc a2 9e d3 bc 3f 8c 11 bd
       -0.07668656 -0.014895013 -0.025832478 -0.03553414
000110 46 3d 69 bd 4b 88 8c 3c 9f c8 bc 3d 07 bf 43 bd
       -0.0569432 0.017154833 0.09217953 -0.0477896
000120 ac c0 8c bd 51 0a a8 3c 66 9c 19 bd 82 c4 7a bd
       -0.06872687 0.020512732 -0.03750267 -0.06122256
000130 8c cc a9 bd 40 92 2f bd 36 56 ae 3d 5e 0a a6 bd
       -0.08290967 -0.042864084 0.08512537 -0.08107446
000140 14 a1 23 3c cf c0 c0 bb 7a a6 6c bc aa 7e 5d 3d
       0.0099871345 -0.0058823596 -0.014443988 0.054075874
000150 09 5a 47 bc cd 12 9a 3c 6c ec a5 3d 98 a7 01 ba
       -0.012167462 0.018807793 0.081017345 -0.0004945933
000160 34 e3 85 bd 9b 22 32 bd 11 c0 93 bd 1f 6b a2 bd
       -0.06537476 -0.043490034 -0.07214368 -0.07930588
000170 92 54 37 bd 12 03 99 3c 36 2e 9c 3d c8 44 99 bd
       -0.044758387 0.018678222 0.076260015 -0.07483822
000180 4e 3f 6b bd ee d0 a3 bc 6d c0 87 ba 0e f7 5d 3d
       -0.05743342 -0.019997086 -0.001035703 0.054190688
000190 32 51 8e 3d 97 a5 94 3d 86 81 8f 3d 54 77 12 3d
       0.069490805 0.07258146 0.070071265 0.03575833
0001a0 cb 42 6f bb a6 87 a1 ba 38 24 06 3a 81 7d 8f bc
       -0.0036508318 -0.0012323752 0.00051170914 -0.0175159
0001b0 d2 49 ad 3b 13 f2 7b 3d b7 55 85 3d 00 34 bd bb
       0.005288341 0.061510157 0.065104894 -0.005774021
0001c0 8b bc 39 bc a3 c4 19 bd 9d 5e 18 bd 2b 70 33 bd
       -0.011336456 -0.037541043 -0.037199605 -0.043808144
0001d0 44 db b8 3c 2d 01 ee bc 41 63 dc bb 48 42 df ba
       0.022565491 -0.029053295 -0.006725699 -0.0017033303
0001e0 e3 06 52 3d 15 f8 9d 3d c2 fc 40 bd 29 c0 3b 3d
       0.0512761 0.077133335 -0.04711605 0.045837555
0001f0 89 bf 3c bd 7d 31 65 bd b6 41 68 3d 14 32 96 bc
       -0.0460811 -0.0559554 0.05670329 -0.018334426
000200 20 45 3e bd 68 c1 df 3c f1 a8 85 bd 99 89 6f bd
       -0.04645264 0.027313903 -0.06526364 -0.058480833
000210 33 4e 93 bd 86 02 d1 bc 94 96 ad 3d 8d 55 d7 bc
       -0.0719265 -0.025513899 0.08475986 -0.026285911
000220 5e 3c b3 bc b9 93 6b 3c 5a fa 84 3d db d2 86 bc
       -0.021879371 0.014378482 0.06493063 -0.016457966
000230 b0 ff 6d bd 5b 6e c3 3d 60 82 fc 3b ab db 70 3d
       -0.05810517 0.09542533 0.0077059716 0.05880324
000240 26 7f f4 bc e4 a0 c3 3d fb 52 a8 3d 0f 9e 71 3d
       -0.029845785 0.09552172 0.08218952 0.058988627
000250 1d a8 fe 3c 51 b9 ab bc 30 36 31 3d f9 e3 6d bd
       0.031086022 -0.02096239 0.043264568 -0.05807874
000260 e1 01 80 bd 91 fa 3f bd 01 cd c6 bc b9 4f a9 3d
       -0.062503584 -0.046869818 -0.024267675 0.08267159
000270 e6 58 03 bd 14 72 44 3d 6d 8f 92 3d 9f be 87 3d
       -0.032067202 0.047960356 0.071562625 0.06628155
000280 33 bc ba 3d 09 2d bc 3c e1 e1 03 3c 0d 2a 8d bd
       0.091179274 0.022970693 0.008049459 -0.06892786
000290 03 91 54 3d e3 7f c1 3d 98 30 52 bd 41 72 93 3d
       0.051896106 0.094482206 -0.051315874 0.071995266
0002a0 9d 8c 12 bd b6 85 be 3d 46 86 72 bd 7e 89 40 3b
       -0.03577863 0.09302847 -0.059210084 0.0029378827
0002b0 fa bb aa 3d e8 e1 26 3d 52 c4 49 bd b1 9f 51 bd
       0.08336635 0.040742785 -0.04925949 -0.051177684
0002c0 13 b2 97 bd 9e 70 a0 bc f5 0b 29 bd 84 85 52 3d
       -0.07407012 -0.01958495 -0.04127117 0.05139686
0002d0 aa a1 a4 bc 79 18 9a bd 11 e6 b4 3d ab f9 7a bd
       -0.020096619 -0.07524199 0.08832944 -0.06127326
0002e0 8d 3a e3 bb f1 8c ac bc 43 36 11 3d d5 26 11 bc
       -0.00693447 -0.0210633 0.03545214 -0.008859356
0002f0 20 3f 07 bd a6 3e 45 bd 68 9d 94 bd 74 01 44 3d
       -0.033019185 -0.04815545 -0.07256585 0.04785295
000300 f6 86 80 3c 6a d3 f2 3c 86 69 53 3d e7 1c 02 bd
       0.015689354 0.029641826 0.051614307 -0.031765845
000310 d3 3f 47 3d 55 95 86 3d 3f 47 c6 b9 a7 0b 33 3d
       0.048644852 0.065714516 -0.00037818585 0.043712284
000320 62 f2 ed bc 49 4a 10 3d fa b0 a3 3d 62 cb ce 3c
       -0.029046241 0.035227094 0.0799274 0.025243465
000330 52 f0 e2 3d 7a 4e e8 bc b9 70 36 bd fa 2a 70 bd
       0.11080994 -0.028357733 -0.044541094 -0.058634736
000340 e5 35 28 3d b1 68 5f 3d 53 3a 88 3d f5 1f 73 3d
       0.041067023 0.0545432 0.066517495 0.05935665
000350 5e 86 c6 bb 50 49 91 3d a3 0f 63 3c 93 f4 37 bc
       -0.0060584983 0.070940614 0.013858709 -0.011227745
000360 12 d4 6a bd 65 3b 30 bd 59 49 36 3d 31 3e 4a 3d
       -0.057331152 -0.043025393 0.044503544 0.049375717
000370 95 0e c5 3d 97 3a 9d bd 7b b1 a3 3c 42 45 a7 bd
       0.09621922 -0.07677191 0.01998209 -0.08167507
000380 f0 61 4e bc 15 6d 01 bc be cf 59 bd 82 bb 88 bd
       -0.012596592 -0.007899542 -0.053176634 -0.06676389
000390 d1 ab 9f 3b 5d 82 e7 bc a4 5e 84 bd 6f c7 bc bc
       0.004872777 -0.028260404 -0.06463364 -0.023044316
0003a0 82 fe 14 bd ed 99 3b 3d 0e 42 73 bd 01 77 8b 3d
       -0.03637553 0.045801092 -0.059389167 0.068098076
0003b0 b7 c5 27 3d d9 bc 89 bd 3e b5 f7 bb 4f da eb bb
       0.04096004 -0.06725473 -0.0075594475 -0.0071976553
0003c0 ea cc 8a bd e6 bd c1 3c 47 fc 84 b8 a3 5c 2f 3d
       -0.067773655 0.023650121 -6.341241e-05 0.042812955
0003d0 44 1f 56 bd 3a ce 74 3d 1b 93 d1 3c ef 46 fc 3c
       -0.05227591 0.059766985 0.02558284 0.030795543
0003e0 25 55 8b 3d e4 41 ed bc cd 88 97 3c 4e 3f d1 bb
       0.068033494 -0.028962083 0.018497849 -0.0063857203
0003f0 6e a1 a0 3d ab 49 8b 3d ed 84 83 3d a4 01 c3 3d
       0.0784329 0.068011604 0.06421838 0.09521797
