ppo_training_results/value_Transformer_net1.pth (torch, 262663 bytes, 17 tensors)

transformer_blocks.0.attention.in_proj_weight f4 [12, 4]
000000 80 78 13 3c ef c9 06 3f e1 c7 14 bf 10 4a c9 bd
       0.009000897 0.52651876 -0.5811749 -0.098285794
000010 51 3a 03 3f 7c bb 88 3e 10 ef 16 3e c0 3b 6e bd
       0.5126086 0.2670554 0.14739633 -0.05816245
000020 2c 9b f3 be 82 76 99 3e be b8 6a be ee af fb 3e
       -0.47579324 0.29973227 -0.22922036 0.4915766
000030 10 51 a6 3d 80 50 9b 3e 38 a2 0a bf 10 25 ae bd
       0.0812093 0.30334854 -0.54153776 -0.08503163
000040 61 45 db be 00 ec 00 3b 00 02 07 bb 1d 6b a0 be
       -0.4282637 0.0019671917 -0.0020600557 -0.3133172
000050 fc 91 39 3e 92 84 da 3e 16 d0 fa 3e fa a4 05 bf
       0.18122095 0.42679268 0.48986882 -0.5220486
000060 fa f4 e4 3e 10 8d 01 bf f4 ba a4 be 7a 2b e9 3e
       0.44718152 -0.5060587 -0.32173884 0.45540982
000070 60 12 8e bc 6c fb 00 3e 20 11 38 be ed 79 0a 3f
       -0.017342746 0.1259591 -0.17975283 0.54092294
000080 28 02 9f be 8e 4e fd 3e 8d 58 d1 be 2c 21 d9 be
       -0.31056333 0.49473995 -0.4088787 -0.4240812
000090 28 1b 17 bf da 9e f7 be 83 2b 06 bf 80 33 36 bd
       -0.5902581 -0.48363382 -0.52410144 -0.044482708
0000a0 e6 dd 97 3e a6 54 dd 3e e4 b3 56 be 40 39 a5 bd
       0.29661483 0.43228644 -0.2096706 -0.0806756
0000b0 b2 4a 16 bf 38 01 97 be c0 26 e2 bc 4e 71 93 3e
       -0.58707726 -0.29493117 -0.027606368 0.28797382

transformer_blocks.0.attention.in_proj_bias f4 [12]
000000 00 00 00 00 00 00 00 00 00 00 00 00 00 00 00 00
       0.0 0.0 0.0 0.0
000010 00 00 00 00 00 00 00 00 00 00 00 00 00 00 00 00
       0.0 0.0 0.0 0.0
000020 00 00 00 00 00 00 00 00 00 00 00 00 00 00 00 00
       0.0 0.0 0.0 0.0

transformer_blocks.0.attention.out_proj.weight f4 [4, 4]
000000 d8 50 fe be e6 2e e2 3e 56 43 e9 be 4e 39 aa 3e
       -0.49671054 0.44176406 -0.45559186 0.33246845
000010 bc 74 bb 3e 8e 73 8b be 04 3a c9 3e 70 d6 30 3d
       0.366125 -0.272366 0.39302075 0.043173254
000020 60 30 06 3e 5c 89 db 3e 96 f1 a6 3e e0 21 42 3d
       0.13104391 0.42878234 0.3260619 0.047395587
000030 6c fd f8 be 90 4e 16 bd c0 32 10 be d8 4d c5 bd
       -0.48630846 -0.036696017 -0.1408186 -0.09633988

transformer_blocks.0.attention.out_proj.bias f4 [4]
000000 00 00 00 00 00 00 00 00 00 00 00 00 00 00 00 00
       0.0 0.0 0.0 0.0

transformer_blocks.0.feed_forward.0.weight f4 [128, 4]
000000 dc 2e b0 3e fc b9 82 3e 20 1b de 3e 10 22 35 bd
       0.3441075 0.2553252 0.4338007 -0.044221938
000010 44 6f b9 be 00 67 6d 3b 2c f3 d4 be 80 0a 68 be
       -0.362177 0.0036224723 -0.41591775 -0.22660255
000020 f6 0a d7 3e 54 92 a6 3e 78 76 08 3e 28 8c 32 be
       0.4200055 0.32533514 0.13326442 -0.17436278
000030 e2 d5 c7 3e 68 91 0c be a0 5e a5 3c e6 68 8e 3e
       0.39030367 -0.13727343 0.020186722 0.27814406
000040 66 fd d4 be f4 12 52 3e ec f3 19 be 2c 77 e9 3e
       -0.41599578 0.20515043 -0.15034455 0.45598733
000050 12 7b fb be ba be 82 be 80 43 10 3d cc 1e ce 3e
       -0.49117333 -0.25536138 0.035220623 0.4025787
000060 f8 33 3c be 80 48 1e 3c 18 25 cb be 58 83 16 3e
       -0.183792 0.00966084 -0.39676738 0.14698541
000070 5a b3 de 3e 00 d0 72 39 f8 71 d3 be e4 63 12 be
       0.4349621 0.00023156404 -0.4129789 -0.14295918
000080 90 3e c9 3e 28 86 2e be f8 d3 9e 3e 00 78 95 3c
       0.39305544 -0.17043364 0.31021094 0.018245697
000090 20 09 4a 3e 0e 95 b7 be 54 ec 28 be da 82 e1 3e
       0.19730043 -0.35855907 -0.16496402 0.44045144
0000a0 c2 ef aa 3e 40 29 b9 3c 00 72 55 bc 8e 94 86 be
       0.33386046 0.022602677 -0.013027668 -0.26285213
0000b0 92 4a c8 3e f0 13 32 3d a0 7d b2 bc 7c 98 ab be
       0.39119393 0.043476045 -0.021788418 -0.33514774
0000c0 a0 8d 3f be b8 23 61 be a8 d2 86 be c4 fc ee 3e
       -0.1870637 -0.21986282 -0.26332593 0.4667722
0000d0 e0 76 7f bd 50 a6 aa be c0 08 d6 3e b0 c8 32 bd
       -0.062369227 -0.3333001 0.4180355 -0.04364842
0000e0 7c 9d 5e 3e a4 e3 ba be 9e 89 a3 3e 44 73 6d be
       0.21739763 -0.365018 0.3194093 -0.23188502
0000f0 0a 7a a3 3e 88 59 ab bd a8 2d ae 3e e0 51 1c be
       0.31929046 -0.08366686 0.34019208 -0.15265608
000100 00 7c 22 3a 1e 22 96 be 70 62 75 be c0 e9 e5 bc
       0.0006198287 -0.29322904 -0.23963332 -0.028065562
000110 0c 04 4b be fc 81 41 3e 70 bb ad be 5c 3c 73 be
       -0.19825763 0.18897241 -0.33932066 -0.23753494
000120 80 f2 6d 3c 2e a0 a6 be 30 76 b1 be a8 e5 ca be
       0.014523149 -0.32544082 -0.34660482 -0.3962834
000130 b0 7c 62 be 78 ae a3 3e 98 ce f1 be 5e cc c2 be
       -0.22117877 0.31969047 -0.4722793 -0.38046545
000140 e8 8c 45 3e 60 cd 83 bc 58 f0 51 3e e4 c8 03 3e
       0.19292033 -0.016089141 0.2050184 0.12869602
000150 da d8 d7 be 14 aa c4 3e 00 f5 b0 bc a8 f0 c6 3d
       -0.42157632 0.3841101 -0.0216012 0.0971387
000160 f8 27 9c bd ae f2 84 be 68 ca 8c be 30 7f 4a 3d
       -0.07624811 -0.259664 -0.27498174 0.0494377
000170 c4 e1 2b 3e 24 3c 5f be 5c 1b eb be 40 0d 53 3e
       0.16785342 -0.21800286 -0.4591931 0.20610523
000180 98 7e d4 bd 62 86 8b be 44 49 c7 be 00 80 fb 3c
       -0.10375708 -0.27250963 -0.38923085 0.030700684
000190 90 ca 4d 3e 18 12 9d 3e b8 94 ac 3d 08 1b 46 be
       0.20096803 0.30677867 0.08426803 -0.19346249
0001a0 82 f5 95 be 30 59 e9 bd 90 62 84 bd ba 42 fb 3e
       -0.2928887 -0.11393964 -0.06464112 0.49074346
0001b0 48 5e f4 3d b0 1b 2d be 6a 3e de be 50 ff e9 3d
       0.11932045 -0.16905093 -0.43406993 0.1142565
0001c0 c8 66 a2 be b8 f1 43 be 2c 33 e7 be 1c 08 2c 3e
       -0.3171904 -0.19135177 -0.4515623 0.16799968
0001d0 d2 6a 92 be 28 77 c7 be 6c 1a 87 be f4 c2 e0 be
       -0.28597122 -0.38958097 -0.26387346 -0.43898737
0001e0 c0 71 67 be 60 82 cb 3c 6a 5c c7 3e 1a 6c 8b 3e
       -0.22601986 0.024842441 0.38937694 0.27230912
0001f0 d0 1f 45 bd 00 71 55 bc e0 1f 76 be a8 f9 85 3e
       -0.048126042 -0.01302743 -0.24035597 0.26167035
000200 20 d5 dc 3c 48 15 f9 bd 68 e5 75 be 14 be 11 be
       0.026957095 -0.12162262 -0.24013293 -0.14232665
000210 e6 17 9a 3e 00 fd bb 3c 5c 7f 51 3e 5e 6d 84 3e
       0.30096358 0.022947788 0.2045874 0.2586469
000220 02 2c dd 3e 78 9f 80 bd e8 0b 76 3e 76 92 a9 3e
       0.43197638 -0.06280416 0.2402798 0.33119553
000230 d0 60 07 3e 98 8a 82 3d a6 cc fe be 92 42 d6 be
       0.13220525 0.06374091 -0.4976551 -0.41847664
000240 f0 bf 89 3d c4 e3 8b be 00 7e 66 bd b4 32 3f be
       0.06726062 -0.2732221 -0.056272507 -0.18671685
000250 58 48 9d be 16 9f 92 3e 6c ab 39 be 62 d0 c0 3e
       -0.30719256 0.28636998 -0.18131799 0.37658983
000260 2e 39 f3 be 10 a0 55 be f0 e0 50 bd 34 de fb be
       -0.47504562 -0.2086184 -0.050995767 -0.49192965
000270 d4 f2 eb 3e d0 41 eb be c8 21 c8 be c0 17 23 3c
       0.460837 -0.45948648 -0.39088273 0.009954393
000280 10 e6 3e 3e 48 1d f2 3d 36 e2 da 3e 48 a1 c6 3d
       0.1864245 0.11821991 0.4275071 0.09698731
000290 e4 3b 84 be d4 d0 1a 3e c0 a7 16 3c d4 33 8e 3e
       -0.25826943 0.15118724 0.009195268 0.27773917
0002a0 20 79 2f 3d 76 ec bd be 06 10 cc be 10 07 f6 be
       0.042840123 -0.37094468 -0.39855975 -0.48052263
0002b0 f0 f1 90 3d e0 10 94 bd 84 4b a8 3e c0 52 dc bd
       0.07077396 -0.07229781 0.32870114 -0.10757971
0002c0 24 94 f8 be 5a 02 9a be 3e 64 a1 3e f4 83 03 3e
       -0.48550522 -0.3007992 0.3152179 0.12843305
0002d0 f8 47 e9 3e 38 c2 f1 3d 90 3c 3d 3d 28 7b ae 3d
       0.4556272 0.118046224 0.046200335 0.08519584
0002e0 04 ab 78 3e 9c ce 2f 3e 00 ea 96 3b 7e 47 82 be
       0.24283987 0.17168659 0.0046055317 -0.2544517
0002f0 d2 f9 bd be 60 b5 02 3d f8 81 b3 bd 98 a7 4a be
       -0.3710466 0.031911254 -0.08765024 -0.19790494
000300 38 9d a8 be 68 d1 a8 3e b8 96 9b 3d 4a 4d b8 be
       -0.32932448 0.32972264 0.07597107 -0.35996467
000310 f0 d4 00 3e 98 b5 8a 3d 32 75 93 be 00 f0 e8 ba
       0.12581229 0.067729175 -0.2880035 -0.0017771721
000320 70 ed f9 3e e0 68 35 3d 70 49 db bd a4 3a 76 3e
       0.48813963 0.04428947 -0.107073665 0.24045807
000330 ee a0 a0 3e 9e 00 d4 3e d6 58 c8 be 50 58 3f bd
       0.3137278 0.4140672 -0.39130276 -0.04671508
000340 00 c2 5d bc 58 5f 80 3d c6 46 af be d6 9b f4 3e
       -0.013535023 0.062681854 -0.34233683 0.47775143
000350 00 50 7e bc dc 42 0c be 38 34 ce bd f4 bb 9c 3e
       -0.015522003 -0.1369738 -0.10068554 0.30612147
000360 14 24 78 be 74 11 e5 be 12 c5 e9 be c0 26 93 3c
       -0.24232513 -0.44739878 -0.45658165 0.017962813
000370 a6 2d c0 3e 40 87 0c bc 40 83 ae be 78 b8 de be
       0.37534827 -0.008577168 -0.3408451 -0.43500113
000380 2c 4f f9 3e 28 2e 83 3e 28 2d 34 be d4 92 9d be
       0.48693216 0.25621152 -0.1759535 -0.30776083
000390 7c 24 0c be 2c 4f e5 3e c8 e3 c2 3d b2 60 fc be
       -0.13685793 0.44786966 0.09516102 -0.49292523
0003a0 e8 79 ca 3e 8a 3f 9a 3e a0 51 b6 3e 14 d9 c4 3e
       0.39546132 0.301266 0.3560915 0.38446867
0003b0 72 e2 e0 3e 1a 62 84 be ee e0 f4 be 94 7b 70 3e
       0.43922764 -0.25856096 -0.47827858 0.23484641
0003c0 2c f0 21 3e da 41 a7 3e 5c 3e 68 3e 62 5b a3 3e
       0.15814275 0.32667428 0.22680038 0.31905657
0003d0 a0 33 9c 3d a8 64 2a 3e 80 95 2b 3c 9c 54 d0 3e
       0.07627034 0.1663996 0.010472655 0.40689552
0003e0 50 19 64 bd 7e e9 c3 be 38 61 b0 bd e0 ba 45 bd
       -0.055688202 -0.38264078 -0.08612293 -0.04827392
0003f0 b0 c3 08 3d 40 ce 59 bd 1c 93 21 3e 12 59 f2 be
       0.033389747 -0.05317521 0.15778774 -0.4733358

transformer_blocks.0.feed_forward.0.bias f4 [128]
000000 70 ec 1a 3d f8 74 47 be bc 91 1f 3e 58 06 68 be
       0.03782314 -0.19478214 0.15582937 -0.2265867
000010 00 6c c1 3b 52 c9 d1 be 12 4d ca be 88 7a 26 3e
       0.005902767 -0.40973908 -0.39511925 0.1625768
000020 28 1c e9 bd b0 1d a9 be fc c5 86 3e 48 79 12 be
       -0.113823235 -0.33030462 0.26322925 -0.14304078
000030 08 05 8e be e0 e3 f9 3e 98 86 d2 3e d8 8c 8a bd
       -0.27738214 0.48806667 0.41118312 -0.06765145
000040 96 69 84 be b4 71 67 be 64 75 57 3e a4 1d e0 be
       -0.25861806 -0.22601968 0.21040875 -0.43772614
000050 e0 0b 44 3d 00 c3 b1 be 66 12 df 3e 60 d0 b7 be
       0.047862887 -0.34719086 0.43568724 -0.35901165
000060 18 d8 82 bd 92 1c b8 3e 8e f0 ab be cc 9d 67 be
       -0.06388873 0.35959297 -0.33581966 -0.22618788
000070 a8 9c ac 3e 48 1c a3 bd b8 42 c7 3e e0 87 df be
       0.3371327 -0.079643786 0.3891809 -0.43658352
000080 5e 1d 82 be 00 3b 05 bd bc 2a 4b 3e d8 7e a6 3e
       -0.2541303 -0.03252697 0.1984052 0.3251865
000090 90 3e ae 3d fe f1 84 3e 24 04 c8 3e 6e f0 e5 3e
       0.085080266 0.25965875 0.3906566 0.44909996
0000a0 fa 8f 94 be 80 ae fd bb 10 1c 78 bd 52 00 b6 3e
       -0.29016095 -0.0077417493 -0.060573637 0.3554712
0000b0 10 40 da 3d 04 f4 35 be dc 9e 85 3e b8 0c a2 3e
       0.1065675 -0.17768866 0.26097763 0.3165033
0000c0 6c 8a 24 3e 70 57 f9 3e 44 1a 1b be ec fb 4b be
       0.16068429 0.48699522 -0.15146738 -0.1992032
0000d0 10 9f 94 be 74 08 ec be a0 69 e8 3c e8 fe 2b 3e
       -0.29027605 -0.461002 0.028370678 0.16796458
0000e0 32 71 f5 be d8 bc a3 bd 18 e7 da 3d 10 a5 1d bd
       -0.47937924 -0.079950035 0.10688609 -0.038487494
0000f0 c0 64 07 bd d8 cb ec 3d 66 35 94 be b0 c1 15 bd
       -0.033055067 0.115623176 -0.2894699 -0.036561668
000100 e0 64 cf be c8 36 be be 22 6f 88 be fa 7d 84 be
       -0.4050665 -0.3715117 -0.26647288 -0.25877362
000110 2e 55 d7 3e 90 ef 47 be ba b3 a0 be 00 0e 16 bb
       0.42057174 -0.1952498 -0.3138712 -0.0022896528
000120 00 e9 a1 3e ee 5e ac be 80 ff 11 3d 4c 1f 04 3e
       0.31623077 -0.33666176 0.035644054 0.12902564
000130 80 4e 71 be 4a b7 97 be f0 8e 1a be e8 bc 8e be
       -0.23565102 -0.29632026 -0.15093589 -0.278785
000140 50 99 27 3e e0 8d 93 bd bc a2 7e 3e 02 58 e4 3e
       0.16367078 -0.07204795 0.24866766 0.44598395
000150 ba 54 e8 3e 48 42 f1 be 7c cd ac 3e 08 5a 8b be
       0.4537714 -0.4712088 0.33750522 -0.27217126
000160 a0 c0 3e be 0c ea 72 3e c8 ea 7b be 6c e3 5b 3e
       -0.18628168 0.23722094 -0.2460128 0.21473473
000170 34 77 ff 3e bc 63 e6 3e a0 38 16 3e 18 9e f7 3d
       0.49895632 0.44997966 0.14670038 0.12090701
000180 06 be a8 3e 40 b9 e3 bc fc 40 97 3e 10 f6 5a be
       0.32957476 -0.027798295 0.29541767 -0.21382928
000190 68 65 ea bd 70 ff cd be 40 ec 1f bc a0 e7 9e be
       -0.11445123 -0.40233946 -0.009760916 -0.3103609
0001a0 8c 76 06 be da e1 f2 3e 02 01 f3 3e e8 71 6d be
       -0.1313116 0.47437936 0.47461706 -0.23187983
0001b0 c0 f3 92 3e 80 c6 b2 be b4 d9 f3 be c0 48 b2 bd
       0.28701591 -0.34917068 -0.47627032 -0.08705282
0001c0 02 ad 82 be 54 23 79 be 14 94 d3 3e b2 12 87 be
       -0.2552262 -0.24329883 0.41323912 -0.2638145
0001d0 40 87 d7 be ba 4c bb 3e 50 5d e5 3e 84 91 09 3e
       -0.42095375 0.36581975 0.44797754 0.13434416
0001e0 84 78 90 3e 68 1d ed be 58 56 25 3e 84 7c 32 3e
       0.28216946 -0.46311498 0.16146219 0.17430311
0001f0 58 b3 6f be 82 56 bc be 72 0b b3 be 06 87 89 3e
       -0.23408258 -0.3678475 -0.3496967 0.26860827

transformer_blocks.0.feed_forward.2.weight f4 [4, 128]
000000 b0 92 a4 bd 99 03 68 bd f0 b7 b2 3b 07 0e ae bd
       -0.08035791 -0.056644056 0.005454056 -0.08498769
000010 80 0c 09 3a 2c 71 7e bd e0 36 bb bb 46 4e 1c 3d
       0.0005227998 -0.062119648 -0.0057133287 0.038160585
000020 01 bf 97 3d 12 2d 25 3d a2 ff 6b bd b8 db cd 3c
       0.07409478 0.040326186 -0.057616837 0.025129184
000030 a7 0b 0e bd ac 3a fb bc 16 ff 7c 3d 08 e4 88 bc
       -0.03467908 -0.030667625 0.061766706 -0.016710296
000040 3d 61 9c 3d e4 5f a1 3c d9 90 a1 bd 0e 26 77 3d
       0.07635734 0.019699045 -0.078889556 0.060339026
000050 58 be 01 3c 2b e8 9d 3d 6c ae 87 bd 4c f9 df bc
       0.007918917 0.07710298 -0.06625065 -0.027340554
000060 a0 34 ab 3c 28 d3 13 bc 0c bf 9e bc db 3e 90 3d
       0.020899117 -0.009022512 -0.019378208 0.07043239
000070 b0 50 0d bd 14 34 a9 3c 64 be 9c bd a3 5f 81 3d
       -0.034500778 0.020654716 -0.07653502 0.063170694
000080 86 ea 7a 3d 95 e3 a8 3d c9 83 82 3d db e2 a7 bd
       0.061258815 0.08246533 0.06372792 -0.08197566
000090 11 48 8e 3d e2 94 83 bd 90 ee e2 3c ce 1d f9 bc
       0.06947339 -0.064248815 0.027701646 -0.03040972
0000a0 0e 2a 68 3d 3e 99 18 bd 5d f8 ab bd a2 48 60 3d
       0.05668073 -0.03725552 -0.08396981 0.054756768
0000b0 d8 b4 00 bc c7 46 91 bd 40 b3 b2 3c 70 a1 a6 3b
       -0.0078556165 -0.07093578 0.021813989 0.005085163
0000c0 50 2c f2 3c 6c 75 ab bd f0 b6 0e 3d ab d5 9e 3d
       0.029562145 -0.08372006 0.03484243 0.07755598
0000d0 ed ce 84 bd 86 45 24 3d 15 8c 97 3d 20 95 78 bc
       -0.064847805 0.040105365 0.073997654 -0.015172273
0000e0 26 fa 69 3d a7 e4 a9 3d 44 25 cf 3c b7 a0 43 bd
       0.057123326 0.08295565 0.025286324 -0.04776069
0000f0 da 92 73 3d c1 75 96 3d 6c 48 9a bc b7 39 57 bd
       0.05946622 0.073466785 -0.018833362 -0.052545276
000100 60 50 69 3c 06 16 6b bd da 11 4c 3d 30 9f cf 3c
       0.014240354 -0.05739405 0.049821712 0.025344461
000110 24 80 0b bd 83 d7 8e 3d 89 46 28 bd 6b 5e 33 bd
       -0.03405775 0.06974699 -0.041082893 -0.043791216
000120 6a 48 64 3d 32 ea b2 bd 0c 8b 17 bd 10 f6 07 3d
       0.055733122 -0.087360755 -0.03699784 0.033193648
000130 bc 9a a6 bd 8b 18 45 bd 90 61 96 3c 2c 5f 82 bc
       -0.08134982 -0.04811911 0.018357068 -0.015914522
000140 57 f7 79 bd a8 b4 94 bc 85 26 58 bd a0 e3 ab bc
       -0.061026897 -0.01815255 -0.05277111 -0.020982563
000150 f4 27 93 bc b7 ed ab 3d 40 d8 2b 3c bb 47 a6 3d
       -0.017963387 0.0839495 0.01048857 0.0811915
000160 51 7a 82 bd 98 b4 08 3d f0 27 03 bc 6b b6 79 bd
       -0.06370986 0.033375353 -0.008005127 -0.060964983
000170 0a ea 7a 3d f7 89 85 bd 72 b6 80 bd 28 f2 77 bc
       0.061258353 -0.06520455 -0.06284799 -0.015133418
000180 71 10 97 bd b4 02 de bc 72 38 8a bd 00 3e 5c bb
       -0.07376183 -0.027100898 -0.06749047 -0.003360629
000190 0c 35 87 3c 57 b5 a8 bd 1d 37 ab 3d 1f 53 a8 bd
       0.016504787 -0.08237713 0.083601214 -0.08218979
0001a0 bc 5c 96 bd 50 47 e3 bb 87 36 85 3d bb 1d 57 bd
       -0.073419064 -0.0069359913 0.06504541 -0.052518588
0001b0 b8 30 2e bc 48 c5 03 bc 53 c3 a7 bd c8 00 22 bc
       -0.010631733 -0.008042641 -0.08191552 -0.009887882
0001c0 59 8d b1 bd 34 94 0f 3d e4 ee c1 bc 00 96 d3 bb
       -0.08669538 0.035053447 -0.023673482 -0.0064570904
0001d0 4e 07 8c bd ae 5c 58 bd da 0b 98 bd 40 31 c8 3b
       -0.06837331 -0.05282276 -0.074241355 0.0061093867
0001e0 0e c6 63 3d 90 43 13 3d a3 62 77 bd 40 ba da 3a
       0.0556088 0.035953104 -0.0603968 0.0016687587
0001f0 b4 25 af bc e0 15 56 3b 9f 15 b2 bd 00 78 f1 bb
       -0.021380283 0.0032666847 -0.0869553 -0.0073690414
000200 a0 b7 76 bb 6a a4 46 3d 08 ec ae bc 8b 9b 63 bd
       -0.003764607 0.04849664 -0.021352783 -0.05556826
000210 ae e1 93 bd 32 7c 98 bd f6 74 1a 3d b8 86 58 3c
       -0.07220779 -0.074455634 0.0377092 0.013215713
000220 f8 a8 ca 3c 39 74 0c bd 1c 4b 06 3d 5a f0 72 bd
       0.024738774 -0.034290526 0.032786474 -0.05931125
000230 60 db dc 3c 6e 3c 29 3d 01 e8 aa 3d c1 c4 84 bd
       0.026960075 0.041317396 0.083450325 -0.0648284
000240 ee 2d 42 3d 00 37 66 3c f3 d1 12 bd c9 1f 8b bd
       0.047407083 0.014051199 -0.035844754 -0.06793172
000250 60 12 f3 3b a2 b0 53 3d d1 2d a2 3d a5 2d 8c 3d
       0.007417962 0.051682122 0.07918895 0.068446435
000260 53 28 68 bd da 15 3b 3d 26 ee 75 bd 27 6c b4 bd
       -0.05667908 0.045675136 -0.06004157 -0.08809691
000270 e9 97 84 bd 97 15 5d bd 27 23 ad 3d e7 80 88 bd
       -0.06474287 -0.053975668 0.084539704 -0.06665211
000280 42 fb 28 bd 40 5c c2 3a dc 61 7e bd 4e fb 4a 3d
       -0.041255243 0.0014828518 -0.062105045 0.04955607
000290 20 32 3a bc 4c ed d7 3c 45 fe b0 3d a6 9e 4a 3d
       -0.01136449 0.02635827 0.08642248 0.049467705
0002a0 b2 c7 20 3d d7 23 07 bd 2c 6b f4 3c 70 41 94 bd
       0.039252944 -0.032993164 0.02983626 -0.07239044
0002b0 90 57 83 bc 26 43 39 3d 6e f1 17 3d 3e ed ad bd
       -0.016032964 0.045230053 0.03709548 -0.08492516
0002c0 44 36 ed bc 11 15 a0 3d c5 33 94 3d 4d ad 94 3d
       -0.02895654 0.07816518 0.07236437 0.07259617
0002d0 70 51 a7 bc 0a 98 5e 3d ab 81 80 bd 55 3a b3 3d
       -0.020424575 0.054344214 -0.06274732 0.0875136
0002e0 0c 5c cd bc 9e 27 12 3d bc 6b 72 bd 63 f7 a9 3d
       -0.025068305 0.035682313 -0.059184775 0.082991384
0002f0 f3 b2 9c 3d 48 39 a2 bd 9a 0b 68 3d 34 67 b0 3c
       0.07651319 -0.07921082 0.05665169 0.021533586
000300 a6 02 62 3d 94 0e 27 bd d6 28 38 3d c7 45 92 bd
       0.055178307 -0.040785387 0.04496082 -0.07142215
000310 c8 77 73 bd dc 64 f2 bc c0 89 ac 3a 7c 15 ef 3c
       -0.059440404 -0.02958911 0.0013163611 0.02918505
000320 00 df 3d 3a 1f 35 84 3d 73 af 35 bd 1b 9a 02 bd
       0.00072430074 0.064554445 -0.044356775 -0.031885248
000330 fa 88 16 bd b4 1f c2 3c 1d 44 a0 3d 88 b2 54 3c
       -0.036751725 0.023696758 0.078254916 0.012982018
000340 7c 7b e7 bc c0 54 3e bc ed 62 9a bd ba dc 71 3d
       -0.028257124 -0.011616886 -0.075384 0.059048392
000350 98 b9 b1 bc c6 99 26 bd 56 ce 3b 3d ba d5 0e bd
       -0.021694943 -0.040673994 0.045851074 -0.034871794
000360 49 ab 22 bd 7f 73 a3 3d b6 8d 1c 3d 28 31 d0 3c
       -0.03971413 0.079810135 0.038221084 0.025414065
000370 2b 5d 4d bd 3e 04 24 3d 9d 2e b4 bd d8 5c 2f 3c
       -0.05013768 0.04004311 -0.08797953 0.010703288
000380 86 c9 46 3d 1e d4 53 3d ae 2d 43 bd ce 09 6e 3d
       0.04853203 0.051715963 -0.047650985 0.05811482
000390 72 1c 64 3d 98 1f 47 3c 9a b5 45 3d db a1 96 3d
       0.05569119 0.012153529 0.048268892 0.0735509
0003a0 f2 90 1e bd 44 32 38 bd bd d1 a9 3d 3c 50 c7 3c
       -0.03871245 -0.044969812 0.082919575 0.02433025
0003b0 c0 bf 56 3b 99 ce 82 3d 2a 9b 7e 3d 88 71 0d bc
       0.00327681 0.063870616 0.062159695 -0.008633025
0003c0 a8 a2 40 bc 37 b1 a6 3d 26 68 6d 3d 18 d2 ca bc
       -0.01175753 0.0813927 0.05796065 -0.024758384
0003d0 a4 2a ab bc ae 4d 0b 3d 47 d8 8c 3d 5e 4c 50 bd
       -0.020894356 0.034009628 0.06877189 -0.05085408
0003e0 c9 d6 97 bd e4 a3 bf 3c c3 50 b4 3d 2c 76 e4 3c
       -0.07414014 0.023393579 0.088044666 0.02788838
0003f0 36 76 77 3d 5e 7d 7a bd 58 b2 86 bc b8 04 69 bd
       0.06041547 -0.061154716 -0.016442463 -0.056889266

transformer_blocks.0.feed_forward.2.bias f4 [4]
000000 57 42 8d 3d b0 88 7f bc 8f 70 1a bd 2b a0 85 bd
       0.06897419 -0.015596554 -0.037705 -0.0652469

transformer_blocks.0.norm1.weight f4 [4]
000000 00 00 80 3f 00 00 80 3f 00 00 80 3f 00 00 80 3f
       1.0 1.0 1.0 1.0

transformer_blocks.0.norm1.bias f4 [4]
000000 00 00 00 00 00 00 00 00 00 00 00 00 00 00 00 00
       0.0 0.0 0.0 0.0

transformer_blocks.0.norm2.weight f4 [4]
000000 00 00 80 3f 00 00 80 3f 00 00 80 3f 00 00 80 3f
       1.0 1.0 1.0 1.0

transformer_blocks.0.norm2.bias f4 [4]
000000 00 00 00 00 00 00 00 00 00 00 00 00 00 00 00 00
       0.0 0.0 0.0 0.0

fc1.weight f4 [128, 360]
000000 f4 23 7f 3c 04 41 60 3c 23 3f 47 3d fc fa 0a bd
       0.015572537 0.013687376 0.048644196 -0.033930764
000010 1c b0 bd bc 0c b7 69 3c 86 bd a2 bc 08 63 92 bb
       -0.023155265 0.014264833 -0.019865762 -0.004467372
000020 c7 07 4a 3d da 37 54 bd 76 8c 2f bd 76 46 a6 bc
       0.049323823 -0.051811077 -0.042858563 -0.02029727
000030 d2 c6 94 3c 2e 1b b2 3c aa 53 97 3c 5a bb e8 3c
       0.018161211 0.021741476 0.018472511 0.028409649
000040 65 b6 13 3d 82 75 cd 3c d5 b8 50 3d cc b9 ce bc
       0.036062617 0.025080446 0.05095752 -0.02523508
000050 c8 cb 17 3c 50 88 ff bb 0b 19 3c bd d4 8f 00 bd
       0.009264894 -0.007798232 -0.04592232 -0.031387165
000060 a1 90 fa bc 1e 56 b9 3c 28 13 bf bb f8 f7 fa bc
       -0.030586543 0.022624072 -0.005831141 -0.030635819
000070 84 7e 79 3c a0 06 9a 3a 6c 9c 24 3c 45 15 32 3d
       0.015227918 0.0011751242 0.0100470595 0.043477315
000080 35 9c 01 3d 20 ef fc bb c9 d1 40 bd e8 00 d5 bb
       0.03164311 -0.0077189356 -0.047075067 -0.006500352
000090 6b 19 55 3d 80 5c 5f bb 00 87 92 bb f6 e8 91 3c
       0.052026194 -0.0034082234 -0.0044716597 0.01781128
0000a0 ab 19 49 3d 84 93 4f bd d8 e6 3e bc 83 04 32 3d
       0.049096745 -0.05067779 -0.011651717 0.043461334
0000b0 4d d1 0c bd 41 73 22 bd 20 bc d9 bc 30 6e 26 3b
       -0.034379292 -0.039660696 -0.026578963 0.0025395267
0000c0 f1 c7 1d 3d 8c 0f 06 bd 70 5c 0e 3b 9c 76 1b bc
       0.038520757 -0.03272967 0.0021722578 -0.009488728
0000d0 38 ee 22 bd 8b b6 2f bd 04 e4 03 bd 66 fa ec 3c
       -0.039777964 -0.042898696 -0.032199875 0.028927993
0000e0 7a a8 c2 bc 75 21 4d bd 47 fe 38 3d 39 5a 02 3d
       -0.023761977 -0.050080735 0.045164373 0.031824324
0000f0 b8 7f 41 bd 14 77 10 3c b6 ef 54 bd 6f f8 39 bd
       -0.047240943 0.008817453 -0.05198642 -0.04540294
000100 d1 fb 39 3d 0e 85 04 bd 50 fa 4e 3b d1 16 f9 bc
       0.045406166 -0.032353453 0.0031582303 -0.030406388
000110 c0 45 05 bd d6 32 47 bd 2a 35 c2 3c d8 f0 94 3b
       -0.032537222 -0.048632465 0.023706991 0.0045453124
000120 d9 43 0c 3d 2c 40 56 bc ac 20 12 bd ad 57 4f bd
       0.034244392 -0.013076823 -0.03567569 -0.050620724
000130 1e 88 a6 bc 02 08 df 3c 1e c4 1e bd 2e a1 a7 3c
       -0.020328578 0.027225498 -0.03876125 0.020462599
000140 b3 61 51 3d 40 eb 24 bb ea ba 9a bc cc c8 32 bd
       0.051118564 -0.0025164634 -0.018887956 -0.043648526
000150 84 1e 14 bd 8e 1a 8e 3c e9 dd 49 3d 7c a0 04 3c
       -0.036161914 0.017346647 0.049283896 0.008094903
000160 0f 7d 2d bd 7d 17 c0 bc a1 27 3f bd bf 37 3e 3d
       -0.042355593 -0.0234487 -0.046668652 0.046439882
000170 3f d9 12 3d 36 fb f7 bc 7c fe 05 3c 66 7b 3b bd
       0.035851713 -0.030271154 0.00817835 -0.04577198
000180 82 3e 46 bd 84 09 21 3c 13 1d 3d bd 50 5e f7 bb
       -0.048399456 0.009828929 -0.046170305 -0.0075490847
000190 9a 86 82 3c 88 a8 98 bb e0 09 a0 bb 9a 7d 01 bd
       0.015933324 -0.0046587624 -0.0048839897 -0.031613924
0001a0 1e 8b 98 3c de 96 9b bc f8 d7 34 bd 7b 34 01 3d
       0.018621024 -0.018992838 -0.044151276 0.03154419
0001b0 b8 cd 8e bb f4 e4 7a 3c b0 8d 1f 3b f8 6e d6 bb
       -0.0043580197 0.015313376 0.0024345927 -0.00654399
0001c0 27 db 41 3d 00 14 a2 38 50 6e b1 3b 65 95 36 3d
       0.04732814 7.728487e-05 0.0054147616 0.044576067
0001d0 46 22 db 3c b4 21 1a bd c0 fd d7 3b b1 34 40 bd
       0.026749741 -0.037629798 0.0065915287 -0.04692525
0001e0 50 f0 1e 3b cd 60 d7 bc 4d 3a 17 3d 58 89 16 bd
       0.0024252124 -0.026291275 0.036920834 -0.036752075
0001f0 98 e0 54 bd e5 00 0e 3d d7 89 e7 bc 7e b8 d9 3c
       -0.051972 0.03466882 -0.02826397 0.02657723
000200 5e ca bf 3c 6a 6c a0 3c 16 2d fc 3c 1a fd cc bc
       0.023411926 0.019582946 0.030783217 -0.025023032
000210 f8 f4 0a 3c a4 06 53 bd af 57 25 3d 18 a0 56 bc
       0.008481257 -0.051520005 0.040366825 -0.013099693
000220 90 7f aa bc 47 d5 4e 3d 77 e5 48 bd 92 11 a8 bc
       -0.02081278 0.050496366 -0.04904696 -0.02051619
000230 28 e7 bd 3b 68 8d 15 bd 3c a0 0a bd d0 f3 66 bb
       0.0057953782 -0.03651181 -0.033844218 -0.0035240538
000240 f2 8d eb 3c f6 5d b0 3c 12 79 dc bc a0 6b 91 bc
       0.028754208 0.021529179 -0.0269132 -0.017751515
000250 e4 14 41 3c f0 23 14 3c 1d b7 07 3d 17 01 d7 bc
       0.011784766 0.009041771 0.033133615 -0.026245637
000260 f3 af 45 3d 18 5a eb 3b 8e 1b ce 3c 9b 41 e7 bc
       0.0482635 0.007182371 0.025159623 -0.028229525
000270 d4 f7 43 3c 9c 29 d2 bc 4b 08 c2 bc 62 36 ea 3c
       0.011960942 -0.025654607 -0.023685595 0.028590385
000280 27 a4 53 bd a2 8b be 3c 5e d2 f2 3c d2 7b ea 3c
       -0.05167022 0.023259941 0.029641327 0.028623495
000290 e3 ef 01 3d fa 5a 83 bc 6d 6b cd bc 42 ae 92 bc
       0.031722914 -0.016034592 -0.025075639 -0.017905358
0002a0 00 00 48 bb b2 15 f7 bc c9 e5 24 3d ae be bf 3c
       -0.0030517578 -0.030161712 0.040258203 0.023406353
0002b0 4b 29 49 3d 90 b8 c9 bc 26 8a f2 bc c0 5e ea bc
       0.049111646 -0.02462414 -0.02960689 -0.028609633
0002c0 5a d4 ef 3c 08 48 da 3b e2 5c 9c 3c 8b ec 18 bd
       0.029276062 0.006661419 0.019087259 -0.03733496
0002d0 ab 86 20 bd 75 72 56 bd 32 79 b2 bc 91 cc 1b 3d
       -0.03919093 -0.05235525 -0.021786306 0.038036887
0002e0 86 69 4a bd 38 11 9d bc 38 09 90 bb a8 36 8a bc
       -0.04941704 -0.01917325 -0.00439563 -0.016871765
0002f0 1e 7a ea 3c b0 d1 e7 bc 80 4a df bb b0 27 71 bb
       0.028622683 -0.028298229 -0.006814301 -0.0036797337
000300 c0 07 93 bc 52 c0 42 bd 08 1e 46 bc 40 cd fd 3b
       -0.017948031 -0.047546692 -0.012092121 0.007745415
000310 80 6f 26 bb 89 60 4b 3d f8 a0 e4 bb 63 79 2c 3d
       -0.002539605 0.04965261 -0.006977197 0.04210795
000320 9e 9b cf 3c fb 1e c6 bc 2c 4f 2f bc dc 39 3c bd
       0.025342759 -0.024184695 -0.010700028 -0.045953616
000330 14 a0 40 3c d4 f5 7f 3c 45 25 01 3d 47 04 be bc
       0.011756916 0.015622575 0.031529684 -0.023195399
000340 e0 72 4f bc 8f 9d 48 3d bb cd 4a bd 6d 23 29 3d
       -0.012661666 0.048978385 -0.049512606 0.04129355
000350 e7 a8 2d 3d 35 00 30 3d 96 ab 08 bd ef dd 2e 3d
       0.042397406 0.042968947 -0.033366762 0.04269212
000360 80 17 7e 3b 34 aa 26 bd 4b 7a 39 bd 40 9a 0c bc
       0.0038771331 -0.040689662 -0.045282643 -0.008581698
000370 83 71 19 3d b2 10 b8 3c b2 0c 4c bd aa 78 ad 3c
       0.03746177 0.022468898 -0.049816795 0.021175701
000380 49 fb 37 3d b0 62 74 3b 0c 47 21 bc 0e b4 db 3c
       0.04491738 0.0037290268 -0.009843599 0.026819255
000390 82 2b 16 bd db fe e8 bc 19 1f 45 3d 6b c4 d1 bc
       -0.036662586 -0.028441837 0.04812536 -0.025606355
0003a0 0f 0f b7 bc b8 4f 68 bc fe 67 a5 bc 07 f0 b6 bc
       -0.022346048 -0.014179163 -0.020191189 -0.02233125
0003b0 98 2f 34 bd 2b 5a 2f 3d 80 2c a8 39 23 36 11 bd
       -0.0439907 0.0428106 0.00032076612 -0.03545202
0003c0 b2 ed 98 bc 38 13 ba bc 24 f9 83 bc d4 51 14 bd
       -0.01866803 -0.022714242 -0.01611001 -0.03621085
0003d0 d3 e1 19 bd 78 1c bc 3b e0 26 0b bc 60 0b ab ba
       -0.03756888 0.0057406984 -0.008493155 -0.0013049655
0003e0 49 92 39 3d b7 60 00 3d 30 a7 6c bc 54 71 79 bc
       0.045305524 0.031342234 -0.0144441575 -0.015224773
0003f0 69 6b f2 bc 14 a7 5f 3c 58 c1 e3 3b 8b d9 03 3d
       -0.029592233 0.013650674 0.0069505386 0.032189887

fc1.bias f4 [128]
000000 1d d2 4a 3d ee 6b 27 bd 36 cf a7 3c 47 7a 39 3d
       0.049516786 -0.040874414 0.020484548 0.04528263
000010 ad e0 4b bd 00 40 f2 3a c0 40 58 bb 7b 98 56 3d
       -0.049774814 0.0018482208 -0.0032997578 0.05239151
000020 22 9e a7 3c db 55 35 3d 1f 48 01 3d dd c6 49 3d
       0.020461146 0.04427133 0.03156292 0.049261916
000030 75 5c 45 bd fc 2a 7b bc 6e 73 a6 3c 7d cf 4a bd
       -0.048183877 -0.0153300725 0.020318713 -0.049514282
000040 d8 a4 af bb 93 e6 04 3d 80 30 97 bc ed 67 15 3d
       -0.005360227 0.032446455 -0.018455744 0.036476064
000050 4a 25 1f bd b0 4b 1f bb 80 d1 af 3b 50 2d 01 bc
       -0.03885392 -0.0024306588 0.0053655505 -0.0078843385
000060 e6 83 81 bc b0 2c 25 3b 62 58 d4 bc 46 a5 ba 3c
       -0.015809964 0.0025203638 -0.02592105 0.022783887
000070 24 94 5d bc 0e fc 99 bc bc 16 34 3c 3d ae 0e bd
       -0.013524089 -0.018796947 0.010991748 -0.034834135
000080 d0 e1 89 bb 6a 84 ef 3c 6d 1c 47 bd b4 b9 6a 3c
       -0.004207827 0.029237945 -0.048611093 0.014326502
000090 68 05 89 bb cc 4c 77 3c 56 17 86 3c 20 86 a4 3b
       -0.0041815527 0.015093993 0.01636855 0.0050208718
0000a0 30 92 c2 3b 20 90 1a bd 08 9e bc bc 6e 1f d1 3c
       0.005937837 -0.037735105 -0.023024574 0.025527682
0000b0 20 10 c1 3b eb c0 33 bd 91 d4 30 3d 5a 80 87 bc
       0.005891815 -0.043885153 0.04317147 -0.016540695
0000c0 60 95 9a 3b 06 dc f9 bc 58 49 f1 3b b5 9e 52 3d
       0.004717514 -0.030500423 0.0073634796 0.051420886
0000d0 f3 a8 e8 bc db 43 01 3d 6e 6d 25 bd b0 1b f3 3b
       -0.028400874 0.031558853 -0.040387563 0.007419072
0000e0 5c b8 29 bd cf e5 16 3d f8 71 2b bd 48 a4 93 bc
       -0.041435584 0.036840256 -0.041856736 -0.018022671
0000f0 eb de 1a bd b3 bd 0f 3d a7 8f 51 3d 64 8c d2 bc
       -0.037810247 0.03509302 0.05116239 -0.02570171
000100 d4 9a 6c 3c f7 91 51 bd 3c c4 29 bc 4e 49 15 bd
       0.014441211 -0.051164594 -0.010361727 -0.036446862
000110 00 d8 e8 bb 62 b8 cb 3c 62 18 d3 3c 2c 13 92 bc
       -0.0071058273 0.024868194 0.025768463 -0.017831407
000120 00 83 95 3a 2a 63 c0 3c 48 f5 d9 bb ba 82 95 3c
       0.0011406839 0.023484785 -0.0066515543 0.018250812
000130 32 1e da 3c 62 ea f9 3c f2 d2 c5 3c 2e 78 a3 3c
       0.026625726 0.03050727 0.024148438 0.019954767
000140 00 a3 26 bc e0 75 9c 3b de 52 ec bc 3a ae a8 3c
       -0.010170698 0.004774794 -0.028848108 0.02059089
000150 95 92 d2 bc a0 83 f3 bb c3 c4 1e bd 08 05 a9 bb
       -0.025704661 -0.0074314624 -0.038761865 -0.0051580705
000160 68 c7 ac bb ef 6f 20 3d 95 af 2c 3d 40 16 45 ba
       -0.0052727945 0.03916925 0.042159636 -0.0007518269
000170 75 45 29 3d 67 75 00 bd 09 80 02 bd 9d eb 1c 3d
       0.041326005 -0.031361964 -0.031860385 0.038310636
000180 b3 e4 40 bd b7 55 05 3d d6 dd ba 3c c6 75 ff 3c
       -0.047093105 0.032552447 0.022810858 0.031184088
000190 f6 57 02 bd a3 be 25 3d e5 63 37 3d a7 1d 4f bd
       -0.031822167 0.04046501 0.044773 -0.050565388
0001a0 e9 6c f5 bc 8a cc d2 3c 50 0c 5c bc bd 36 ca bc
       -0.029959159 0.025732297 -0.01343067 -0.024684304
0001b0 cf 66 56 3d 00 b6 d5 3b 2c df 0e bc 40 03 72 bb
       0.05234414 0.00652194 -0.0087202005 -0.0036928207
0001c0 8c 06 6f 3c 60 e8 19 3b d0 82 11 3b ce 57 86 3c
       0.014588963 0.0023484454 0.0022203214 0.01639929
0001d0 07 47 43 3d 34 46 5c 3c 98 4d 9b 3b c1 74 4f bd
       0.04767516 0.013444472 0.0047394745 -0.050648455
0001e0 ab 9d 3c bd db cd e8 bc f6 8f ff 3c 46 9f 3f bd
       -0.0460488 -0.028418472 0.031196576 -0.046782754
0001f0 d9 2b 2e 3d 66 9d d7 3c c9 33 22 3d 56 3c 83 3c
       0.042522285 0.02632017 0.039600167 0.016019981

fc2.weight f4 [128, 128]
000000 fd ff 04 bd 00 b0 d6 b7 e6 df 63 bd ec 54 b8 3c
       -0.032470692 -2.5592744e-05 -0.055633448 0.022501431
000010 3b d1 69 bd cf 07 9a bd de f0 3d 3d 93 63 a2 3d
       -0.057084303 -0.075210206 0.046372287 0.079291485
000020 4c a8 a9 bd 90 3f aa bd f0 ce 5f bd 02 07 0c 3d
       -0.08284053 -0.08312905 -0.05464071 0.03418637
000030 24 0a ac bd a0 d1 a3 bd 4b 7d 91 3d a8 e1 0b bd
       -0.08400372 -0.07998967 0.07103976 -0.03415075
000040 f6 49 2e bd 35 09 a5 3d 16 ca 39 3d 9e ec ab bd
       -0.042551003 0.08058397 0.04535874 -0.083947405
000050 c5 46 81 3d 09 f1 90 bd 98 1f 6b bd 78 e6 b1 bc
       0.06312326 -0.07077224 -0.057403177 -0.021716341
000060 1c 8d f9 bc b0 ce b2 3c cc 2d fe bc 50 79 08 bc
       -0.030462794 0.021827072 -0.031027697 -0.008329704
000070 4a 72 51 3d 18 ab 77 bc 50 bf c2 3c e5 42 97 bd
       0.051134385 -0.0151164755 0.023772866 -0.07385806
000080 a0 30 87 3b d8 6d 1f bc d7 79 b1 3d fd 3b 90 3d
       0.0041256696 -0.009730779 0.08665817 0.07042692
000090 4b 87 a2 3d d6 07 4a 3d d4 82 a7 3c 7a 78 49 3d
       0.07935961 0.04932388 0.020448126 0.04918716
0000a0 49 ce 42 bd 6e 53 45 bd d4 fa be bc 0a 6f 46 3d
       -0.04756001 -0.048175268 -0.023312964 0.04844574
0000b0 2c a9 7b bd ce 57 ae bd 80 5a 2f 3b 15 d3 86 3d
       -0.06144063 -0.08512841 0.0026756823 0.065832295
0000c0 64 b8 cb 3c 46 ef 51 3d 90 7f 38 bc e2 86 74 3d
       0.024868198 0.05125358 -0.011260882 0.059698947
0000d0 9a ad 53 3d 40 c7 70 3c ca ce 48 3d bd 3a a4 3d
       0.05167923 0.014695942 0.049025334 0.08019016
0000e0 a7 61 b0 3d 26 21 8b bd b0 d1 fc 3c f2 eb 20 3d
       0.08612376 -0.06793432 0.030861706 0.039287515
0000f0 80 d6 9f bc 34 1e 8d bc 18 aa 61 3c a6 b9 1f 3d
       -0.019511461 -0.017226316 0.013773464 0.038995408
000100 70 40 8a 3b 3f 90 90 bd 3d 4b 96 3d 4a b4 59 3d
       0.0042191073 -0.07058763 0.07338569 0.053150453
000110 06 92 6c 3d 5d c6 84 3d 0b 3a 9b 3d 80 09 18 bc
       0.057756446 0.06483147 0.0757943 -0.009279609
000120 70 68 7f bc 00 29 6b 3a bf 53 80 3d 46 03 6e 3d
       -0.015588865 0.0008970648 0.06265973 0.05810859
000130 e4 81 23 bd 32 a3 9c bd 34 99 eb bc 22 f6 7e 3d
       -0.039918795 -0.076483145 -0.028759576 0.06224645
000140 3a 33 a2 bd a8 f6 c1 bc e4 d8 89 bc 5e 73 21 3d
       -0.07919927 -0.023677185 -0.016827054 0.039416663
000150 4a f8 32 3d 20 fb 78 bc c9 04 a3 3d 47 d5 88 3d
       0.04369382 -0.015196592 0.07959897 0.066813044
000160 c8 f6 36 3c 23 8f 9c bd c1 73 3e bd 6a 77 43 bd
       0.011167236 -0.07644489 -0.04649711 -0.047721304
000170 41 04 20 bd 12 61 70 bd 89 2c 81 3d 48 8c 76 bd
       -0.039066557 -0.058686323 0.063073225 -0.060192376
000180 a4 c2 a5 bc f6 d4 62 3d 14 8c 6b bd 38 83 3f 3c
       -0.020234413 0.055378877 -0.057506636 0.011689
000190 94 d6 6f bd 30 8a e4 bb 00 06 8f bb 00 6b 89 3b
       -0.058554247 -0.006974481 -0.004364729 0.0041936636
0001a0 41 86 87 3d e0 e8 f6 3b df 72 9e bd b8 02 2a bd
       0.06617404 0.007535085 -0.07736754 -0.0415065
0001b0 1d c9 16 bd 80 00 3e 3c 91 da b3 3d 20 9a f4 3b
       -0.03681289 0.011596799 0.087819226 0.007464662
0001c0 a8 7c 97 bc 75 d7 a5 bd e9 19 8a 3d c0 0d bf 3a
       -0.018492058 -0.08097736 0.06743223 0.0014576241
0001d0 22 92 85 bd d2 11 43 3d c0 78 aa 3c a7 ac 80 bd
       -0.06522013 0.047624417 0.020809531 -0.06282931
0001e0 e4 92 84 bc 42 50 33 3d 28 43 8a bc 8e 01 07 bd
       -0.016183324 0.04377771 -0.016877726 -0.032960467
0001f0 f8 67 1d 3c 1a ca 28 3d a0 74 62 bd 5c c0 eb 3c
       0.009607308 0.041208364 -0.055287004 0.028778248
000200 c5 91 ac 3d 59 13 92 bd e5 c5 41 bd 31 ec 01 bd
       0.08426241 -0.071325965 -0.047307868 -0.03171939
000210 bb b0 59 bd 1c 1d 97 bc 34 33 b0 bd b0 ef 95 bd
       -0.05314706 -0.018446498 -0.08603516 -0.073211074
000220 2c 98 82 bd f0 cb 3b 3c 90 83 e1 bb 4c c4 aa bc
       -0.06376681 0.011462197 -0.0068821386 -0.020845555
000230 94 57 b0 bc 62 06 64 bd 4c 45 c0 3c a5 f0 18 bd
       -0.021526136 -0.05567015 0.023470543 -0.03733887
000240 06 62 54 3d ea 70 70 bd 33 45 8e 3d 77 9f b4 3d
       0.051851295 -0.058701433 0.069467925 0.08819478
000250 00 77 8f 39 1b ef 85 bd 72 a1 89 bd 77 a2 05 bd
       0.00027363747 -0.065397464 -0.067202464 -0.03262564
000260 e2 71 5c 3d c0 f1 dc 3b 3b 53 b0 bd 4e 22 37 3d
       0.053819545 0.006742686 -0.08609625 0.04471045
000270 07 87 9c bd 00 4a bd 3b b8 b7 a4 3c 9e a1 68 3d
       -0.07642942 0.0057766438 0.020107135 0.056794755
000280 da 47 3d bd c0 b1 69 3c 9b 3f 26 bd af f7 40 bd
       -0.0462111 0.01426357 -0.040588003 -0.04711121
000290 27 1b 9f 3d b0 7e d9 3c d4 83 b5 3c 8f c2 b0 bd
       0.07768851 0.026549667 0.022157587 -0.08630859
0002a0 d1 79 9e 3d 26 a1 21 bd 3e 88 35 3d 0c 7c 89 bc
       0.077380784 -0.039460324 0.044319384 -0.016782783
0002b0 d2 c9 57 bd a4 55 b1 bc d7 33 a3 bd 40 74 02 bc
       -0.052682705 -0.021647282 -0.07968872 -0.0079622865
0002c0 ac c2 16 bd e0 f7 04 3d 10 1c 9d 3c ba 93 5f 3d
       -0.036806747 0.032462955 0.01917842 0.054584242
0002d0 24 e5 dc 3c 38 a2 9e bc 56 02 78 3d c8 fc 17 bc
       0.026964732 -0.019364461 0.060549103 -0.009276576
0002e0 00 2c 8b bb d0 aa 40 3c b2 68 72 bd 6a d2 65 3d
       -0.0042471886 0.011759475 -0.059181876 0.05610887
0002f0 a0 f1 af bd 45 29 a2 3d fb b4 4d bd 13 f2 76 bd
       -0.08591008 0.07918028 -0.050221425 -0.060289454
000300 70 be d7 3c 74 bb b0 bd 21 9f 82 3d 2c 71 cd 3c
       0.026335925 -0.08629504 0.06378008 0.025078379
000310 00 d9 72 ba 83 10 b3 bd 58 a2 d7 3c 78 2c 06 bc
       -0.0009263903 -0.08743384 0.026322529 -0.008189313
000320 86 27 86 bd 16 75 4d 3d 5c 9f 8f bc 7c ec 39 bd
       -0.06550507 0.05016049 -0.017532043 -0.045391545
000330 d9 70 a5 3d b2 27 5b bd e0 04 3c bc 16 6c 36 3d
       0.080781646 -0.053504653 -0.011475772 0.044536673
000340 c9 d7 2b bd 20 d9 47 bc ac 81 77 bd aa 20 17 3d
       -0.041953836 -0.012197763 -0.0604264 0.036896385
000350 5e 91 69 3d 00 b5 06 ba 76 b1 54 3d 00 a8 4d b9
       0.0570234 -0.00051386654 0.051927052 -0.00019612908
000360 80 ba 52 bc dc 9c b6 3c c0 97 be 3a 1c 77 06 3d
       -0.012861848 0.022291593 0.0014541075 0.032828435
000370 a6 0a 79 3d 1e 61 0b bd 1b 04 a7 bd 6e 18 ab bd
       0.06080117 -0.034028165 -0.0815508 -0.08354269
000380 7c 1c 8c 3c 25 65 aa 3d c0 46 69 3b 6f c6 aa 3d
       0.017103426 0.08320073 0.0035595149 0.083386295
000390 e2 41 75 3d f9 20 b3 3d 48 a4 c0 3c 76 51 42 3d
       0.059877284 0.087465234 0.023515835 0.04744097
0003a0 82 13 f0 bc 80 89 13 3a c8 93 77 bd 5c 39 b6 3c
       -0.029306177 0.0005628094 -0.06044367 0.022244148
0003b0 80 4a fa 3b 48 be 4f bc 14 b1 2a bd 17 ef 84 3d
       0.0076382756 -0.012679644 -0.04167278 0.06490915
0003c0 79 83 16 bd 77 da aa 3d 2a 7d a3 bd f8 03 63 3c
       -0.036746476 0.0834245 -0.079828575 0.013855927
0003d0 1c 25 af bc 60 b5 e0 3c 80 66 08 bd a0 3f df bb
       -0.02138 0.027430236 -0.033300877 -0.0068130046
0003e0 b4 e3 c3 bc f0 ac 8f 3b 64 c0 bb 3c 7a e8 74 3d
       -0.023912288 0.0043846294 0.022918887 0.05979202
0003f0 73 98 8f 3d a0 28 a2 bb 85 bf a3 3d 1d ef 5d bd
       0.07011499 -0.0049486905 0.07995514 -0.054183114

fc2.bias f4 [128]
000000 2c cd fc bc 88 35 cc bc 60 20 d7 bb 3e bf 13 bd
       -0.030859552 -0.02492787 -0.0065651387 -0.036071055
000010 80 07 86 bb d8 e4 5c 3c 40 da 84 bb 60 7d 72 bb
       -0.0040902495 0.013482295 -0.0040543377 -0.0037001
000020 4c b9 c2 bc 2c 23 fe 3c 92 4b 85 bd 7a d7 95 bd
       -0.023769997 0.03102263 -0.065085545 -0.073164895
000030 2a 23 4c 3d 50 03 d1 bb 72 fb 33 3d 06 c3 3a bd
       0.049838223 -0.0063785687 0.04394097 -0.045596145
000040 5e 97 2a 3d c0 0f e1 bb 10 fe c2 bc 42 3e 6f 3d
       0.04164826 -0.0068683326 -0.023802787 0.058408983
000050 8e fc 83 bd 99 20 1b bd 0a 9d 65 3d 3b aa 9f 3d
       -0.06444655 -0.037872884 0.056057967 0.07796141
000060 76 e0 2d bd 70 17 28 3c f8 34 73 3c ef 89 8e 3d
       -0.04245039 0.010259494 0.014844172 0.069599025
000070 cd c2 b2 bd b0 e1 98 bd ec 48 83 3c 2c 7d 71 bd
       -0.087285616 -0.074649215 0.016025983 -0.058957264
000080 c8 33 2a bc 6e 29 60 3d 70 39 92 3b bc 2a fe 3c
       -0.010388322 0.05472701 0.0044624135 0.031026237
000090 b9 77 15 bd 35 a5 8f 3d 3e 91 b2 bd 0b 13 a4 bd
       -0.03649113 0.070139326 -0.08719109 -0.08011445
0000a0 50 04 56 3c 76 c7 36 3d dc 35 92 3c ec bd ce bc
       0.013062552 0.044623815 0.017847948 -0.025237046
0000b0 ae ec 73 3d d0 bc 9e 3c 72 f6 53 3d 14 5c 87 bc
       0.059551887 0.019377142 0.0517487 -0.016523398
0000c0 90 cc 24 bc 5a d6 9e bd 80 13 14 3c e6 e3 0d bd
       -0.010058537 -0.07755728 0.009037852 -0.03464117
0000d0 13 8b a4 bd f9 09 b1 3d c7 78 87 3d 1e 63 7f 3d
       -0.08034339 0.0864448 0.06614833 0.062350385
0000e0 e8 13 6a bd 2a 3f 6c 3d 59 9b 9d 3d 86 21 3f bd
       -0.05714789 0.057677425 0.07695646 -0.04666283
0000f0 4c 0e 6e bd d5 c8 a4 3d f1 72 91 3d 00 10 e7 b7
       -0.058119103 0.08046118 0.071020015 -2.7544796e-05
000100 c2 e3 31 3d 0f 14 98 3d 0f 47 b0 3d a6 1c 1e 3d
       0.043430097 0.07425701 0.08607303 0.03860154
000110 3e 54 6d 3d fa 7d 6d bd c3 43 97 bd 08 7c 0a bc
       0.057941668 -0.05798147 -0.073859714 -0.008452423
000120 70 e2 bc bc e8 7b a3 3c c8 75 cc 3c fd 35 a7 3d
       -0.023057193 0.019956544 0.024958506 0.08164594
000130 78 ef e3 bc 68 32 2e bd d0 02 db 3c 40 7f 0c bd
       -0.027824149 -0.04252854 0.02673474 -0.034301043
000140 c9 22 56 bd 9f 38 b1 bd 45 65 b2 bd 6b 3a 56 bd
       -0.052279267 -0.08653378 -0.08710722 -0.052301805
000150 c0 33 b5 3c 0a 69 6d 3d 2b f6 53 bd 3e 29 6e 3d
       0.022119403 0.0579615 -0.051748436 0.0581448
000160 90 9e 42 bc 45 90 9d bd 2d 6e 07 bd 40 7a 95 bd
       -0.011878625 -0.07693533 -0.033064056 -0.07298708
000170 00 7b 08 3c 40 13 e7 3c e4 40 9b bd 05 d7 90 3d
       0.008330107 0.028207421 -0.07580736 0.07072262
000180 87 3a 9b 3d 03 ba 9b bd 9e 67 38 bd 5c c7 da 3c
       0.075795226 -0.07603838 -0.045020692 0.02670639
000190 47 81 37 bd 6e 19 8d bd 50 6f 86 bc 7b a4 b2 3d
       -0.044801023 -0.06889616 -0.0164105 0.087227784
0001a0 98 a7 9a bc ea 3d 53 3d 56 38 5c 3d 5a 58 4e 3d
       -0.018878743 0.051572718 0.053764664 0.050377227
0001b0 e3 b8 24 bd c8 92 a6 3c 67 4b a6 3d 7c b5 0b bd
       -0.040215384 0.020333663 0.081198506 -0.034108624
0001c0 b6 4a 5a 3d 3a de 71 3d 9e 76 6f 3d 20 d0 19 3c
       0.053293906 0.059049822 0.05846273 0.009388
0001d0 b6 00 6e 3d 00 76 68 3a 3f ff 7c bd 50 4c fa bb
       0.058106147 0.0008867681 -0.06176686 -0.0076384917
0001e0 c9 ec 8a 3d e0 71 26 3b e0 ca 39 3b 88 ad 17 bd
       0.067834444 0.0025397465 0.0028349683 -0.037030727
0001f0 7a bd 08 3d 90 ae 76 bc b9 54 9b 3d ca cc 39 3d
       0.033383824 -0.015056267 0.07584519 0.045361318

fc3.weight f4 [1, 128]
000000 f0 91 28 bc c9 86 98 3d 5e 25 8f bd 76 ce 27 bd
       -0.0102887 0.07447583 -0.06989549 -0.04096838
000010 bd 12 93 3d d0 17 e5 bb b8 27 39 bd 63 02 0d bd
       0.071813084 -0.006991364 -0.045203894 -0.034426104
000020 5e 22 6f bd 1c 73 7d bd 56 27 f3 bc a3 14 9a 3d
       -0.058382384 -0.061877355 -0.029681843 0.075234674
000030 6c f8 89 3c 9b 44 a3 3d 26 84 93 bd 03 71 29 bd
       0.01684209 0.0797207 -0.0720294 -0.041367542
000040 ad 8d 2a bd 12 76 50 3d 3e ae 83 bd e8 74 9e 3c
       -0.04163902 0.05089385 -0.064297184 0.019342855
000050 23 8a 44 bd b4 94 50 bd 24 f3 8f bd 0e 8f 0b 3d
       -0.0479833 -0.050923064 -0.07028797 0.034071974
000060 ea 40 0e bd 98 3a ab bd 82 f5 a9 bd 9c 9b 90 3c
       -0.034729876 -0.08360785 -0.0829878 0.017652325
000070 d6 c8 4b bd 78 1b 1a 3c cc 8c df 3c db 58 b1 3d
       -0.04975208 0.009405963 0.027288817 0.08659526
000080 c9 4e b0 3d 73 bc 30 bd a0 ab 5b bd 5e 06 50 3d
       0.08608777 -0.04314847 -0.05363047 0.050787322
000090 10 e9 e8 3c 80 c3 cf 3b e3 1e 32 bd db 93 06 bd
       0.028431445 0.006340444 -0.043486487 -0.03285585
0000a0 c0 3c 65 3b 63 2a 91 3d ef 74 93 3d 8a d4 22 3d
       0.0034978837 0.07088163 0.07200038 0.039753474
0000b0 9d ca 60 bd e0 1d 23 3c 31 d7 b3 3d 6d d4 96 bd
       -0.054880727 0.009955853 0.08781279 -0.07364736
0000c0 8b bf 88 3d f0 63 bc 3b 76 73 f3 bc 49 d1 81 3d
       0.06677159 0.005749218 -0.029718142 0.06338746
0000d0 e4 eb 93 3c 3a 96 29 3d 3e b2 49 3d 08 93 8f 3c
       0.018056817 0.041403033 0.04924225 0.017526165
0000e0 63 82 8e 3d 4d a7 58 bd 56 5b 3b 3d a9 84 a0 3d
       0.06958463 -0.052893925 0.0457414 0.07837803
0000f0 e0 cf 96 bb d2 6e 23 3d 66 cc f0 bc e0 f1 2e 3c
       -0.0046024173 0.03990061 -0.02939434 0.010677785
000100 04 42 b2 bd c8 65 a6 bd 8f b7 9d 3d 08 27 9f bc
       -0.08703998 -0.08124882 0.07701027 -0.019427791
000110 7b 53 59 bd 0b 00 a3 bd 34 4c d8 bc 6d ea 8a bd
       -0.05305813 -0.079589926 -0.026403524 -0.067829944
000120 54 b9 e7 3c e3 74 71 bd 70 76 2f bc 84 6a b2 bc
       0.028286614 -0.058949362 -0.01070939 -0.021779306
000130 c0 72 af bd 6c ec ff bc 9f 23 9d 3d 83 0f 98 3d
       -0.08566809 -0.031240664 0.0767281 0.074248336
000140 53 19 a3 3d 9c 09 88 3c e8 66 5b bc 32 6b 70 3d
       0.079638146 0.016606145 -0.013391234 0.05869598
000150 56 f7 34 3d 7e d8 5c 3d 20 36 8a bb 1c 22 74 bd
       0.04418119 0.0539174 -0.004217878 -0.05960284
000160 80 ec 1e 3c 88 4c 61 bc 37 f4 a0 bd 1c 65 a0 bc
       0.009699941 -0.013751157 -0.0785908 -0.019579463
000170 d8 8d 58 bc 5a 9d 03 3d 17 3a 79 bd 65 2e a8 3d
       -0.013217412 0.032132484 -0.060846414 0.08211974
000180 50 fd 94 bd 86 6d 7a 3d fb 45 93 3d 36 ae e0 bc
       -0.07274878 0.061139606 0.07191082 -0.02742682
000190 5c 0f 92 bd c2 c5 93 bd e0 ed 1a 3c b3 58 2a bd
       -0.07131836 -0.07215454 0.009456128 -0.041588496
0001a0 ef 50 90 3d 90 ea f6 bb b5 9a 9a 3d 12 ae 62 3d
       0.07046687 -0.0075352862 0.07549039 0.055341788
0001b0 30 1d f6 3c e2 80 a1 bd 92 d6 09 3d cc 77 97 bd
       0.030043215 -0.078859106 0.033651896 -0.07395896
0001c0 48 61 29 bc 3f 83 92 3d aa d0 08 3d 1f ad 9e 3d
       -0.010338135 0.071539395 0.033402123 0.07747864
0001d0 ba 5f 9c bd 06 fb 4d 3d 90 98 fd bb e0 90 a4 bc
       -0.07635446 0.050288223 -0.007739134 -0.020088613
0001e0 50 fe 82 3c 70 c3 0c 3c e8 65 0e bd d4 dd db bc
       0.015990406 0.008591518 -0.034765154 -0.026839174
0001f0 88 44 34 bc 88 06 f1 bc 20 95 71 bb a1 f4 2e bd
       -0.011002667 -0.02942206 -0.0036862567 -0.042713765
