ppo_training_results/value_Transformer_net.pth (torch, 262663 bytes, 17 tensors)

transformer_blocks.0.attention.in_proj_weight f4 [12, 4]
00000000: 4f32 a9be b436 773e 5652 d23e 5cd7 40be
00000010: 8006 463e 8c8e ad3e 79c9 e1be faa1 813e
00000020: 10e3 793e f6c8 01bf 688e ab3e 4094 183e
00000030: aa12 ba3e b5d1 033f 808f 1a3d f95c 103f
00000040: d8d8 bfbe 200f f4bc 5e90 fa3e 08e4 203e
00000050: 0206 a13e f46b 06bf ec88 953e 3666 f83e
00000060: 5e18 8a3e 80f5 2d3e 8013 8b3d b44c ccbe
00000070: 4210 d83e f0fa 83bd 1837 1cbf 74e2 bfbe
00000080: f221 d5be a04a a3bc 1084 1a3d c86b 873e
00000090: 8e5e d13e 4431 eebe 3011 2cbd c08e 1a3e
000000a0: eaa9 c3be 605b fe3d 346e a33e fab1 48be
000000b0: 7c86 6b3e 98f9 953e fc1c 12bf 4058 653e
-0.33046195 0.24141961 0.41078442 -0.18832153 0.19338417 0.33897817 -0.44099024 0.2531889
0.24403024 -0.5069727 0.33507085 0.14900303 0.36342365 0.5149186 0.03773451 0.56391865
-0.37470126 -0.029792368 0.48938268 0.15711987 0.31449896 -0.52508473 0.29206026 0.4851548
0.26971716 0.16988182 0.06790829 -0.3990227 0.42199904 -0.06444347 -0.61021566 -0.37477458
-0.4162746 -0.019933045 0.0377236 0.26449418 0.40892452 -0.46521962 -0.04200858 0.15093517
-0.38215572 0.12419772 0.31920016 -0.19599143 0.2300052 0.29291987 -0.57075477 0.22396946

transformer_blocks.0.attention.in_proj_bias f4 [12]
00000000: 0000 0000 0000 0000 0000 0000 0000 0000
00000010: 0000 0000 0000 0000 0000 0000 0000 0000
00000020: 0000 0000 0000 0000 0000 0000 0000 0000
0.0 0.0 0.0 0.0 0.0 0.0 0.0 0.0
0.0 0.0 0.0 0.0

transformer_blocks.0.attention.out_proj.weight f4 [4, 4]
00000000: e8a6 363e 5266 ee3e f8e1 543e 2c69 283e
00000010: 3a3e bf3e 9cc0 fd3e 9057 9c3e c4c6 943e
00000020: 22e1 9ebe 9c50 803e 1e24 853e d0e2 7dbd
00000030: d407 f33e e076 5dbd fe2a 8c3e 2002 febd
0.17837107 0.4656244 0.20789325 0.1644637 0.37352163 0.49561012 0.30535555 0.29057896
-0.31031138 0.250615 0.26004118 -0.061983883 0.4746691 -0.054068446 0.2737655 -0.12402749

transformer_blocks.0.attention.out_proj.bias f4 [4]
00000000: 0000 0000 0000 0000 0000 0000 0000 0000
0.0 0.0 0.0 0.0

transformer_blocks.0.feed_forward.0.weight f4 [128, 4]
00000000: 922e ec3e dc15 43be 501d 663d a657 fa3e
00000010: c84d 0f3e 3480 803e c88c 303e e85b 12be
00000020: bce1 efbe 2a55 ca3e 7c97 39be 90e5 20bd
00000030: 3858 c13e 4eb2 a6be a40a 723e 2016 0abd
00000040: 9868 a43d a868 f1be 8686 91be 8038 083e
00000050: f0e7 56be 626d e3be 5edf c4be d8ed 2d3e
00000060: 96f1 b3be 0050 3c3c 325c c53e 0e16 993e
00000070: 082b febd 6815 89be aaad 953e 80a9 28be
00000080: feef 963e c21e 983e 92f6 debe 8092 e0be
00000090: 1059 0c3d 34fe 16be 5e34 9f3e 2ced f1be
000000a0: 8002 6f3c 42b5 d43e a6cb 863e 38e1 123e
000000b0: d8f4 cfbe f825 cabd f0c3 18bd 7026 d0bd
000000c0: 900f 84bd ac91 5bbe 00c0 45b8 c0cc b93c
000000d0: 1836 03be 3c81 7d3e ec14 cb3e c897 a73e
000000e0: 0012 48be 8478 28be 58d4 233e 7e21 c3be
000000f0: 98ca 213e a0fd f13e c061 fe3d a09c 7c3d
00000100: 3635 a63e 1059 613e c4da 733e ce95 e2be
00000110: f4c4 f2be 9cfc 673e 72b4 c5be f067 05be
00000120: 1859 903e c40c dc3e 60ac ac3c aed1 a33e
00000130: 0493 723e 60c2 f5bc e6cf 823e 60cc 973c
00000140: f0b5 813d ecaa b0be 0630 c23e 00e4 9e3d
00000150: 3cc9 9abe 6cf2 02be 687b 6dbe 2440 c1be
00000160: 8293 ebbe 58b9 c13d a40b aebe 0867 3a3e
00000170: 58fa a33e 1024 acbe 1c2c 423e c8ba e13e
00000180: 485b ab3d ced3 d43e 80b2 f23c b4d7 203e
00000190: ca5e bfbe c43c 683e 245d d73e 5009 40be
000001a0: 1e68 9abe f087 99be 70c3 9ebd 40c1 133d
000001b0: c8b0 b2bd 6686 eb3e c05c e13e 10e3 463d
000001c0: b6e4 db3e 8cfb e33e 30a1 cd3e e633 b13e
000001d0: 48cb 143e 50ca 1b3d 10b2 b63e e091 db3e
000001e0: bcdc ffbe 5cfc 4f3e ee91 813e 7aa5 cfbe
000001f0: 602b bfbe 5a9b a7be 28dc d83d 7e73 f23e
00000200: d4ce 4abe e211 94be 5a5c ff3e 00a8 183e
00000210: 266f c13e e63c d13e 80a9 17bc 6acd f13e
00000220: 8248 bf3e 6afa 8f3e 9032 cdbe b00a 563d
00000230: 9c69 dbbe d809 99bd e841 aebd 24b2 d9be
00000240: a2e3 983e 68f6 f0bd 5cb3 82be 30ac 523d
00000250: e032 283d 1a39 d03e f2a3 a43e d463 063e
00000260: 54bf 45be aa1c 9a3e 401a d03e 9ec2 8dbe
00000270: 48b9 7abe 7a98 aa3e 6a49 c2be 20aa 93bd
00000280: 8074 fdbe e8bc c13d cae8 c1be f0b6 a83d
00000290: 2ca9 d7be da5e ff3e 1e55 c2be c2a3 ba3e
000002a0: e8be 8b3e e0a6 98bc e8ee 883d 5a1a be3e
000002b0: faf4 f9be e0f5 7c3d 08b4 053e be32 dbbe
000002c0: 945f 95be 4898 6b3e 8002 cabe 9037 453d
000002d0: c8d9 cdbe 60c9 cfbc bc05 8cbe 70ed 903d
000002e0: 4e91 bfbe dcbf 193e 5e71 d23e aafe e2be
000002f0: 9404 e8be 1860 0bbe 6c5d 2abe 60e0 c33d
00000300: e443 163e ca59 a53e e86d 043e eedc 85be
00000310: c018 2d3d f02d ca3d 90d1 36be 485d 9d3e
00000320: 0693 eabe 2415 d0be 50a3 9e3e 3a4b 9a3e
00000330: 1085 99bd 28fc ac3d 80f5 383c 8220 9d3e
00000340: 3c81 253e 5088 7a3e 3cb6 57be c2aa a8be
00000350: 3809 c23d 04a5 e63e be85 b83e d89b a6bd
00000360: 7887 c33d 4aa5 d8be 20bf babd a6ea db3e
00000370: a0bc f3be 98a8 50be d40c f03e 404f 54bc
00000380: 1452 443e 5007 4ebd 48cc ebbd 20b4 c5bc
00000390: f0ba 22bd b453 c0be d8ae a3bd 0028 893a
000003a0: 1238 87be 488e 573e 10a9 1abe 284a ecbd
000003b0: 3ca9 f4be eaca da3e 100b d33d 14e5 58be
000003c0: 70d5 c7be 40d2 fbbc d4f8 4e3e 5479 203e
000003d0: 348f 76be 5892 16be ce92 b4be 583f 3a3e
000003e0: 1430 33be 62e4 b03e a873 ba3d 40e1 693c
000003f0: 463f ebbe 0647 e2be 0c87 0c3e b442 743e
0.4612928 -0.19051307 0.0561803 0.48894995 0.13994515 0.2509781 0.17241204 -0.14292872
-0.4685191 0.395181 -0.18124193 -0.039281428 0.37762618 -0.3255791 0.23636872 -0.033712506
0.08027762 -0.4715016 -0.28422946 0.13302803 -0.20986915 -0.4441939 -0.38451666 0.16985261
-0.35145253 0.011493683 0.38546902 0.2989964 -0.12410551 -0.26774144 0.29234058 -0.16470909
0.29479975 0.29710966 -0.43547493 -0.4386177 0.034264624 -0.14745408 0.3109464 -0.4725126
0.014587998 0.4154454 0.26327246 0.14343727 -0.40616488 -0.09870523 -0.037296236 -0.10163581
-0.06448281 -0.21442288 -4.7147274e-05 0.02268064 -0.12813604 0.2475633 0.396644 0.32732987
-0.19538116 -0.16452223 0.15998971 -0.3811149 0.1579994 0.47263813 0.12420988 0.061672807
0.32462472 0.22006631 0.23813921 -0.44254917 -0.47415888 0.22654957 -0.3861423 -0.1302793
0.28192973 0.4297849 0.021078289 0.3199591 0.23688895 -0.029999912 0.2554924 0.01853007
0.0633353 -0.34505403 0.37927264 0.07758331 -0.30231655 -0.12787789 -0.23191607 -0.37744248
-0.46010977 0.0945918 -0.33993256 0.18203366 0.32026935 -0.33621264 0.18962139 0.44087815
0.0836702 0.41567844 0.029626131 0.15707284 -0.37377006 0.2267943 0.42063248 -0.18753552
-0.3015756 -0.29986525 -0.077521205 0.03607297 -0.087251246 0.46000975 0.44016075 0.048556387
0.4294793 0.44527853 0.4016204 0.34609908 0.1453067 0.038034737 0.35682726 0.4288473
-0.49973094 0.20311111 0.25306648 -0.40555936 -0.3733778 -0.3273571 0.105888665 0.4735374
-0.19805461 -0.28919894 0.49875146 0.14907837 0.37780112 0.40866774 -0.009256721 0.4722703
0.37360007 0.28120738 -0.4007764 0.052256286 -0.4285401 -0.07472581 -0.08508664 -0.42518723
0.2986117 -0.11765748 -0.25527465 0.051433742 0.041064143 0.40668565 0.3215633 0.13124019
-0.19311267 0.30099994 0.40645027 -0.27687544 -0.24484742 0.33319455 -0.37946635 -0.07210183
-0.49502945 0.09459859 -0.37872916 0.082380176 -0.42121255 0.49877053 -0.37955564 0.36453062
0.27294087 -0.01863426 0.06686193 0.3712948 -0.48819715 0.061757922 0.13056958 -0.4281215
-0.29174483 0.2300731 -0.39455032 0.04814869 -0.40205216 -0.025364578 -0.27348125 0.070765376
-0.37415546 0.15014595 0.41102117 -0.44334918 -0.45315993 -0.13610876 -0.166372 0.095642805
0.14674336 0.32295066 0.12932551 -0.26145118 0.04225993 0.09872043 -0.17853379 0.3073523
-0.45815295 -0.4064113 0.30983973 0.30135518 -0.07496083 0.084465325 0.0112890005 0.30688864
0.1616258 0.24466062 -0.2106561 -0.32942778 0.094744146 0.45047772 0.36039537 -0.081351936
0.09547323 -0.42313606 -0.091184855 0.4295246 -0.47604847 -0.20376813 0.46884787 -0.012958348
0.19171935 -0.050299942 -0.11513573 -0.024133742 -0.03972906 -0.3756386 -0.07992333 0.0010464191
-0.26409966 0.2105037 -0.15103555 -0.11537582 -0.47785366 0.42732936 0.103048444 -0.21181136
-0.39030027 -0.030739903 0.20212108 0.15671283 -0.24078065 -0.14704263 -0.35268253 0.18188226
-0.17498809 0.34549242 0.09104091 0.014274895 -0.4594671 -0.44194812 0.13723391 0.2385357

transformer_blocks.0.feed_forward.0.bias f4 [128]
00000000: 36ae c8be 5800 45be acb9 67be 5801 81be
00000010: 16d8 b4be c41e 7dbe 5ead 8c3e 7835 8d3d
00000020: 223c b9be e29b f13e 846c 533e 98fd 4d3e
00000030: d8da f53e f0ef e63d f01c d4be bad6 e5be
00000040: 72df 9fbe 0c4f 71be 7efc f83e a83d 883d
00000050: d866 e13e 6423 d03e e009 36bd 64ec e8be
00000060: ac99 15be 4611 b3be 0c15 263e 34fd fc3e
00000070: 0050 bf39 0849 9f3d 22a4 8e3e ac9f 48be
00000080: 68d8 eebe 4498 debe 406d 5fbe 889f 7ebe
00000090: 80d3 efbb e844 e6be 14da 0ebe 9031 71be
000000a0: e0a3 ffbc fe9a e33e 949c ef3e 50fa cc3d
000000b0: 50a1 453d 3c18 d3be b0c3 cf3e 4e16 a93e
000000c0: 5034 91bd 062f f43e 0493 d1be a0e4 a43c
000000d0: acce 9cbe b8dc 64be 54fe 90be 24dc 853e
000000e0: 16dc a7be 00ca bcbd 1c88 703e bee4 833e
000000f0: 5282 8dbe ac62 70be e022 26be 706c 353d
00000100: b0fc 79be ccb9 f03e f060 b93d 127c 823e
00000110: 20b2 dcbc 20e0 4f3d 4cfe b53e cee8 bebe
00000120: b442 7dbe 466d 9f3e 740e 033e 1c3b bbbe
00000130: 2805 30be 60f3 d4be b070 a4bd 42ca da3e
00000140: 80bf ee3b 00cf 36bd 48a2 fe3e 0874 87bd
00000150: 5821 47be d034 5fbe 0cdb bb3e d49c cabe
00000160: c288 9ebe baa2 bd3e a81e 90bd cedb c5be
00000170: e82f 1bbe def0 d4be 1c75 5fbe 9cde 9f3e
00000180: 2e8c dc3e c048 b73c 2808 863d 30d9 a4be
00000190: e222 e63e d2f7 d0be 10a0 863d 5011 2c3e
000001a0: fed4 c6be dc43 43be 7486 ccbe d0bd be3d
000001b0: 3035 07bd 44ee 0c3e 58cc 8abe 8068 56be
000001c0: 344b 513e e45b 51be b00d 133e ae03 b2be
000001d0: 0005 6ebc 0015 3cbc bc1b 5b3e a07e b6bd
000001e0: 2059 953e acb0 6bbe 5cb6 a5be fca2 8ebe
000001f0: 0868 253e 8c99 71be e063 e2be 60e9 23be
-0.39195412 -0.19238412 -0.22629422 -0.25196338 -0.3532111 -0.24718767 0.2747602 0.06894964
-0.3617869 0.47189242 0.20646864 0.2011627 0.48018527 0.11276233 -0.41428328 -0.44890386
-0.31225163 -0.2356531 0.48630136 0.06652385 0.44023776 0.40652 -0.04444301 -0.45492852
-0.14609402 -0.34974116 0.16218966 0.4941193 0.00036489964 0.077776015 0.27859598 -0.1959216
-0.4664948 -0.43475544 -0.2181902 -0.24865544 -0.007318914 -0.44974446 -0.13950378 -0.23554063
-0.031206071 0.44454187 0.46799147 0.10008681 0.048249543 -0.41229427 0.40578985 0.3302483
-0.07090056 0.47692126 -0.40932477 0.020128548 -0.30626428 -0.22349823 -0.28319037 0.26144516
-0.327851 -0.09218216 0.23489422 0.25760454 -0.2763849 -0.2347514 -0.16224241 0.044292867
-0.24412799 0.47016752 0.090516925 0.25485283 -0.026940405 0.05075085 0.35545576 -0.3728699
-0.24732476 0.31138057 0.12798482 -0.36568534 -0.17189467 -0.4159193 -0.08029306 0.42732435
0.007286012 -0.044631004 0.49733186 -0.06613928 -0.19446313 -0.2179749 0.36690557 -0.39572775
-0.30963713 0.37038213 -0.07037097 -0.3864426 -0.15154994 -0.41590017 -0.21822017 0.31224525
0.430757 0.022373557 0.065445244 -0.3219695 0.44948488 -0.40814072 0.06573498 0.16803479
-0.38834375 -0.19068855 -0.3994633 0.093135476 -0.033009708 0.13762766 -0.27109027 -0.20938301
0.20438844 -0.2044521 0.1436069 -0.34768432 -0.014527559 -0.011479616 0.21397299 -0.089108706
0.2916956 -0.23016614 -0.32365692 -0.27858722 0.16152966 -0.2359373 -0.44216824 -0.16006994

transformer_blocks.0.feed_forward.2.weight f4 [4, 128]
00000000: 1994 88bd e6e8 313d 6083 c7bc fc50 8c3c
00000010: c160 8b3d d9ed 93bd c844 fabc 18ec ef3c
00000020: 30f8 5ebd 0644 1ebd 50b6 023d 583c dcbc
00000030: 25cc 95bd 5fe7 17bd d088 473c 327e 33bd
00000040: 882a 1e3c 8642 ffbc 9668 3c3d 5e14 083d
00000050: faa7 8dbd 850c 15bd 6a40 3a3d be32 363d
00000060: 7c91 0e3d 4251 8ebd f2fa 0d3d c02e 153c
00000070: 00ec c6b8 e188 8f3d c691 59bd c1c6 9b3d
00000080: 185c b5bc bea1 aebd d880 23bc 70f2 d23b
00000090: 307b 653c 0e1b 6ebd 60f3 18bc 7ee1 183d
000000a0: 4a04 52bd 6a1b 273d 9a91 4c3d 939d 22bd
000000b0: 6870 c2bc b029 babc cdb0 a33d da89 413d
000000c0: f8a9 c2bc b2db 743d cefd 2c3d 19e1 b23d
000000d0: 0ab2 9bbd 3ead 023d 40a5 8e3c 5e94 ffbc
000000e0: d112 963d 52c2 093d c8a5 40bd 0e81 31bd
000000f0: f013 ee3b 8301 3ebd c355 6bbd 37db 3dbd
00000100: e086 a63c b2ea 9bbd 7a17 4abd 27a5 803d
00000110: 003d fd39 74fc 0e3d d0d2 4d3c c055 32bd
00000120: a631 543d 644a ab3c 80f8 063c 8c34 aabd
00000130: 29bb 07bd 8ffd a0bd 9f35 81bd 40a1 9d3a
00000140: b13d 823d fc10 5cbd 3c88 103d fd00 853d
00000150: c072 b8bb f8eb 85bd 3014 9cbd a297 6c3d
00000160: 1b0c 9f3d f41b 87bd 911a 953d 0077 12bd
00000170: c25c 543d 908c 37bc 64d5 87bd 3ec0 413d
00000180: 3224 96bd 3137 5cbd e0aa 00bc 9e3c b1bd
00000190: 5ad4 3e3d 20cb 15bb f45a 99bd 500f 31bc
000001a0: 3ca7 debc 4272 5f3d 6021 963b bc1e de3c
000001b0: e6b6 26bd e8a6 433c 4e2d 3b3d 0c18 b5bc
000001c0: 9f97 b23d c2be 183d 3e3d 413d 8a47 7fbd
000001d0: 805d 4f3c 50eb 0abc 0760 a2bd a0e2 b1bb
000001e0: e01e f23b 9cfa b03c 8ec1 363d a493 993c
000001f0: 727d 713d 1e8b 263d a0d0 833b 6874 143d
00000200: 9922 863d 0248 f1bc 10e1 003c 185f 9bbc
00000210: 3091 6cbd 008e ad3b 48aa 763c 5bac 05bd
00000220: be43 2b3d 01de 9b3d 2695 45bd 0032 513c
00000230: e012 cd3b 0863 49bc d251 14bd befe 97bd
00000240: 1011 0d3c ee68 763d 5fc9 843d b23e 2c3d
00000250: 1f55 b23d 86b6 3c3d 95c6 75bd eea9 353d
00000260: ed32 98bd 2700 953d 8449 a3bc 5a07 25bd
00000270: b5e4 5abd e8e6 54bd 5e14 edbc 4da5 9e3d
00000280: 10e8 483c bcbd 72bd eb48 9cbd c441 b3bd
00000290: 8c71 99bd 0002 6f3c 93d3 1dbd 15cd a83d
000002a0: 543d 093d 5b3d 65bd 8068 ad3b 3f89 9b3d
000002b0: 60eb 4cbc 8098 a23a 7709 51bd 92e2 b0bd
000002c0: 559f ad3d e794 b43d e25f 43bd 2217 9bbd
000002d0: b4d0 0c3d 3544 983d 1284 603d ea8f 73bd
000002e0: e6b1 73bd 46d9 7d3d 88d9 c33c dac6 5bbd
000002f0: f6b1 133d 0123 983d 1411 57bd ccb2 bb3c
00000300: d8c5 85bd d2b7 aabd 9d0a 16bd 8988 9ebd
00000310: 3d72 83bd e2e0 753d 3639 433d 2fa3 53bd
00000320: c626 483d a8b4 b2bc 6a78 353d da59 a7bd
00000330: 121a 10bd 783b a4bc 7ccd e83c 602d a73b
00000340: d47f 01bd 9210 713d 9fc3 993d f6dd 8fbd
00000350: 1c92 cabc ad63 853d 8d84 19bd a820 d7bc
00000360: 036d 9d3d 774e 843d 7b30 4cbd 7849 e13c
00000370: b598 803d 4778 15bd 0e6e 133d 30c9 7cbc
00000380: eaf6 3f3d 8b4d 21bd 31f0 ae3d 1119 29bd
00000390: 7a7c aebd 986a a9bc d0a5 56bc 3267 78bd
000003a0: e0f1 a73c 4df3 39bd f9e4 a83d 5026 10bc
000003b0: cce1 e13c 1084 d53c bb03 01bd 1088 783c
000003c0: 3e9b 403d 6888 ad3c 1240 793d a6a9 6d3d
000003d0: 3ff6 9a3d 73f1 833d 34ef 91bd 7061 84bc
000003e0: a32b 81bd 72f7 65bd e08f 4ebc 4cf5 9bbd
000003f0: 905c b03b 2467 0c3d db82 afbd 1088 88bd
-0.066688724 0.043435 -0.024354637 0.01712846 0.06805564 -0.072231 -0.030550376 0.029287383
-0.05443591 -0.03863909 0.031912148 -0.026884243 -0.07314328 -0.037085887 0.012178615 -0.04382152
0.009653695 -0.03115965 0.04599818 0.03322255 -0.069168046 -0.036388893 0.045471586 0.044481985
0.034806713 -0.069490924 0.03466315 0.009105384 -9.485334e-05 0.070085295 -0.053117536 0.07606269
-0.02213864 -0.085269436 -0.009979449 0.006437592 0.014006421 -0.05813127 -0.009335369 0.03732442
-0.05127362 0.04079763 0.049943544 -0.039701056 -0.02373524 -0.022724956 0.079927064 0.047250606
-0.023762688 0.05977983 0.042234235 0.0873434 -0.07602318 0.031903498 0.017412782 -0.031198677
0.07327808 0.033632584 -0.0470331 -0.043335967 0.0072655603 -0.04638816 -0.057454836 -0.046351638
0.020327985 -0.07613124 -0.049338795 0.062815 0.0004830137 0.034908727 0.012562469 -0.04353881
0.05180516 0.020909496 0.008237958 -0.08310804 -0.033137474 -0.078608625 -0.063090555 0.0012026206
0.06359423 -0.053727135 0.035286173 0.06494329 -0.0056289136 -0.06539148 -0.07621038 0.057761796
0.07765981 -0.065971285 0.07280458 -0.03575802 0.051846273 -0.011202946 -0.06632498 0.047302477
-0.073311225 -0.053763572 -0.00785324 -0.0865414 0.046589233 -0.0022856668 -0.07488051 -0.010806873
-0.027179353 0.054552324 0.0045816153 0.027114265 -0.04070177 0.011941649 0.045697503 -0.022106193
0.08720326 0.037291296 0.047177546 -0.062324084 0.0126565695 -0.008478954 -0.07928472 -0.005428627
0.0073889345 0.021603875 0.044618182 0.018747158 0.058957525 0.040660016 0.004022673 0.036243826
0.06549568 -0.029453281 0.007866159 -0.018966243 -0.05775565 0.0052964687 0.015055247 -0.032635074
0.04181265 0.07610703 -0.048237942 0.012768269 0.0062583536 -0.012291677 -0.036210842 -0.07421635
0.008610025 0.060158662 0.06483721 0.04205198 0.08707642 0.046072505 -0.060003836 0.04435151
-0.07431588 0.0727542 -0.019932516 -0.040290214 -0.05344077 -0.05197802 -0.028940376 0.07746372
0.012262359 -0.059262976 -0.076310955 -0.08752778 -0.074923605 0.014587879 -0.03853185 0.08242241
0.033505753 -0.055966716 0.0052919984 0.07594537 -0.01250729 0.0012405068 -0.051034417 -0.08636965
0.08477656 0.08817463 -0.047698863 -0.075727716 0.034378722 0.074348845 0.054813452 -0.05946342
-0.05949583 0.061974786 0.023907438 -0.053656437 0.03605839 0.074285515 -0.05250652 0.022912405
-0.06531876 -0.08335842 -0.036631215 -0.07740886 -0.064182736 0.060028918 0.047661982 -0.051669296
0.048865102 -0.02181466 0.04430429 -0.08171435 -0.035181113 -0.020047888 0.028418295 0.0051018447
-0.031616047 0.058853693 0.07508015 -0.070247576 -0.024727874 0.06513152 -0.037479926 -0.026260689
0.07686808 0.064602785 -0.049850922 0.027500853 0.062791266 -0.03649166 0.03599363 -0.015428826
0.046866335 -0.03938059 0.085419066 -0.04128367 -0.08519836 -0.02068071 -0.013101056 -0.06064529
0.020501077 -0.045398045 0.08246798 -0.008798197 0.027573489 0.026063949 -0.0314977 0.015169159
0.04702305 0.021183208 0.060852118 0.058023117 0.07566499 0.06442537 -0.071257025 -0.016159743
-0.06307151 -0.056144185 -0.012607545 -0.07615146 0.005382128 0.03427805 -0.085698806 -0.06666577

transformer_blocks.0.feed_forward.2.bias f4 [4]
00000000: ef29 23bd 45e0 af3d 169a 0d3d 04aa f33c
-0.039834913 0.08587698 0.034570776 0.029744156

transformer_blocks.0.norm1.weight f4 [4]
00000000: 0000 803f 0000 803f 0000 803f 0000 803f
1.0 1.0 1.0 1.0

transformer_blocks.0.norm1.bias f4 [4]
00000000: 0000 0000 0000 0000 0000 0000 0000 0000
0.0 0.0 0.0 0.0

transformer_blocks.0.norm2.weight f4 [4]
00000000: 0000 803f 0000 803f 0000 803f 0000 803f
1.0 1.0 1.0 1.0

transformer_blocks.0.norm2.bias f4 [4]
00000000: 0000 0000 0000 0000 0000 0000 0000 0000
0.0 0.0 0.0 0.0

fc1.weight f4 [128, 360]
00000000: cd5d 53bd ecbb 28bc b48a 6dbc 77cd 393d
00000010: 0021 7db9 70d6 30bd 5034 2d3b 1a60 0ebd
00000020: 4a14 c63c 3c28 733c 5a29 55bd ff2a 2fbd
00000030: 442f 3b3c 403f d93b 3f5e 573d 3883 14bc
00000040: 81f0 53bd 4579 153d 6310 21bd 4613 b33c
00000050: 79cf 253d a0b7 8f3b d083 d0bc cc3d 2d3c
00000060: e0e3 e63b b6b1 ab3c 72f6 e23c 5666 ee3c
00000070: 009b 59bc c7e0 2c3d 0e8f 8fbc 8ebc d73c
00000080: 403f 10bd 065a 20bd 0460 453c 191d 34bd
00000090: d0d4 18bc 1c94 1e3c 500e 90bc d6da d03c
000000a0: e5ce 163d 7626 d93c c040 66bb 91b0 4a3d
000000b0: 4170 3c3d fa59 56bd 92c5 e1bc 64b1 6a3c
000000c0: a0cd d0bb f66d ed3c 76a1 15bd c853 82bb
000000d0: f44a 473c 2339 2b3d 48f1 a63b f93f 2d3d
000000e0: 4e51 09bd 4a7f 22bd 34c9 86bc 4a60 a23c
000000f0: dfd9 413d f043 26bc 18ad a6bb a952 2b3d
00000100: 38b3 efbb ee0b 803c b800 05bc ac6d 163c
00000110: 1ef5 4bbd 3ac3 cc3c 34a9 98bc f1f1 e9bc
00000120: bd59 dabc fbe5 2abd bc1d 403c 4bed 403d
00000130: f036 85bb c24d ba3c 6f3d c1bc 3f67 0a3d
00000140: 12e0 19bd 1a88 87bc 9c10 3a3c 7d5e 343d
00000150: 4e0b ba3c 0a15 a0bc 07f0 503d a8e6 a4bb
00000160: d1dc f1bc fe8e a2bc 9109 0d3d d33d eabc
00000170: 96f7 e1bc 90d5 ba3b 3059 b5bc 2308 2c3d
00000180: 5e34 81bc a18d 513d ddb3 393d da46 d63c
00000190: e409 0dbc 9099 4fbb 00fa bab9 6c1f 3dbc
000001a0: c188 4a3d c1e5 093d ba21 4cbd 840a 1bbc
000001b0: 65e6 46bd 7a31 d93c e08c a0bc 9de4 0a3d
000001c0: 0305 0c3d 8093 193a 70ee 4d3b 1483 edbc
000001d0: 9561 23bd 1f5d 343d 830b 2b3d 5be8 4d3d
000001e0: 3c40 1ebd 861e 02bd 5880 41bc 123f f13c
000001f0: fa5b e23c de1d 0bbd e2c0 3abd 0aa6 c13c
00000200: f7e8 56bd 3421 b3bc f959 4a3d 256a f8bc
00000210: 9108 eabc a4d0 243c c13a 073d 972f 073d
00000220: 4089 1cbb 3100 4fbd 1829 45bc a98f d1bc
00000230: dba2 023d 05c4 543d a8ee 0fbd 70b2 953b
00000240: f477 453c 371c 553d d457 3f3c bbf4 dabc
00000250: 04ac 50bc 14ef 58bc a8c9 c2bb ca26 e03c
00000260: d3dc 45bd 29b9 1ebd b89c 06bd 4e48 45bd
00000270: 13dd 283d 33e0 34bd 6292 e93c 28e2 d2bb
00000280: 3048 2cbc 9c87 1fbd 9030 c13b d604 1fbd
00000290: 05e9 efbc a415 263c c88a 12bc d645 943c
000002a0: 1469 53bd ed8c 24bd 9bf9 0e3d 4c4e 38bd
000002b0: 72fc d83c 44c2 393c 231d 0cbd de43 9bbc
000002c0: 301d 7d3b 9bd0 efbc 224e efbc 54fc 4abd
000002d0: dc3e 313c e8aa 80bc bb43 57bd 0819 a63b
000002e0: fe46 91bc b465 243c 8cd8 20bd 31e1 d8bc
000002f0: 031b 003d c4d6 a9bc de7d f43c ae82 a63c
00000300: af34 2a3d ea27 11bd 7d43 1f3d 72df a13c
00000310: 8054 14bd 54d0 4ebd 9835 0a3c 896c 2f3d
00000320: e4b0 593c 78c4 a03b b2d6 bd3c 4c6e d1bc
00000330: ec26 3c3c b2c4 ef3c bc5d 04bc c867 9bbb
00000340: e7c6 0f3d 6edc 9ebc 4fd9 c3bc 9b31 f1bc
00000350: 25d0 2d3d 0fcb 313d 1c79 1bbc 1c75 6b3c
00000360: 2822 80bb 2556 203d 806a cd39 44bd 2fbd
00000370: 84dc 90bc 36eb d83c 7a75 9c3c 74b7 513c
00000380: c08b 643b 3367 1abd e016 90bb ca51 25bd
00000390: 87e8 31bd e67a 2dbd 06b4 d03c 851a 363d
000003a0: a8f1 17bc f8d9 cfbb 7b2b f3bc 9620 e53c
000003b0: e6e9 f33c 277b 42bd 17b0 49bd 708b 623b
000003c0: 0022 8fbb a23d 1dbd b3ad 38bd 31cb 083d
000003d0: ba3a 4ebd 443e 08bc 1ecc adbc 8d4f 183d
000003e0: 5d44 47bd c0a3 56bd 3a9c e83c 8c7f 0cbd
000003f0: 7bd3 57bd 8850 02bc 7d2e cdbc ec67 303c
-0.051603127 -0.01029871 -0.014498401 0.045361962 -0.00024140254 -0.043173254 0.0026428886 -0.03475962
0.024179596 0.014841136 -0.05204139 -0.042765614 0.011424843 0.0066298544 0.052580114 -0.009064488
-0.051743034 0.036492605 -0.03932227 0.021859776 0.040481064 0.0043859035 -0.025453478 0.010573816
0.007046208 0.020958763 0.027705405 0.029101532 -0.013281584 0.042206552 -0.017524268 0.026335027
-0.03521657 -0.039148353 0.012046818 -0.043973062 -0.009328082 0.009678867 -0.01758495 0.025494974
0.036818404 0.026507597 -0.003513381 0.049484793 0.04600549 -0.052331902 -0.02756003 0.01432452
-0.0063721687 0.028983098 -0.036530934 -0.0039772727 0.012163866 0.041802537 0.005094681 0.042297337
-0.033524804 -0.039672174 -0.016453363 0.019821305 0.04732692 -0.0101480335 -0.0050865524 0.041826878
-0.0073150657 0.015630689 -0.008117847 0.009181421 -0.04979431 0.024995435 -0.01863537 -0.02855775
-0.026654119 -0.041723233 0.011725839 0.0471013 -0.004065387 0.022742156 -0.023588864 0.03378987
-0.037567206 -0.01654439 0.011356499 0.044035424 0.022710469 -0.019541282 0.051010158 -0.005032379
-0.029524239 -0.019843575 0.03443295 -0.028593933 -0.027583878 0.005701728 -0.022137254 0.041999947
-0.015772041 0.05116046 0.045337547 0.026156832 -0.008608315 -0.0031677224 -0.0003566295 -0.011543136
0.049446825 0.033666376 -0.04983685 -0.009462956 -0.048559565 0.02651285 -0.019598424 0.03390943
0.034184467 0.0005858466 0.0031422637 -0.028993167 -0.039887983 0.04403412 0.041759025 0.05027042
-0.038635477 -0.03176739 -0.011810385 0.02944902 0.027631748 -0.03396403 -0.045594104 0.023638744
-0.052468266 -0.021866418 0.04940221 -0.030324051 -0.028568538 0.010059509 0.033015016 0.03300437
-0.0023885518 -0.050537292 -0.012033723 -0.025581198 0.031893592 0.05194475 -0.03513971 0.0045683905
0.012052525 0.05202886 0.011678655 -0.026728025 -0.012736324 -0.013240594 -0.0059444495 0.027362246
-0.048306298 -0.0387508 -0.032864302 -0.04816466 0.041226458 -0.044159126 0.028512184 -0.0064356513
-0.010515258 -0.038947687 0.0058956817 -0.03882297 -0.029285917 0.010136995 -0.008944221 0.018099707
-0.051613882 -0.04017346 0.03490601 -0.044996545 0.026487563 0.01133782 -0.034207474 -0.01895326
0.0038622133 -0.029274276 -0.029212061 -0.049557045 0.0108182095 -0.015706494 -0.052554827 0.005068902
-0.017734047 0.010034014 -0.039269015 -0.026474567 0.03127576 -0.020732291 0.029845174 0.020325985
0.04155415 -0.035438456 0.03888272 0.019759867 -0.036213398 -0.050491646 0.008435629 0.042828117
0.013286803 0.0049062334 0.023173664 -0.025565289 0.011483889 0.029268596 -0.008078989 -0.0047425963
0.035101797 -0.019392218 -0.023907332 -0.029442599 0.04243483 0.043406542 -0.009489324 0.014371183
-0.0039103217 0.039144654 0.00039179996 -0.042905107 -0.017683275 0.026479345 0.019098986 0.012800086
0.0034873337 -0.037696075 -0.004397258 -0.040361203 -0.043434646 -0.042353533 0.025476467 0.044458885
-0.009273924 -0.0063431226 -0.029683819 0.02796964 0.029774617 -0.04748073 -0.049240198 0.0034567975
-0.004368067 -0.038388856 -0.045087527 0.033396903 -0.050348975 -0.0083156265 -0.021215495 0.03718524
-0.04864918 -0.052402258 0.028394807 -0.034301326 -0.052691918 -0.00795377 -0.025046581 0.010766964

fc1.bias f4 [128]
00000000: 7a98 a83c fed6 ca3c 81de b7bc e6b8 babc
00000010: 9cc7 473c 2b5c 11bd 237d 55bd d206 80bc
00000020: 7e7b 9a3c cb54 183d e6b0 86bc 54de 3ebd
00000030: 68dc 15bd 8703 033d 7eb4 f33c 0c79 39bd
00000040: 64e6 4b3c 78b7 0dbd 6819 e83b 6443 50bc
00000050: 1358 233d 4605 4bbd a8a1 4abc eaf0 b4bc
00000060: 70fd ca3b e4fe 343c 0c44 38bd ac97 183c
00000070: a03a e7bb b6b3 833c 0c1b 86bc 04cd 9dbc
00000080: 50d5 e4bc 7daf bdbc 3f6b 1e3d a16b 3c3d
00000090: 9996 163d 3292 f33c 19f1 493d 8940 0bbd
000000a0: 2363 0c3d 9654 babc dc0a 7abc 4ef2 ec3c
000000b0: a806 39bc f826 34bc be1f 97bc a384 0f3d
000000c0: e332 013d 0040 55bd 38f6 0fbd 4314 0bbd
000000d0: 70ac 553b e95a 2fbd d498 31bc 139a 393d
000000e0: 7268 cd3c 06cc 07bd f2eb cfbc 0f7b 4d3d
000000f0: a73c 56bd 10c9 1b3c 2a2e 893c d798 383d
00000100: 235a 133d 8a83 b93c 1b33 fdbc 5c1a 6f3c
00000110: 028d 12bd 0a2e aa3c c1ec 4a3d b6f4 afbc
00000120: 4086 283a 5e55 f93c 5244 14bd 6c17 36bc
00000130: bc14 133c ddbd 523d 3bb1 57bd c960 40bd
00000140: bc4f 7f3c 25fa 49bd 09c5 503d ced4 d8bc
00000150: d48b 59bc 3fec 343d f760 443d 92ae 15bd
00000160: 579f 443d e43f 50bd f02f 2cbd 181b 3dbd
00000170: 743a 463c 4036 653b 90e3 dabc ebfc 1c3d
00000180: f59d 563d 18bb c9bb e504 55bd cff7 413d
00000190: 355c 303d f0c4 bf3b 4ca1 343c c940 f4bc
000001a0: 0043 34b9 deb7 3dbd 6e2a 4bbd 2dac 1dbd
000001b0: c207 e43c 00dc 9739 9447 0f3c 1a49 4bbd
000001c0: 5fcb 3e3d d0e5 bdbc 8342 3f3d e791 3bbd
000001d0: d4b8 4f3c 1cd0 073c b0de 493b 4c87 93bc
000001e0: 60d1 0f3c 7abb e63c 4de5 073d 467f 34bd
000001f0: e822 a6bb 542b 533c da42 e53c 7956 1b3d
0.020580519 0.02476072 -0.022444965 -0.022793245 0.012193587 -0.03548829 -0.052121293 -0.015628252
0.018857714 0.03719024 -0.016441774 -0.046598747 -0.03658715 0.031985786 0.029749151 -0.045281455
0.012445066 -0.034598798 0.007083107 -0.01271138 0.039878916 -0.049565576 -0.012367643 -0.022087533
0.006194763 0.011047099 -0.04498677 0.009313505 -0.007056549 0.016076904 -0.016370319 -0.019262798
-0.027933747 -0.023154968 0.038676497 0.04600108 0.036764715 0.029732797 0.049302194 -0.033997092
0.03427423 -0.022745412 -0.015261378 0.028924134 -0.011293091 -0.010995619 -0.018447753 0.0350386
0.03154267 -0.05206299 -0.035146922 -0.03395487 0.0032604001 -0.042811308 -0.01083966 0.045312952
0.025074217 -0.033153556 -0.025381062 0.050166186 -0.052303936 0.009508386 0.016745646 0.045067634
0.035974633 0.02264573 -0.030908158 0.014593687 -0.035779007 0.020773906 0.049542192 -0.021478992
0.0006428696 0.030436214 -0.036197968 -0.011113983 0.008977111 0.0514506 -0.052659255 -0.0469673
0.015582975 -0.049310822 0.050969157 -0.02646866 -0.0132779665 0.044170614 0.047944035 -0.036543436
0.04800352 -0.05084218 -0.042037904 -0.046168417 0.012098897 0.0034974962 -0.026719838 0.03832714
0.052396733 -0.0061563365 -0.05200662 0.04735547 0.043056685 0.005852334 0.011024784 -0.029816048
-0.00017191097 -0.046317928 -0.04960101 -0.038494278 0.02783573 0.00028964877 0.008745093 -0.049630262
0.04658067 -0.023180872 0.04669429 -0.04579344 0.012678344 0.008289363 0.0030802898 -0.01800885
0.008777946 0.028165568 0.033177663 -0.04406669 -0.005070079 0.012888748 0.027985979 0.037924264

fc2.weight f4 [128, 128]
00000000: 4014 17bb c55c 843d 3cae 933c 16d4 7a3d
00000010: 7e14 9cbd 3966 8d3d a53d 60bd 1628 abbd
00000020: 0f32 18bd 6aa9 1a3d 8054 f83c e0fa 8fbc
00000030: 7f3a 06bd def0 133d d0ad c33c 60f4 51bb
00000040: 7ad9 3b3d 681f a8bd b079 22bc f903 2bbd
00000050: 0ebc eabc 19ff 973d 11df 9d3d 986b 37bc
00000060: 80c4 79bb 9e9e 36bd a953 8e3d aece 5f3d
00000070: 7862 603c 21c5 9c3d e0d0 bf3c a215 7dbd
00000080: f4cc b2bd 00b1 50bd 8d3c 58bd cca9 82bc
00000090: 565e 223d a8e7 c03c e36b a0bd 622f 033d
000000a0: 52f2 603d 5336 2bbd 4d00 2ebd 6156 93bd
000000b0: 6096 503c 40f4 52bb 78ba 1c3c 2402 2fbd
000000c0: 144a 0c3d 006f 8c3a d2c1 53bd aea8 223d
000000d0: f64f 6e3d 7fab ac3d 1b05 8f3d 05fa b13d
000000e0: a01d 343c 701d 18bc 0057 26bc b968 a73d
000000f0: 8dab 8d3d 6e6e 293d d02c 403c 2c7d a2bc
00000100: 0a24 5a3d 3aad 263d 0bfd 44bd 163a 8fbd
00000110: 70d9 9abc 7043 fd3c 4aa0 783d ec46 9dbc
00000120: b497 043d 1d7f ae3d 20a1 fc3b 0bd1 8ebd
00000130: 1cc1 65bd e8cd d63c ece1 4cbd b216 52bd
00000140: fef5 57bd b078 f8bb 9c91 853c 0079 a53c
00000150: 3c4c 09bd 8d75 73bd 57d3 9a3d 000d c3ba
00000160: 1a1b a5bd ba8d f5bc 7ea8 1e3d dc4a 9c3c
00000170: da0e 693d 8062 01ba d2e3 7d3d 0046 1c3b
00000180: 42c3 773d 68d5 353c 3093 d83c 140c e63c
00000190: 2155 873d c013 0e3d 3634 a0bd 0cb5 8fbd
000001a0: 981d 92bd 221b 543d c037 df3b 6e6f 553d
000001b0: db62 a33d 1a33 313d a09f 2f3c 543b 3cbd
000001c0: 1be5 ac3d 5c59 d3bc 77b5 813d d278 a2bd
000001d0: 103b 49bc 00c2 1fbc 48da 96bd 872b 9b3d
000001e0: f7e7 853d 4a31 2c3d ae78 5d3d 763c 113d
000001f0: 27cf a13d 0b66 88bd 3a5a 6fbd 8f6d 973d
00000200: 18e6 98bc 2f97 9d3d fe53 9abd 00be 5e3a
00000210: a457 e33c 80b4 c03c 86bd 4a3d cd2c b33d
00000220: c744 22bd f057 343c dea1 6d3d 8037 aa3c
00000230: e4af aebc 7d4e a1bd e383 1ebd 0410 82bc
00000240: 7013 033c 08b3 b6bc 2717 a03d c023 94bd
00000250: b4c0 883c c436 ed3c 487e ac3c 0d53 9a3d
00000260: 3946 b13d f21f 69bd 9352 96bd 50a2 133c
00000270: 2bc5 98bd 0649 acbd bfa6 24bd 0ed8 343d
00000280: 809b 4f3b c022 873b e8e2 1f3c fee4 1d3d
00000290: d400 88bd 0450 8fbd 0a53 293d 1cdf 79bd
000002a0: b0c6 a3bb 8a87 3d3d 7f3a a33d 5840 69bc
000002b0: 6722 993d c3e6 adbd 9cd0 de3c 982c 44bc
000002c0: 1e9e 163d 4a2a 3e3d ccff ce3c e18c 4cbd
000002d0: 36fe 2c3d 811b 10bd 0ec9 8cbd 150b 823d
000002e0: 25ae 953d 7efc 09bd cafc 683d c54c 843d
000002f0: 5005 de3b a04c 30bb d694 3e3d 12e0 90bd
00000300: 55a8 b23d 5a31 1ebd 5808 7ebd 0b0a 4cbd
00000310: 1711 ad3d 889c 983c 5e6e 273d 4204 21bd
00000320: 80cd bf3c ea07 afbd 0ab8 1f3d d8d3 9bbd
00000330: 610a 5ebd b0a4 0dbc 50f2 a23c 3c13 b2bc
00000340: 5c44 a9bc 5606 1bbd 18ef 00bd 825c 4b3d
00000350: 0051 e33a 4039 afbd b164 8bbd 00b2 073a
00000360: aaf1 473d 527e 78bd 1fd5 883d e003 69bc
00000370: e4b3 b4bd 21da a43d 1020 e6bb 8b39 52bd
00000380: 600e c33b 48de 36bd ac41 db3c 52ab 183d
00000390: c0d8 91ba 723b 2ebd 7057 e1bb 5a1a a4bd
000003a0: 0151 823d ec28 68bd 35bf 973d 1e58 123d
000003b0: e0d1 08bc 90b2 973c 2585 853d 042a 82bc
000003c0: 4c78 7ebd b027 5abc a025 ba3b e8ce 18bc
000003d0: 2ea3 533d f608 163d f887 5cbd 86fd 8cbd
000003e0: 858c 943d 120e 3cbd de08 7bbd de29 5cbd
000003f0: b098 0abc 42f5 2b3d 64c1 0f3d f1e2 a93d
-0.0023052841 0.06463007 0.018027417 0.061237417 -0.07621096 0.06904263 -0.05474629 -0.08357255
-0.037157115 0.037759222 0.03031373 -0.017575681 -0.03277063 0.03611838 0.023886591 -0.0032036528
0.0458617 -0.08209115 -0.009916708 -0.041751835 -0.028654125 0.07421703 0.07708562 -0.011195086
-0.0038111508 -0.044584863 0.06949551 0.054640464 0.013695352 0.07654787 0.023415029 -0.06178821
-0.08730498 -0.05095005 -0.05279212 -0.015950106 0.039640747 0.023547962 -0.07833078 0.03202761
0.054918595 -0.041799854 -0.042480756 -0.0719421 0.012731165 -0.0032189041 0.009565942 -0.04272665
0.034250334 0.0010714233 -0.051698513 0.039711647 0.058181725 0.08431148 0.06983396 0.086902656
0.010993391 -0.009284362 -0.010152578 0.08174271 0.06917486 0.04136508 0.011729434 -0.019835077
0.053257026 0.040692545 -0.048092883 -0.06993501 -0.01890251 0.030915946 0.06069974 -0.019198857
0.032371238 0.08520339 0.0077096373 -0.069734655 -0.056092367 0.02622123 -0.050020143 -0.051291175
-0.05272483 -0.0075827464 0.016304784 0.020199299 -0.03351997 -0.059438277 0.07559841 -0.0014881194
-0.0806181 -0.029974807 0.038734905 0.019078664 0.05689893 -0.0004935637 0.061984845 0.0023845434
0.060488947 0.011098243 0.026437372 0.028081931 0.06608034 0.034686804 -0.078224584 -0.07016954
-0.07134551 0.05178369 0.006812066 0.05210822 0.079778396 0.043261625 0.01071921 -0.045955017
0.08442136 -0.025799446 0.0633344 -0.07933201 -0.012282148 -0.009750843 -0.073658526 0.075766616
0.065383844 0.042039193 0.054070167 0.03545805 0.07900839 -0.06660088 -0.058435656 0.073939435
-0.018664405 0.076948516 -0.075355515 0.000849694 0.027751751 0.02352357 0.04949715 0.087487794
-0.039616372 0.011007294 0.058015697 0.020778418 -0.021324106 -0.078762986 -0.038699996 -0.015876777
0.00800024 -0.022302166 0.07816916 -0.07233381 0.01669345 0.028956778 0.02105631 0.07535372
0.08655972 -0.05691523 -0.073399685 0.009010866 -0.07459482 -0.084123656 -0.040198084 0.04415136
0.0031678379 0.0041240156 0.0097586885 0.038548462 -0.06640783 -0.06997684 0.041338958 -0.06100379
-0.0049980506 0.04627184 0.079701416 -0.014236532 0.07477265 -0.0849128 0.027199082 -0.011973523
0.036771886 0.04642705 0.025268458 -0.04993904 0.042234622 -0.03518248 -0.06874286 0.0634977
0.07308606 -0.03368806 0.056881703 0.06459955 0.0067755356 -0.002690114 0.04652866 -0.07073988
0.08723513 -0.038621284 -0.062019676 -0.049814265 0.08450525 0.018629327 0.04087674 -0.0393107
0.02341342 -0.08546431 0.038993873 -0.07608765 -0.054209117 -0.008645222 0.019890934 -0.021737687
-0.02066248 -0.03784784 -0.031478018 0.04964877 0.0017342865 -0.085558414 -0.06806315 0.00051763654
0.048814453 -0.060667343 0.066812746 -0.014222115 -0.08823374 0.08049417 -0.007022865 -0.05132441
0.0059526414 -0.044645578 0.026764713 0.03727276 -0.0011127219 -0.04253716 -0.0068768784 -0.08012839
0.063631065 -0.05667965 0.07409517 0.035728566 -0.008350819 0.018517762 0.06519536 -0.015889175
-0.062126443 -0.013315126 0.005680755 -0.009326674 0.051669292 0.03662964 -0.053840607 -0.06884293
0.072533645 -0.045911856 -0.061287753 -0.053750865 -0.008459255 0.041981943 0.03509654 0.08295239

fc2.bias f4 [128]
00000000: a8ce 87bd 78e1 783c 937e 24bd 34e9 a1bc
00000010: 88f6 993c 663d aebd 56ba a7bd 1eb0 533d
00000020: ac62 b23c 90e8 85bb 6830 ff3c 4949 ab3d
00000030: 383f 5dbd d3be 90bd a1d0 aa3d 65ba 963d
00000040: 5f4f 2bbd 0899 7c3c 58fe d43c 626c 4a3d
00000050: c4e5 f73c 7b9c 873d 278a a9bd ea58 4e3d
00000060: 81bd 59bd 226e 7b3d dcff ecbc 65d2 b23d
00000070: 9cba 9bbd 9c15 ad3c 881c a03c 7007 83bc
00000080: ee8f d8bc e872 ec3c 33b9 a53d 60e4 a3bd
00000090: 90ef 9e3c d29e adbd 6efb 84bd eef0 223d
000000a0: 52fd 663d d8fd 8ebd 1745 a83d d9a9 8b3d
000000b0: 18ff 08bd f475 9fbd 8204 6e3d ebed 9cbd
000000c0: 307c 08bd a042 86bb 86cc e0bc 5b4b ad3d
000000d0: 2c31 80bd 493e a2bd 5de5 a33d 59cf 61bd
000000e0: 40dc 933c 0ed4 733d 6fa5 b13d 9130 7dbd
000000f0: a982 67bd b384 973d 8705 a73d d058 2abc
00000100: 0c9c a1bc c0c6 d03b 2034 293b 32f5 213d
00000110: ae90 20bd d0cd 82bd 7870 dc3c 9f32 8b3d
00000120: 1f59 54bd 7730 8f3d ef84 a23d f84d 4ebc
00000130: 5491 953c 80ff 7c3b adc3 b23d 94c2 fb3c
00000140: 208a 0fbc 5423 3cbd 6297 793d ac92 a53c
00000150: 0568 89bd 1b4b b23d 30ea d1bb 6a86 433d
00000160: 7d2f 04bd 2a4a 25bd f3e9 aa3d 187b a7bc
00000170: 3f46 953d 04b9 823c 8caa d6bc 5e9e 543d
00000180: 788f f53c 9033 9e3b 00cb 14ba a0f5 3f3c
00000190: 4019 6f3b ab51 a43d 7af4 083d 536c 10bd
000001a0: f465 c9bc 9555 aa3d 60ff 2c3c ad15 933d
000001b0: 70e1 4abc 7704 adbd beca 5d3d a2f5 13bd
000001c0: 4067 46bc 9666 753d b0e6 d5bb 5c67 833c
000001d0: 9000 9ebb d8ad 5c3c 44ba 9b3c 20f3 56bc
000001e0: c025 c4bb 69c6 b03d 672b 863d 345d c6bc
000001f0: f64e 243d 02f9 4d3d e77d a43d fe4c a9bd
-0.066312134 0.015190475 -0.040159773 -0.01976452 0.018794313 -0.085078046 -0.08189838 0.05168163
0.021775566 -0.0040865615 0.031151012 0.083635874 -0.05401537 -0.07067647 0.08340574 0.07359771
-0.04182374 0.015417345 0.026000187 0.04941977 0.030260928 0.06621643 -0.082783036 0.050377764
-0.05315924 0.061384328 -0.028930597 0.08731536 -0.07603952 0.021128468 0.019544855 -0.015994757
-0.026435819 0.028863385 0.080919646 -0.080025434 0.019401342 -0.08477558 -0.06493269 0.03978055
0.05639393 -0.069820106 0.08216303 0.06819505 -0.0334464 -0.0778617 0.058109768 -0.07662567
-0.03332156 -0.004097298 -0.027441274 0.084616385 -0.06259379 -0.07922036 0.08002732 -0.055129383
0.01804936 0.059528403 0.08674132 -0.061813895 -0.05652109 0.07398357 0.08155351 -0.010397151
-0.01972773 0.006371349 0.0025818422 0.039540477 -0.039200477 -0.06386912 0.026909098 0.067967646
-0.051842805 0.06991666 0.07935511 -0.012591831 0.018257774 0.0038604438 0.087287284 0.03073243
-0.008760959 -0.04593213 0.060935386 0.02021154 -0.06709293 0.087057315 -0.006406091 0.04773561
-0.03227185 -0.04035393 0.083454035 -0.020444438 0.07288789 0.015957363 -0.02620437 0.051908843
0.029975638 0.004827924 -0.00056760013 0.011716276 0.0036483556 0.080233894 0.033436276 -0.035259556
-0.024584748 0.08317105 0.010558933 0.07181869 -0.01238285 -0.08448117 0.05414843 -0.036122926
-0.012109578 0.059912287 -0.0065277442 0.016040497 -0.0048218444 0.013469182 0.019009717 -0.013119489
-0.0059859455 0.08631594 0.06551247 -0.024214365 0.040114366 0.0502863 0.080318265 -0.08266638

fc3.weight f4 [1, 128]
00000000: fe8a 723d d56e 823d 9407 8cbc ff9b a13d
00000010: 2e59 98bd 9e62 68bd c238 703d dabd 2e3d
00000020: 5653 163d 84be 3abd 3053 ef3b 3924 5ebd
00000030: 7bef 813d 1d85 8e3d 387a 043d a0b2 92bd
00000040: a0af 58bb 505a a3bb 60c5 a83c 1c9a cebc
00000050: fd03 b4bd d8be 78bc a2a1 97bd 9037 a7bc
00000060: aa1b 7f3d c8f7 81bc dec6 513d d06e ca3c
00000070: ae0d 7ebd 5fca 3abd acf8 9e3c d01d fbbb
00000080: e03c 063b 3c81 80bd 3687 723d ac2e a03c
00000090: d811 3dbc 58e0 e03c 7077 48bc 089d b4bc
000000a0: 7ab6 1d3d 60ff e43b 307d d63c 9509 0abd
000000b0: b024 6cbc ef7e 8b3d 204a c73c 50f3 9fbb
000000c0: b056 9dbc 40b4 2bbb 665e f4bc 247a fe3c
000000d0: a83d a03c c070 f7bb e0ef 7e3c 38c1 2ebc
000000e0: 38f5 debc ae90 18bd 9994 1dbd 5401 52bd
000000f0: 0be2 95bd abaf 27bd 4315 833d cc06 edbc
00000100: 756e 56bd f8bb eebc 89d9 ae3d 2cdb 54bd
00000110: fc2b 33bd d094 8abc d250 d9bc 2e69 2c3d
00000120: 12a7 1c3d aeb7 80bd 8add 0abd e62a 273d
00000130: 308e 5abd 4052 073c 4213 a5bd d0d0 a2bd
00000140: ac67 873c 2eb7 4e3d 540d 95bd 54bc 093d
00000150: 88e2 a6bd 80cc 443b bf8a a93d fdca 993d
00000160: ddc6 00bd 225a 403d 06ed 8ebd 6a8f abbd
00000170: 4e2e d4bc 6aac 6b3d 8817 e03c c688 7ebd
00000180: c0f6 ccbc 5490 63bd 22b4 87bd 0d42 9c3d
00000190: 1b29 993d 8d54 873d 5a99 3ebd e27a 753d
000001a0: 3bbf 9a3d 528a 533d f88e 54bd 2031 c1bc
000001b0: 6050 1b3b 26de 333d 32f5 443d 86d0 653d
000001c0: 8704 a8bd 7c9c e93c dab0 7a3d 4d64 80bd
000001d0: 28ba 80bc 60bd 423b 81ff 8c3d 0f4d 9fbd
000001e0: 1856 86bc 18e4 653c 4648 7a3d 46d8 8ebd
000001f0: e1e4 9ebd b730 92bd 7cda b23c 9b38 6fbd
0.059214585 0.06368796 -0.017093457 0.07891082 -0.07438885 -0.056734674 0.05864788 0.042661525
0.03670057 -0.045591846 0.007303618 -0.054233763 0.063445054 0.06958983 0.03234312 -0.07162976
-0.0033063665 -0.0049851313 0.020601928 -0.02521997 -0.08789823 -0.015182219 -0.07403876 -0.020412236
0.062282242 -0.015865222 0.051215045 0.024711043 -0.062024765 -0.045603152 0.019405685 -0.007663466
0.0020483062 -0.062746495 0.05921098 0.019553505 -0.011539899 0.027450725 -0.012235507 -0.022047535
0.0385041 0.006988451 0.02618274 -0.033700544 -0.014413044 0.0681132 0.024327338 -0.0048813
-0.019206375 -0.0026199967 -0.029830169 0.0310641 0.01956065 -0.0075512826 0.01556012 -0.010666184
-0.027216539 -0.037247352 -0.038471792 -0.051270798 -0.07318505 -0.040939014 0.0640054 -0.028933905
-0.052351434 -0.029142365 0.08537585 -0.05196683 -0.04374312 -0.016916662 -0.026527796 0.042092495
0.03824527 -0.06285034 -0.033902682 0.040812396 -0.053358257 0.008259356 -0.08060314 -0.07949984
0.016528927 0.050467663 -0.07277933 0.03362687 -0.08148676 0.0030029118 0.08278417 0.0750942
-0.03143965 0.046960957 -0.069788024 -0.083769634 -0.025900986 0.057537474 0.02735497 -0.062142156
-0.025020003 -0.055557564 -0.066261545 0.07629786 0.07478543 0.06607924 -0.046532966 0.059931643
0.075560056 0.051645584 -0.051894158 -0.023582995 0.002369903 0.04391303 0.0480854 0.056107067
-0.082039885 0.028517 0.061203815 -0.06269131 -0.015713766 0.0029714927 0.06884671 -0.0777837
-0.016398475 0.014031433 0.06110408 -0.06974845 -0.07758499 -0.07138198 0.021832697 -0.058403593
