ppo_training_results/value_net.pth (torch, 161447 bytes, 5 tensors)

fc1.weight f4 [128, 180]
000000 56 45 8e bd 06 02 78 bd 18 f7 8a bc 40 ab cf bb
       -0.069468185 -0.060548805 -0.016963527 -0.0063375533
000010 fc f4 85 3c a0 a6 cf bb 69 66 8e 3d 1e 1a 78 3d
       0.01635217 -0.006337002 0.06953127 0.060571782
000020 90 95 0f bc 60 4e 3c bb 94 82 15 3d ea 67 74 bd
       -0.008763686 -0.0028733239 0.036501482 -0.059669413
000030 dc 76 15 3d 20 0a ae bb ea 52 df bc 10 32 29 3d
       0.036490306 -0.0053112656 -0.027261216 0.04130751
000040 32 33 31 3d 48 34 e2 3c 76 20 9f bc 56 fd e2 bc
       0.043261714 0.02761282 -0.019424658 -0.02770869
000050 96 58 36 3d 9a 46 d7 bc db 7a 6a bd 10 35 a6 3c
       0.044518076 -0.026278783 -0.05724607 0.020288974
000060 25 82 0c bd b0 4d 41 3d 27 bb 15 bd f2 3e 21 3d
       -0.034303803 0.04719323 -0.036555436 0.03936667
000070 c0 e7 5a 3b 66 0c 60 3d 06 3d f7 bc 70 a8 2f bc
       0.0033402294 0.054699324 -0.030180465 -0.010721311
000080 58 ca 28 bc 10 fb dc 3c 37 c5 1a bd 70 f3 b3 3c
       -0.010302149 0.026975185 -0.037785735 0.021966666
000090 53 ec 8a 3d 10 7a f5 3c 6b 68 8f 3d 10 ec f6 bb
       0.067833565 0.02996543 0.07002338 -0.007535465
0000a0 29 c2 25 bd 20 5f 1f 3c 80 e2 21 3b 80 eb 0b 3a
       -0.04046837 0.009727269 0.0024701655 0.00053375214
0000b0 88 b8 2d bd 51 97 23 bd 00 a8 e7 b8 10 15 29 3d
       -0.04241231 -0.03993923 -0.00011046231 0.041279852
0000c0 00 d6 59 bd ae a0 2a 3d 1d 96 02 bd 4e 04 0e bd
       -0.053182602 0.041657142 -0.03188144 -0.034672074
0000d0 6e fb 47 3d de 01 77 3d ea 0d 80 bc 40 5e c1 3a
       0.048823766 0.060304515 -0.015631635 0.001475282
0000e0 a4 0f 52 bc 18 d2 00 3c f8 0a 03 bc 08 e6 bb 3c
       -0.012821112 0.00786259 -0.007998221 0.022936836
0000f0 38 11 8a bd d0 db 97 3c 90 3d 60 bc e9 16 93 3d
       -0.067415655 0.018537432 -0.013686553 0.07182104
000100 56 19 71 3d 88 99 2f bd 51 94 09 bd 90 7d 95 bd
       0.058862053 -0.04287103 -0.03358871 -0.0729934
000110 c0 58 23 3c 00 41 54 3c 9a 6e 54 3d a9 6b 23 bd
       0.00996989 0.01295495 0.05186329 -0.039897595
000120 68 aa 18 3c b5 68 87 3d 04 2e f8 bc 48 9a 82 3c
       0.009317972 0.06611768 -0.03029538 0.015942708
000130 b4 1d 73 bd e8 19 bd bc 96 1a dc bc a7 33 85 bd
       -0.0593545 -0.023083642 -0.026868146 -0.065039925
000140 8d 2a 95 3d f6 9d 4c 3d a2 73 4f 3d a4 40 bb 3c
       0.072835065 0.04995533 0.050647385 0.022857971
000150 cc 49 36 3d c2 7c 25 bd a2 a8 61 bd aa 72 64 bd
       0.044503972 -0.04040218 -0.05509246 -0.055773415
000160 e8 36 60 3c 4c 1d 88 3c f0 3b 2a bc f0 5a 8c bb
       0.013684966 0.016615532 -0.010390267 -0.0042833015
000170 64 30 e0 3c 1c 16 80 bd be 6c f0 bc 3c 89 39 bd
       0.027366824 -0.06254217 -0.029348727 -0.045296893
000180 92 c1 09 bd ae ef 28 bd 42 ef 4f bd c0 5d 28 bb
       -0.03363187 -0.0412442 -0.050765283 -0.0025690645
000190 dc d5 08 3d f8 78 d1 3c 20 8b 99 3b 26 bd 50 3d
       0.033407077 0.025570378 0.0046857744 0.050961636
0001a0 01 b3 0c bd c0 f3 e1 ba be f7 5c bd 59 6a 00 bd
       -0.0343504 -0.0017238781 -0.053947203 -0.03135142
0001b0 1a 78 2f 3d 18 de 77 3c ae 4d 1b bd e0 70 d6 3b
       0.042839147 0.015128635 -0.037915878 0.0065442175
0001c0 d6 df 85 bd e6 e8 5f bd 98 21 f3 3c b3 f3 20 bd
       -0.06536834 -0.05466547 0.029679105 -0.03929491
0001d0 de 4c 15 bd ec b8 3c 3d 07 42 8b 3d 80 12 c8 ba
       -0.03645026 0.046074793 0.06799703 -0.0015264302
0001e0 34 c9 b9 bc 1e 3d 6f 3d e8 33 63 3c f0 67 39 bd
       -0.022678949 0.058407895 0.013867356 -0.04526514
0001f0 f4 9f d1 3c f8 cd 04 3c 3e 8e 56 3d 47 fb 96 3d
       0.025588967 0.008105747 0.052381746 0.07372146
000200 60 47 94 3c d9 e7 8d bd 38 5d a5 3c d0 6b 8d bd
       0.01810044 -0.06928987 0.020186052 -0.06905329
000210 55 ee 25 bd b0 51 f8 3c 1e 40 23 3d b1 35 8e 3d
       -0.040510494 0.03031239 0.03985607 0.069438346
000220 00 04 1c 3a 52 f0 c2 bc 70 e9 ff 3b b4 3e d4 3c
       0.0005951524 -0.023796234 0.0078098103 0.025908805
000230 1b 07 8f bd 95 0f 61 bd c0 1a f4 3a f0 b2 ff bb
       -0.06983777 -0.0549465 0.0018623695 -0.0078033134
000240 98 46 51 3c 90 c5 88 bb 8a de 21 3d 5b ac 8e 3d
       0.0127731785 -0.004173942 0.03951887 0.06966468
000250 3e 21 6c 3d 57 fe 21 bd 78 28 10 3c 5a 63 88 bd
       0.05764889 -0.039549198 0.008798711 -0.06659575
000260 60 72 a9 3c f0 7c 97 3b 76 3e 0f 3d 16 5a 77 3d
       0.020684421 0.004623048 0.034971677 0.060388647
000270 ac fe 2a 3d 18 c7 88 bd f0 0b 07 3d ec 94 31 3d
       0.04174678 -0.06678599 0.03297037 0.043354914
000280 d7 1a 02 bd 69 ef 8c 3d 48 3d 37 bd 6c 08 6a bd
       -0.031763878 0.06881601 -0.044736177 -0.057136938
000290 5b 51 03 bd 20 53 a5 3b 7e 3c fb bc c0 6d 47 3b
       -0.03206001 0.0050453097 -0.030668493 0.0030430406
0002a0 cf 20 89 3d 0c 82 e2 3c 50 5a 44 bd 58 93 2b 3d
       0.06695711 0.027649902 -0.04793769 0.041888565
0002b0 cb 0b 35 bd 9d 60 11 bd f0 58 de bc ba cd b0 bc
       -0.0442007 -0.03549253 -0.027142018 -0.021582473
0002c0 3a a1 78 3d 74 0e 0b bd 72 b4 e6 bc 9e 8d 08 bd
       0.060700633 -0.03394933 -0.028162215 -0.03333818
0002d0 e8 95 13 bc 80 5e c1 3b d8 2a 01 bd f0 2d ff bb
       -0.009007908 0.005901158 -0.031535 -0.0077874586
0002e0 bc 09 51 bc 18 9b 7f 3c 86 50 fb bc 0a df 13 3d
       -0.0127586685 0.015600942 -0.030678045 0.03610138
0002f0 99 08 40 bd b6 7f 5b 3d 1e dc 50 3d 4d 58 75 bd
       -0.0468832 0.05358859 0.05099117 -0.059898663
000300 b7 b1 20 bd 0e 9c 98 bd 38 61 0f 3c 84 c7 9d 3c
       -0.039231982 -0.0745164 0.008751206 0.019260176
000310 00 16 a7 3c 7d 8b 96 bd 00 9f 6e 3a 00 34 b4 39
       0.020396233 -0.07350824 0.00091026723 0.00034371018
000320 80 8a 1e bd 40 00 3e bb 64 9f 25 bd 70 e1 0f 3d
       -0.038706303 -0.0028991848 -0.04043521 0.035127103
000330 95 d9 15 bd 90 87 92 bd 20 c9 bb 3b 90 e2 4c 3c
       -0.036584456 -0.07154763 0.005730763 0.012505189
000340 ad a4 45 bd 80 d6 0a 3b d6 4d 0a 3d 78 5c d8 bc
       -0.04825275 0.002118498 0.033765636 -0.02641128
000350 a0 f3 ea 3c 58 ae 29 bc a2 96 21 3d 40 0a 8d bd
       0.028680623 -0.010356508 0.039450295 -0.06886721
000360 a9 04 8a bd 20 84 dd 3b e8 41 5e 3c 70 f5 09 bd
       -0.0673917 0.0067601353 0.013565518 -0.033681333
000370 f0 f9 12 3c 8e d9 6a 3d 48 c6 27 bc 22 25 90 bd
       0.008970723 0.057336383 -0.010240145 -0.070383325
000380 80 cd 3a ba b4 21 68 bc ac 87 3f 3d 62 d2 34 bd
       -0.0007125959 -0.014168192 0.046760246 -0.04414595
000390 e8 08 93 bd c9 71 58 bd 7e 00 6f 3d 16 df 6e bd
       -0.07179433 -0.05284289 0.05835008 -0.05831822
0003a0 88 88 27 bd e3 26 98 3d 8c a2 bf 3c 00 aa 3e 39
       -0.04090169 0.07429292 0.023392938 0.00018183142
0003b0 5c b0 2b 3d 04 7f a5 3c 15 88 88 bd 42 de f0 bc
       0.041916236 0.020202167 -0.066665806 -0.029402856
0003c0 5d 88 90 3d e7 ea 1a bd f0 06 fc 3b 81 16 48 bd
       0.07057259 -0.037821677 0.0076912567 -0.048849586
0003d0 b0 81 8d bd 6c c3 bf 3c 67 6b 1c bd 56 69 45 3d
       -0.069095016 0.023408614 -0.038188364 0.04819616
0003e0 f8 bf 16 3d a0 dd 44 3d 50 04 f7 bb 2d d6 68 bd
       0.03680417 0.04806292 -0.007538356 -0.05684488
0003f0 78 1b bb bc 0c 60 4b bc 98 8d f0 3c ac 11 28 3d
       -0.022840247 -0.012413036 0.029364392 0.04103248

fc1.bias f4 [128]
000000 be 66 60 3d 65 78 80 3d e2 43 3d 3d 22 98 1d 3d
       0.054785483 0.062729634 0.046207316 0.038475163
000010 1a da b4 bc 30 7d 66 3c 4c 45 82 3c db f8 0e bd
       -0.022076655 0.014067933 0.015902184 -0.034905296
000020 6e 7f e4 bc 82 81 20 3d 68 76 fd bc 2c 6b 95 3c
       -0.027892794 0.03918601 -0.03094025 0.01823958
000030 5e 34 91 bd 88 73 db 3c 50 9f bd 3b f4 f9 37 3d
       -0.070900664 0.026788488 0.005786814 0.04491611
000040 b4 5c 36 bd 00 c8 f2 3c 64 e4 b9 bc 44 4f ea 3c
       -0.044522002 0.029636383 -0.022691913 0.02860225
000050 44 c0 a2 3c e0 df 39 3b 6c e9 b4 3c ab 49 59 bd
       0.01986707 0.00283622 0.02208396 -0.05304877
000060 62 88 51 3d e4 86 d6 bc a4 56 76 bc 2a 71 58 3d
       0.051155455 -0.026187368 -0.015035305 0.052842297
000070 a4 00 16 bd d7 8a 12 bd 69 6f 8b 3d e8 a4 2f 3c
       -0.036621705 -0.03577694 0.06808359 0.010720469
000080 de 4b 5b bd de 4e 92 bd ca a8 50 bd d8 28 2e 3c
       -0.05353915 -0.07143949 -0.05094222 0.010629855
000090 85 d3 83 3d bd e5 88 3d 42 3e 78 3d 44 f5 e7 3c
       0.064368285 0.06684444 0.06060625 0.028315194
0000a0 cd 92 8c 3d d8 54 20 bc 40 06 96 3c bb 92 87 bd
       0.068639375 -0.009785853 0.018313527 -0.066197835
0000b0 35 e4 21 bd 90 c8 9d 3b 88 5a 94 3c 2f 8d 7b bd
       -0.039524276 0.0048151687 0.018109575 -0.06141394
0000c0 18 7a 28 3c d8 f9 15 3c 18 45 91 3c 4a f2 46 bd
       0.010283016 0.009153806 0.017733142 -0.04857091
0000d0 3c 24 cd 3c 1c a3 f3 bc 16 57 5b 3d df e4 97 3d
       0.025041692 -0.029740863 0.05354985 0.074167006
0000e0 08 9b 4d 3c cc 60 a0 bc ac 71 e2 bc d0 1f 05 3d
       0.012549169 -0.019577406 -0.027642094 0.032501042
0000f0 18 83 3b 3c c0 4d c0 3a 82 f3 93 bd b8 7b 26 3d
       0.011444829 0.0014671609 -0.0722418 0.04064533
000100 34 3f e4 3c cc 03 25 3d dd 2c 56 bd 40 53 ad 3b
       0.027862169 0.040286824 -0.05228888 0.005289465
000110 9a 19 d4 bc f0 8e b2 3c 82 d3 5b 3d da 9a 09 3d
       -0.025891114 0.021796674 0.053668506 0.033594944
000120 50 b5 81 3b a0 19 5e bc 00 e5 6d 3a 78 26 e1 3c
       0.0039583817 -0.013555914 0.0009074956 0.027484164
000130 04 31 77 bd 90 bd 32 3c f9 1b 86 3d 7c 5c 4d bd
       -0.06034948 0.010909453 0.06548304 -0.050137028
000140 f8 6f 25 bd b0 17 ee 3c 60 5e 41 bc e8 d0 2f 3c
       -0.040389985 0.02906403 -0.011802286 0.0107309595
000150 36 a2 22 3d 8d 9b 6c bd 9e ee 0e bd 72 99 2f bd
       0.039705478 -0.057765532 -0.03489553 -0.042870946
000160 b0 84 42 bd aa 3d 5b 3d c4 0f fe bc e2 51 ae bc
       -0.047489822 0.053525604 -0.031013377 -0.02127928
000170 ab b8 72 bd 22 90 91 bd b0 e7 24 bd 94 dd ac 3c
       -0.059258144 -0.07107569 -0.040260017 0.02110175
000180 14 76 e0 3c 9b 97 84 bd 60 ab 4a bb 35 61 86 bd
       0.027400054 -0.06474229 -0.0030924901 -0.065615095
000190 f8 f7 19 bc bd 5a 79 bd 0a 3b a1 bc f0 59 1e bc
       -0.009397499 -0.06087755 -0.019681472 -0.009664997
0001a0 24 af 9f 3c 2a 44 0d 3d c4 99 05 3d c8 eb 35 3d
       0.019492693 0.034488834 0.032617345 0.04441431
0001b0 9b 86 75 bd a2 e6 85 bd c2 33 8a bc 5a fa 06 bd
       -0.059942823 -0.0653813 -0.016870383 -0.032953598
0001c0 18 40 32 3d 78 cb 12 3c 34 be 2b bd cd ef 89 3d
       0.043518156 0.008959644 -0.04192944 0.067351915
0001d0 40 c8 f8 bc 60 a2 b8 3b d0 dd 61 bc 10 d5 b1 3c
       -0.030368924 0.005634591 -0.013785794 0.021708041
0001e0 80 53 43 bc a0 d8 c9 bc 00 10 fa 3b 4e 3f 61 3d
       -0.011921763 -0.024639428 0.007631302 0.054992013
0001f0 1e 21 45 3d 84 b9 d2 bc 08 24 42 3c 2a 33 67 bd
       0.048127286 -0.025723226 0.011849411 -0.05644528

fc2.weight f4 [128, 128]
000000 1e ef 4d bd e9 59 a1 3d ca 13 54 3d 72 27 1e 3d
       -0.050276868 0.07878477 0.051776685 0.038611837
000010 3e 43 0f bd dd 63 ae 3d 75 b6 8e 3d d0 a1 6a 3c
       -0.034976237 0.08515141 0.06968395 0.014320806
000020 50 fa a4 3c 7f b0 98 3d 14 bf 75 bd 34 4c a5 3c
       0.02013889 0.07455539 -0.05999668 0.020177938
000030 ed 50 86 3d 00 95 e3 bc ee 90 6f 3d 9f 2a 84 3d
       0.06558404 -0.02778101 0.058487825 0.06453442
000040 88 f6 03 3d 04 29 c2 bc 7b da ab bd e0 16 c8 3c
       0.032217532 -0.023701198 -0.08391281 0.02442497
000050 8f f8 91 bd 1a 5a 49 3d 7a b2 45 3d 20 ee 8b 3c
       -0.07127487 0.049158193 0.04826591 0.01708132
000060 43 db b0 3d d4 8f d7 3c a2 85 16 3d 73 0b 2e bd
       0.08635571 0.0263137 0.036748536 -0.042491388
000070 62 af 58 3d 1c 49 90 bd ee 2f f0 bc ef 08 93 bd
       0.052901633 -0.070451945 -0.02931973 -0.07179438
000080 00 f0 32 3b 1c 81 a4 3c 68 ee 14 3c 0c 05 ea 3c
       0.0027303696 0.020081095 0.009090044 0.02856686
000090 10 b7 50 3c 5e 41 e3 bc d8 f9 83 bc 30 ee 6e 3c
       0.012738958 -0.02774113 -0.016110346 0.0145831555
0000a0 0a 7a 1a 3d c0 57 47 3c 0c 1b bc bc 0e f6 89 bd
       0.03771404 0.012166917 -0.022962116 -0.06736384
0000b0 87 e4 88 bd 0e 2c 38 bd 00 5a 28 3a 66 f9 6b 3d
       -0.06684213 -0.04496389 0.00064221025 0.05761089
0000c0 da fa a2 bd 3f 7e 87 3d 2e 07 23 3d 18 81 e7 3c
       -0.079580024 0.066158764 0.03980177 0.028259799
0000d0 f7 45 a9 3d 20 73 f4 bb a0 f6 06 3d a8 d6 57 3c
       0.08265298 -0.007460013 0.032950044 0.013173737
0000e0 18 62 19 bc eb d6 ab 3d ae c6 25 bd db c3 6c bd
       -0.009361766 0.08390602 -0.04047268 -0.05780397
0000f0 b7 fa 0f bd 90 26 a0 bc 12 c1 7a 3d 3d 38 90 bd
       -0.03515121 -0.019549638 0.061219282 -0.070419766
000100 94 8a 90 bd e0 2d 06 3d a4 92 97 bd f5 44 88 3d
       -0.07057682 0.032758594 -0.07401016 0.066537775
000110 80 0c 96 bd a5 a9 ad 3d c6 7b 4e 3d 42 df 0d 3d
       -0.07326603 0.08479623 0.05041101 0.034636743
000120 94 ec 8f bc e0 d9 6a 3b ed 9b b2 bd 1c 69 be bc
       -0.017568864 0.003583543 -0.08721147 -0.02324348
000130 c1 06 83 bd 50 10 e7 3c c0 69 88 bd 90 de e8 bb
       -0.063977726 0.02820602 -0.06660795 -0.0071066096
000140 86 ed 70 bd 49 01 a8 3d f8 a6 b0 bc a8 3e 42 bc
       -0.05882027 0.0820337 -0.021563992 -0.011855759
000150 62 9f 57 bd 11 95 a5 bd 6a be 34 bd 5a 1a 1c 3d
       -0.052642234 -0.08085073 -0.044126906 0.03811107
000160 40 46 7d bc 19 31 a1 bd 8a 21 a1 bd 9e 8b 45 3d
       -0.015458643 -0.07870693 -0.07867725 0.048228852
000170 00 fb ea 3a 08 f8 c3 3c f6 6a 6a bd 90 22 dc 3b
       0.0017927587 0.023921981 -0.057230912 0.0067179874
000180 2d 3c ad 3d cc b3 94 3c e5 0d a3 3d e2 35 38 3d
       0.08458743 0.01815214 0.079616345 0.04497326
000190 38 a3 3b bc 80 95 03 bc 07 d1 aa 3d 6e 17 49 3d
       -0.011452489 -0.008031249 0.0834065 0.04909461
0001a0 35 9a 5a bd e6 fe 17 3d 69 d7 07 bd a0 a6 b8 bc
       -0.05336972 0.037108324 -0.033164416 -0.02254039
0001b0 2e c8 a5 bd fc 3e 2d bd 04 56 9c bc eb 58 31 bd
       -0.08094822 -0.042296395 -0.019083984 -0.04329769
0001c0 b8 d0 84 bc f7 9f af 3d a8 0f a3 3c 9b f3 aa bd
       -0.016212806 0.08575433 0.019904926 -0.08347245
0001d0 90 3b 9f 3b ce 48 12 3d 48 56 1b bc 0d 70 8e 3d
       0.0048593953 0.035713963 -0.00948102 0.06954966
0001e0 06 d0 57 3d 80 55 93 bb b2 94 00 3d 34 6f 1a bd
       0.05268862 -0.0044962764 0.031391807 -0.037703708
0001f0 28 3a 6a bc 39 35 8f 3d c5 80 84 3d 28 ac 1c 3c
       -0.014296092 0.06992573 0.06469873 0.00956253
000200 79 d9 99 3d 34 7c bf bc 34 33 b8 bc 66 41 59 3d
       0.07512183 -0.023374654 -0.022485353 0.053040884
000210 78 2a 08 bc b8 2d 01 bc ad 80 a1 3d 70 83 9f 3c
       -0.008310907 -0.007884435 0.07885871 0.019471854
000220 30 e1 c0 bb de 22 36 3d 44 6b 89 bc fd ac 13 bd
       -0.0058862194 0.044466846 -0.016774781 -0.036053646
000230 98 b0 87 bd d8 97 c8 3c 00 3a e0 39 68 65 93 3c
       -0.066254795 0.024486467 0.00042767823 0.01799269
000240 41 f8 ad bd d0 2f 9c 3b 02 ee 58 3d 68 26 c9 3c
       -0.08494616 0.004766442 0.052961357 0.024554446
000250 6d 0f b1 3d a0 ee 0f 3b 30 f5 b8 3b ee d7 8b bd
       0.0864552 0.00219623 0.005644463 -0.06828295
000260 d0 4e e8 3c 69 3f 87 bd ab a2 97 3d 6e a8 19 3d
       0.028357893 -0.066038914 0.07404073 0.037514143
000270 8c 72 07 3d 50 8a 57 bc 7e 61 1d 3d 58 16 10 3c
       0.033068225 -0.013155535 0.038423054 0.00879439
000280 96 ff 5e 3d 9f 0c 89 bd df 2f 8c 3d 80 1d 44 3a
       0.054442964 -0.066918604 0.06845068 0.00074812025
000290 42 2e 33 3d 45 04 97 3d b0 1b 94 bc 83 3e 8f 3d
       0.043745287 0.07373861 -0.018079609 0.06994345
0002a0 9a 85 23 3d da d7 7c 3d 58 97 1c bc 51 d4 a9 3d
       0.039922334 0.06172929 -0.009557568 0.08292449
0002b0 35 f9 b0 3d 1e 72 7e 3d 8c d0 cc 3c 4f 85 96 3d
       0.086412825 0.06212055 0.025001787 0.07349645
0002c0 78 68 fa bc 24 ee 93 bd 0a c2 04 bd 58 c9 18 bc
       -0.030567393 -0.07223156 -0.032411613 -0.009325348
0002d0 0a c2 a5 bd b7 8d 66 bd a8 bc 38 bc 90 64 e3 bc
       -0.08093651 -0.056287494 -0.011275448 -0.027757913
0002e0 c0 5b bc 3c 2b de 98 bd 9a 87 16 3d 20 e2 09 bb
       0.022992969 -0.0746425 0.036750413 -0.0021039322
0002f0 0e b7 44 3d 05 af 9b 3d d7 f5 a5 3d c0 a7 9e 3c
       0.048026137 0.07601742 0.08103531 0.019367099
000300 85 90 a3 3d a5 09 a5 3d f2 ed ac bd 5a 22 55 3d
       0.07986549 0.0805848 -0.08443822 0.052034713
000310 7d f2 82 3d 22 85 18 bd 4d 24 4b bd be ce 13 3d
       0.06393907 -0.03723634 -0.049595166 0.036085837
000320 70 8f 97 3c 1f 89 97 3d 26 f9 1c 3d 00 e3 8b bb
       0.018501014 0.07399201 0.038323544 -0.004269004
000330 04 7a e3 3c 25 93 ac 3d c6 0f 64 3d a0 0d 26 bb
       0.027768143 0.08426503 0.055679105 -0.002533771
000340 d0 d1 df 3c 4b fa 98 3d 04 27 49 bd 2b 0e a6 3d
       0.027321726 0.074696146 -0.049109474 0.08108171
000350 fc 75 fb bc 22 63 27 bd 72 6e 10 3d ae 59 32 3d
       -0.030695908 -0.040866025 0.03526158 0.043542556
000360 0d ca 40 bd 53 f8 a4 3d ce cb 23 3d 8b fd 86 3d
       -0.04706769 0.080551766 0.039989285 0.06591328
000370 74 49 81 3c 64 65 e5 3c 6a ae 17 bd 67 dc a8 3d
       0.015782095 0.028002448 -0.03703157 0.082451634
000380 50 fe 4d 3c 1b fb a5 bd 40 c6 41 3b 68 af 5c bc
       0.01257284 -0.08104535 0.002956763 -0.0134695545
000390 f0 c1 aa bd 17 9a 8e 3d ee c2 8b bd 65 63 b1 3d
       -0.08337772 0.06962984 -0.06824289 0.08661536
0003a0 88 33 3b bd 95 e3 32 bd d6 d7 17 3d 55 40 2b bd
       -0.04570344 -0.04367407 0.03707107 -0.0418094
0003b0 e7 48 9d 3d 2d db 9b 3d c2 f3 7e bd 8c 29 41 bd
       0.07679921 0.07610164 -0.062244184 -0.047158763
0003c0 c5 78 83 3d 00 57 80 bb 6d ae 9c bd 72 5c 8e bd
       0.06419519 -0.003916621 -0.076504566 -0.06951226
0003d0 f8 da b4 3c f1 6f 8d 3d a0 73 a9 bd c0 6d 1c bb
       0.022077069 0.06906117 -0.08274007 -0.0023869127
0003e0 2f d7 af 3d 04 ef 11 bd b0 86 f7 3c bd 0e 88 bd
       0.08585965 -0.035628334 0.030215591 -0.06643436
0003f0 be 12 b0 bd e2 20 79 3d 04 7e be bc 10 05 3e bc
       -0.08597325 0.060822375 -0.023253448 -0.011597887

fc2.bias f4 [128]
000000 ee 0a 43 bd 2f 60 8d bd 38 79 0d 3c 32 80 69 3d
       -0.047617845 -0.06903111 0.008634858 0.057007022
000010 c2 b4 93 bd 5b 75 1e bd 82 87 5d bd 6a 37 6f 3d
       -0.07212211 -0.038686138 -0.05408431 0.058402456
000020 7a f0 2f 3d d9 bc 85 3d 2e e1 f2 bc ce d4 5c 3d
       0.042953946 0.065301605 -0.02964839 0.053913884
000030 f2 c8 38 3d 8e e1 78 3d cb 32 b1 3d 46 ec 18 3d
       0.04511351 0.06076198 0.08652266 0.037334703
000040 8c 69 ee 3c 2d 99 a9 3d 93 fa 82 3d b1 59 b2 3d
       0.029103063 0.08281169 0.063954495 0.087085135
000050 7b 18 9a 3d c0 28 52 3b f7 ee ab 3d ae 19 a6 bd
       0.075242005 0.0032067746 0.08395188 -0.08110367
000060 c8 62 ee 3c dc 78 b0 bc 8a 44 af bd 96 44 77 bd
       0.029099837 -0.021542005 -0.08557995 -0.060368143
000070 9e 6f 8b bd 87 f5 68 bd 8e 8b 1f 3d 34 7b 99 bc
       -0.06808399 -0.056874778 0.03895145 -0.018735506
000080 bc 30 81 bc 6b 3c ae bd 80 00 d6 3b 76 48 3a bd
       -0.015770309 -0.085076176 0.0065308213 -0.04547926
000090 38 0f 53 bc 68 bc a8 3c 0f ad a6 bd 00 09 b9 3b
       -0.012882046 0.020597652 -0.08138477 0.005646825
0000a0 f0 5b 88 bb f0 19 6e 3c 9c e2 6d bd 8e dc ab bd
       -0.0041613504 0.014532551 -0.05807744 -0.08391677
0000b0 c0 43 83 bc 61 01 84 bd 88 87 6c 3c 1e a4 ac bd
       -0.016023517 -0.064455755 0.01443661 -0.0842974
0000c0 24 56 eb 3c 94 c7 d8 3c 02 30 7c bd 20 db 05 3b
       0.028727598 0.026462354 -0.06156922 0.0020424798
0000d0 90 35 f2 3b e9 df ac 3d 89 b4 a3 3d 48 af 9f 3c
       0.007391639 0.08441145 0.07993419 0.01949276
0000e0 3d b8 92 3d 50 11 94 bc a0 6c 7b 3b 7e 31 5a 3d
       0.07164047 -0.018074661 0.0038364306 0.053269856
0000f0 c8 af f0 3c d0 ae 9e 3c a8 ff b6 3c 80 25 eb 3a
       0.029380694 0.019370466 0.022338703 0.0017940253
000100 cc e9 55 bd ce 0c 1d 3d de 26 5b bd e9 b4 8a 3d
       -0.05222492 0.03834229 -0.053503864 0.06772787
000110 44 0e a6 bd e0 e7 57 3b be 54 4c 3d e6 47 9d bd
       -0.0810819 0.0032944605 0.049885504 -0.07679729
000120 a6 ff 25 3d 15 ff a4 bd ee 55 42 3d 5b ca a0 3d
       0.04052701 -0.080564655 0.04744523 0.07851096
000130 03 31 39 bd ff c7 90 3d 18 88 80 bd 50 3c d5 3b
       -0.045212757 0.07069396 -0.06275958 0.006507434
000140 1e f1 44 3d f8 2f 27 3c ea c1 40 3d 86 a6 34 3d
       0.04808151 0.010204308 0.04705993 0.04410412
000150 c0 7b 1c 3c 48 16 68 bc 0b f6 17 bd 28 da 35 3c
       0.009550989 -0.0141654685 -0.03709988 0.011099376
000160 39 aa 95 3d 21 bd 33 bd b2 e5 6a bd 9a 6a 37 3d
       0.07307858 -0.04388154 -0.05734796 0.044779398
000170 20 12 5c bc 49 c7 8c 3d d3 6c 84 bd 40 4a 5d bb
       -0.013432056 0.06873948 -0.06466069 -0.003376618
000180 51 df 15 bd 20 32 7a 3b 56 e1 5c 3d 2c e1 7e bd
       -0.036589924 0.003817685 0.053925835 -0.06222646
000190 f0 1f 57 bd f6 4a 9c bd 03 bb ad bd 20 49 e7 bc
       -0.052520692 -0.07631485 -0.08482935 -0.02823311
0001a0 aa 61 4e 3d ce 5c 43 3d 03 f0 36 bd b4 33 ed 3c
       0.05038611 0.047695927 -0.044662487 0.028955318
0001b0 89 c9 0f bd 00 b8 07 3c b0 e0 d2 bb d5 89 4e bd
       -0.03510431 0.008283615 -0.0064354762 -0.050424416
0001c0 12 d1 18 3d 01 b9 b0 3d 01 d7 88 3d c3 df a8 bd
       0.03730876 0.08629037 0.06681634 -0.08245804
0001d0 30 30 0e bd 6b 69 8e 3d 87 d2 27 bd 72 f3 43 3d
       -0.034713924 0.06953701 -0.04097226 0.04783959
0001e0 ed 62 91 3d c8 e6 2e 3c 01 60 99 bd 90 d2 94 bd
       0.07098947 0.01067514 -0.074890144 -0.07266724
0001f0 26 95 3f 3d 7e 52 8b bd 0a 99 50 3d 4e bd 75 3d
       0.0467731 -0.068028435 0.0509272 0.05999499

fc3.weight f4 [1, 128]
000000 e5 93 8c 3d 56 d1 2a 3d 88 15 91 bd f7 da 64 bd
       0.06864146 0.041703545 -0.07084185 -0.055872884
000010 b8 1d 40 bc f7 4f 86 3d 43 b1 90 3d a6 9d 2c 3d
       -0.0117258355 0.06558221 0.0706506 0.042142533
000020 de 20 5a 3d 58 27 43 3c bb c8 65 bd 7a 66 11 bd
       0.053254 0.011911236 -0.056099635 -0.03549812
000030 60 7b 96 bb 44 ca a3 bc ba 8b 5a 3d e0 d0 ce 3b
       -0.004592344 -0.019993909 0.05335591 0.006311521
000040 88 d7 47 bc 58 d4 d0 3c 18 5d 66 bc 80 f5 df 3c
       -0.012197383 0.025491878 -0.014060281 0.027338743
000050 dc 60 96 bd ea 3f fb bc a3 53 37 bd 80 fc 65 3a
       -0.07342693 -0.030670125 -0.044757497 0.0008773282
000060 c0 96 6b 3b a4 bb 81 bd f9 ee ad 3d 21 89 92 bd
       0.0035948008 -0.06334618 0.08492846 -0.071550615
000070 84 5e 5e bd ed 47 8d bd 38 aa 76 3c fc 5c f5 3c
       -0.054289356 -0.068984844 0.015055232 0.029951565
000080 28 10 56 3c e2 62 9c bd 00 99 7a 3b ef a6 85 3d
       0.013065375 -0.07636048 0.0038238168 0.06525981
000090 b7 90 84 3d fb 8d 7b bd 58 df 70 3c a2 f3 98 bd
       0.06472915 -0.0614147 0.014701687 -0.07468344
0000a0 a8 b9 42 bd b0 79 ae bd 20 bb 71 bb 00 d8 21 38
       -0.047540337 -0.08519304 -0.0036885217 3.8586557e-05
0000b0 b8 1e 3a 3c 00 12 72 3a 2a 9f 76 bd 11 7a 06 bd
       0.011359863 0.00092342496 -0.060210384 -0.032831255
0000c0 ce 4c 4d 3d f7 40 9e bd 2b 89 80 bd 78 7d 7a 3c
       0.050122075 -0.07727235 -0.06276163 0.015288703
0000d0 00 2f 35 bb 14 17 3c bd c2 6f 70 bd 90 45 25 3c
       -0.0027646422 -0.045920447 -0.05870033 0.010087386
0000e0 5f df 83 bd b1 f8 a6 3d e2 ad a2 bd 8b f8 83 3d
       -0.06439089 0.08152903 -0.07943322 0.0644389
0000f0 7e 9b f9 bc d0 ce 96 3b 4d 6a 8e 3d a0 91 f6 bb
       -0.030469652 0.0046022907 0.06953869 -0.007524684
000100 98 ad 9d bc eb e6 85 bd c5 bc 73 bd 88 f9 01 3c
       -0.019247815 -0.06538185 -0.059506197 0.007933028
000110 b0 e7 14 3d c8 81 d2 3c 1c 5f db 3c e6 8f de bc
       0.036353767 0.02569665 0.02677875 -0.027168225
000120 aa b4 6f 3d aa 06 04 bd f4 67 46 bd 80 1e fb 3a
       0.058521904 -0.032232918 -0.04843898 0.001915887
000130 00 a7 47 ba 66 2e 76 3d 3a 48 0c 3d a0 60 57 3b
       -0.00076161325 0.060102843 0.034248568 0.003286399
000140 dc 5e c1 3c 44 1b 9d bc 75 5a 30 bd f4 3b b0 3c
       0.023604803 -0.01917804 -0.043055017 0.021512963
000150 1c 19 42 bd a3 83 ad bd b4 43 05 bd 94 f3 6f bd
       -0.047387227 -0.08472373 -0.03253527 -0.058581904
000160 be 8f 33 3d cc 60 61 bd b2 aa 4a 3d 0b e2 b1 3d
       0.043838255 -0.055023953 0.049479194 0.086856924
000170 47 7d 90 3d f9 44 3e bd 58 50 37 bc b1 7b a2 3d
       0.07055145 -0.046452496 -0.011188589 0.079337485
000180 19 df 94 3d 96 73 db bc 70 cc a9 bb 79 ef 9c 3d
       0.07269115 -0.026788514 -0.0051818416 0.07662863
000190 86 0a 78 3d 3f d8 0a bd 56 22 86 bd e2 ca 9a bd
       0.06055691 -0.033897635 -0.06549518 -0.07558228
0001a0 e1 08 84 3d da c9 3e 3d 38 16 6e 3c 56 ab 66 3d
       0.06447006 0.04657922 0.014531665 0.056315742
0001b0 bc 8e c8 bc d8 ef fb 3c 7d 4d 9d 3d 50 63 c1 3b
       -0.024482124 0.030754015 0.07680795 0.0059017316
0001c0 c3 35 a7 3d c3 b9 ae 3d b8 7b 9a bd 56 f8 5a 3d
       0.08164551 0.08531525 -0.07543129 0.053459488
0001d0 7e 66 6d bd c5 6b 83 3d ac e5 8e bd 00 25 f6 bb
       -0.057959072 0.0641704 -0.069774 -0.007511735
0001e0 9e 3f 70 bd e2 f9 70 3d 24 38 30 bd 2c 88 97 bd
       -0.05865442 0.058832057 -0.04302229 -0.073990196
0001f0 ff c3 b3 3d c8 51 aa bd 35 ae 1f bd 2d 60 05 bd
       0.08777618 -0.0831638 -0.038984496 -0.032562423
